rl_agents/checkpoint_dqn_seed_42_ep_1000.pth (torch, 22121 bytes, 6 tensors)

net.0.weight f4 [64, 3]
0	0x3f1db114	0.61598325
1	0x3f67bd1e	0.90522945
2	0xbefd28fb	-0.49445328
3	0x3f5c59cc	0.8607452
4	0xbacea3e0	-0.0015765391
5	0x3e711792	0.23544148
6	0xbef0cfaf	-0.4703345
7	0x3e680a0f	0.22660087
8	0x3f58886a	0.8458315
9	0xbf31077a	-0.69152033
10	0x3f44599a	0.7669922
11	0x3ebbc35e	0.3667249
12	0x3f5e98ea	0.8695208
13	0xbbf78b85	-0.007554474
14	0x3f06f368	0.5271516
15	0xbeb1bbc9	-0.3471358
16	0x3f3197cc	0.6937225
17	0x3e6d9866	0.23202667
18	0xbe5aaab4	-0.2135418
19	0x3edea8fe	0.43488306
20	0xbf96b7a3	-1.1774791
21	0xbbbd2f1b	-0.0057734377
22	0x3d27ed44	0.04099776
23	0x3e9e413e	0.3090915
24	0xbf172ff6	-0.5905756
25	0xbeef74d6	-0.46768826
26	0xbed09b06	-0.40743273
27	0xbf30c8d0	-0.69056416
28	0x3dee1e5b	0.116268836
29	0xbf5b2901	-0.8560944
30	0x3f2d59c9	0.67715126
31	0xbf57dd9b	-0.8432252
32	0x3e8d9984	0.27656186
33	0x3c82ef19	0.015983151
34	0x3afa3dc3	0.0019091893
35	0xbce4c9aa	-0.027928192
36	0xbda88396	-0.08228223
37	0x3f90972b	1.1296133
38	0xbc386494	-0.011254448
39	0xbe3a7362	-0.18208078
40	0x3e1ed8fc	0.1551246
41	0xbe2052b6	-0.15656552
42	0x3edc7bd3	0.4306322
43	0x3f4f681b	0.8101823
44	0x3f00216b	0.5005099
45	0xbf506281	-0.81400305
46	0x3e8bebeb	0.2732843
47	0x3dfad3d2	0.12247433
48	0x3d4b4939	0.049630377
49	0xbf748dc7	-0.95528835
50	0xbebf1151	-0.373179
51	0xbf1842c5	-0.5947688
52	0xbf0da5da	-0.55331194
53	0x3e9a64bc	0.3015498
54	0x3e835f90	0.25658846
55	0x3e5498b5	0.20761378
56	0xbe12fec6	-0.14355001
57	0x3de9472b	0.11390527
58	0x3f6777dc	0.90417266
59	0xbfeed6eb	-1.8659338
60	0x3e879436	0.26480263
61	0xbf11fc59	-0.57025677
62	0x3edc371b	0.43010792
63	0xbebc05aa	-0.3672307
64	0x3f21eef0	0.63255215
65	0xbf2127e3	-0.6295149
66	0x3fa440f3	1.2832321
67	0xbedc7a50	-0.43062067
68	0xbcf78edb	-0.030219486
69	0xbf5245d9	-0.8213783
70	0x3f603637	0.87582725
71	0x3d11685c	0.035499915
72	0x3fa70ed1	1.3051397
73	0xbf3f2d79	-0.7467876
74	0xbf14f4a9	-0.5818582
75	0xbf8160fe	-1.0107725
76	0xbf1ba5ef	-0.6080007
77	0x3e77acc8	0.24187005
78	0x3d3cfb6e	0.04613822
79	0x3f888698	1.0666075
80	0xbf32aa59	-0.6979118
81	0xbf5661a3	-0.8374273
82	0x3f118e46	0.5685772
83	0xbf4a3690	-0.78989506
84	0x3f2e0ea3	0.67991084
85	0x3c93560b	0.017985364
86	0x3f286757	0.65782684
87	0xbefa15cb	-0.48844752
88	0xbf0622f0	-0.5239706
89	0x3d96600b	0.073425375
90	0x3f1e17c7	0.6175503
91	0x3c0a6077	0.008445851
92	0x3f210020	0.62890816
93	0x3f827082	1.0190585
94	0xbed102a1	-0.40822318
95	0xbeab2849	-0.33429173
96	0x3f8749d1	1.0569402
97	0x3e4c1c29	0.19932617
98	0xbf083d9d	-0.53219014
99	0xbf2fa55d	-0.686117
100	0xbf0f4d90	-0.55977726
101	0x3dd9723b	0.10617491
102	0xbd841bf0	-0.06450641
103	0xbe805d8e	-0.25071377
104	0xbe286692	-0.16445377
105	0xbf18c7e3	-0.5968
106	0xbf4c3685	-0.7977069
107	0xbe545ef3	-0.20739345
108	0xbf049a58	-0.5179801
109	0xbee4112a	-0.44544345
110	0x3f7c8189	0.98635155
111	0x3ddf5408	0.109046996
112	0x3e362fa4	0.17791611
113	0xbf09da30	-0.5384855
114	0xbf93f0fc	-1.1557918
115	0xbeb708da	-0.3574894
116	0x3ec85b66	0.3913223
117	0xbe94fada	-0.29097635
118	0xbea9c822	-0.33160502
119	0xbf4394b6	-0.7639879
120	0x3df3697c	0.11885354
121	0xbe5e504c	-0.21710318
122	0xbea45915	-0.32099214
123	0xbeb3ca49	-0.3511527
124	0xbef29c67	-0.4738495
125	0xbf032c4a	-0.51239455
126	0xbe394651	-0.1809323
127	0xbe870c19	-0.26376417
128	0x3e881cf5	0.26584592
129	0xbf08683e	-0.5328406
130	0x3f3828e1	0.71937376
131	0x3d23be31	0.039976303
132	0xbf5e097d	-0.8673323
133	0x3ec6358b	0.38712725
134	0xbe9636dd	-0.29338732
135	0xbdfd760a	-0.1237603
136	0xbf971337	-1.1802739
137	0xbfaefb51	-1.3670446
138	0x3f196a8f	0.5992822
139	0xbe251f04	-0.16125113
140	0x3f09b93a	0.5379826
141	0xbee97c66	-0.4560272
142	0x3f6b85ea	0.9200121
143	0xbf716c17	-0.94305557
144	0xbe5fb7af	-0.21847413
145	0x3d239d6c	0.03994505
146	0xbd645d25	-0.055752892
147	0x3f95f05b	1.1713976
148	0x3f3e8675	0.74423915
149	0xbed17cc1	-0.40915492
150	0x3f57e245	0.84329635
151	0xbdd70800	-0.10499573
152	0x3d7f56d1	0.062338654
153	0xbf33f4c4	-0.7029536
154	0x3f30d2f0	0.69071865
155	0xbf6952ea	-0.9114214
156	0x3f079c80	0.52973175
157	0x3e0d0d57	0.1377462
158	0x3e8f6f98	0.28014827
159	0xbf3cda39	-0.7377048
160	0x3f2918ef	0.6605367
161	0x3e862e31	0.26207116
162	0x3d21457d	0.03937291
163	0xbf80ca23	-1.0061687
164	0x3eb6e912	0.35724694
165	0xbe40a3ed	-0.18812533
166	0xbedde448	-0.43338227
167	0x3e84308c	0.25818288
168	0x3e387f48	0.18017304
169	0xbf604c29	-0.8761621
170	0xbf29743a	-0.6619297
171	0xbe4181b1	-0.1889713
172	0x3f2f9b1e	0.68596065
173	0xbe16a181	-0.14710046
174	0xbe8295b8	-0.2550485
175	0xbf2c1a9f	-0.6722812
176	0xbf86d1e9	-1.053281
177	0x3f86d87f	1.0534819
178	0x3f89c212	1.076235
179	0xbe2876a9	-0.16451515
180	0x3eb663c2	0.35622984
181	0x3f286dc5	0.65792495
182	0x3eab135b	0.33413205
183	0x3d6ad184	0.057328716
184	0x3ee96e4e	0.45591968
185	0x3f1dd907	0.6165928
186	0x3ee11da6	0.43967932
187	0xbeaf2428	-0.34207273
188	0xbe6fe15d	-0.23425813
189	0x3d7cfdc0	0.061765432
190	0xbdd0e0d0	-0.101991296
191	0xbe302e22	-0.17205098

net.0.bias f4 [64]
0	0x3f36e167	0.71437687
1	0x3ec388c5	0.38190284
2	0xbec0a654	-0.37626898
3	0xbda058f0	-0.078294635
4	0xbe453df8	-0.1926192
5	0x3c72f16f	0.01482807
6	0x3edb1152	0.42786652
7	0xbe998c23	-0.29989728
8	0xbf126bba	-0.5719563
9	0x3b78abf2	0.0037944284
10	0x3da5c529	0.08094246
11	0xbc9a15d9	-0.018809246
12	0xbdc0ee98	-0.09420508
13	0xbeb23890	-0.3480878
14	0xbf1c256b	-0.60994595
15	0xbf25751e	-0.6463183
16	0x3da54781	0.08070279
17	0xbdb9a7cb	-0.09065207
18	0x3eac53bb	0.3365763
19	0x3f4025f9	0.7505794
20	0xbf2710a2	-0.65259755
21	0xbe75eac9	-0.24015345
22	0x3ece9a81	0.40352252
23	0x3f15d287	0.58524364
24	0x3ec7a815	0.38995424
25	0x3cc2b02c	0.023765646
26	0x3eb15943	0.34638414
27	0x3e04c241	0.12964727
28	0xbf293c43	-0.6610758
29	0x3eb8e476	0.36111802
30	0xbf284c9e	-0.6574191
31	0x3e8c3adc	0.27388656
32	0x3d1c88a3	0.038216244
33	0x3edc903a	0.43078786
34	0x3f1b4bb0	0.60662365
35	0x3eca273f	0.39483067
36	0xbf128ec0	-0.5724907
37	0xbf11df12	-0.56981003
38	0xbf225d00	-0.63423157
39	0x3f98b6f8	1.1930838
40	0x3f3a34df	0.72736925
41	0x3f56ac08	0.8385625
42	0xbe597e4c	-0.21239585
43	0x3ebc6ac3	0.36800203
44	0x3db85440	0.090004444
45	0x3e34e304	0.17664725
46	0xbf00422e	-0.5010098
47	0xbeeed470	-0.46646452
48	0x3b1049e3	0.0022016696
49	0xbe604ceb	-0.21904342
50	0xbe81c3d4	-0.25344718
51	0xbdb8508f	-0.0899974
52	0xbe198b8e	-0.14994642
53	0xbf3f358e	-0.7469109
54	0xbf024f5c	-0.5090234
55	0xbebc4a00	-0.36775208
56	0x3d3b0ffa	0.045669533
57	0x3f09087f	0.5352859
58	0x3ebfdd40	0.37473488
59	0x3e9c061e	0.30473417
60	0xbeb7393f	-0.35785863
61	0xbf5190c4	-0.8186152
62	0x3ec5f55b	0.38663754
63	0xbf0cb4e0	-0.54963493

net.2.weight f4 [64, 64]
0	0x3dfe382a	0.12413056
1	0xbc26b42f	-0.010174795
2	0xbce1ed8d	-0.027579093
3	0xbd5938d6	-0.05303272
4	0x3e6396b8	0.22225463
5	0xbda0ebdb	-0.07857486
6	0x3f5f3bd7	0.87200683
7	0xbe42acc4	-0.19011217
8	0xbe591ced	-0.2120244
9	0xbeb4777e	-0.35247415
10	0xbb942949	-0.004521523
11	0xbd17107d	-0.03688096
12	0xbe640764	-0.22268444
13	0xbdd5c18c	-0.10437307
14	0x3e6c0d7d	0.2305202
15	0xbf232d21	-0.63740736
16	0x3dee3bd0	0.11632502
17	0xbc667417	-0.014065764
18	0x3ddf6280	0.10907459
19	0x3e656f0a	0.2240564
20	0xbe4c1d14	-0.19932967
21	0xbecc47e1	-0.3989859
22	0x3d051b50	0.03249675
23	0xbeb3d4ba	-0.35123235
24	0xbe22576f	-0.15853666
25	0xc002fc94	-2.0466661
26	0xbe764ef0	-0.2405355
27	0x3f660003	0.8984377
28	0x3e5373b3	0.20649604
29	0xbebb591d	-0.36591426
30	0x3deb9b70	0.11504257
31	0xbe29360a	-0.1652452
32	0x3f0b3a2d	0.54385644
33	0xbf115037	-0.56763023
34	0xbe2f7d43	-0.17137627
35	0xbddd970a	-0.10819824
36	0xbeb02a28	-0.34407163
37	0xbdf91ffe	-0.12164305
38	0xbeeca65e	-0.46220678
39	0x3e3a4ca9	0.18193306
40	0xbe54f07e	-0.20794865
41	0x3ec40da7	0.38291666
42	0xbe46905e	-0.19391009
43	0xbe2579ec	-0.16159791
44	0xbda6dc6e	-0.081475124
45	0xbf807f72	-1.0038893
46	0x3d843e28	0.06457168
47	0xbee9748c	-0.4559673
48	0xbe8b702f	-0.27234027
49	0x3f431ed6	0.76218927
50	0x3e036c2b	0.12834232
51	0x3f7ce053	0.9877979
52	0x3d06d61b	0.03291903
53	0xbf6f6739	-0.9351688
54	0xbd3f5414	-0.046711043
55	0xba53e047	-0.0008082431
56	0xbe285283	-0.16437726
57	0xbe5fda65	-0.21860655
58	0xbf25d327	-0.6477532
59	0x3e457113	0.19281416
60	0x3e965e31	0.29368737
61	0x3e9af18d	0.30262414
62	0xbd946452	-0.07245697
63	0x3cd48928	0.025944307
64	0xbdb1edd2	-0.08687939
65	0xbcd305e0	-0.025759637
66	0x3d9728ce	0.0738083
67	0x3d399694	0.045309618
68	0xbda1fe76	-0.07909863
69	0xbdf3af32	-0.1189865
70	0xbdd56164	-0.104189664
71	0xbe11861b	-0.14211313
72	0xbdc58a22	-0.09645487
73	0xbd4b6a08	-0.049661666
74	0x3dacc4c0	0.084359646
75	0x3b10e21a	0.0022107423
76	0xbdc2b70a	-0.09507568
77	0xbdcd5e8c	-0.10027799
78	0x3d7eb514	0.06218441
79	0xbdbe6c62	-0.09298016
80	0xbc7c2a40	-0.015390933
81	0x3d28bda0	0.041196465
82	0xbd9cd8f9	-0.07658572
83	0xbd04aa61	-0.03238905
84	0xbc324460	-0.01088056
85	0xbcf242e8	-0.029572919
86	0xbd81ccdc	-0.06337902
87	0xbe05549a	-0.13020554
88	0xbdcef07c	-0.101044625
89	0xbdaf830b	-0.08569916
90	0x3dd0f547	0.10203033
91	0xbda20df2	-0.07912816
92	0xbdabe942	-0.083941
93	0x3c3cd320	0.0115249455
94	0x3d0d1ccc	0.03445129
95	0x3d8c43d0	0.06848872
96	0x3dc29740	0.09501505
97	0x3d503664	0.05083312
98	0xbe12222b	-0.14270847
99	0xbbfbea05	-0.0076878094
100	0x3d694b9c	0.056956872
101	0xbc3d4990	-0.011553183
102	0xbd96db00	-0.0736599
103	0x3dcd9a9d	0.10039256
104	0xbd862acd	-0.06551132
105	0xbdb833dc	-0.089942664
106	0xbe069e5a	-0.13146344
107	0xbc5803db	-0.013184513
108	0x3d15fd50	0.03661853
109	0x3c16cc27	0.009203947
110	0x3cca7ee8	0.024718717
111	0xbde786a8	-0.113049805
112	0xbe0ac065	-0.13549955
113	0x3b104180	0.0022011697
114	0x3de96df6	0.113979265
115	0x3d5aadc4	0.053388372
116	0xbd950d4e	-0.07277928
117	0xbc84ec88	-0.016226068
118	0xbdbcb810	-0.09214795
119	0xbda1eb1e	-0.07906173
120	0x3cb971d8	0.022637293
121	0x3d49ea47	0.04929569
122	0x3dada67c	0.0847902
123	0xbdeb0900	-0.11476326
124	0x3dab2a5e	0.0835769
125	0xbdb48e06	-0.08816151
126	0x3d3fba2c	0.046808407
127	0x3dd8a388	0.10578066
128	0xbda2bdee	-0.079463825
129	0x3e857af7	0.26070377
130	0xbdbacf5c	-0.09121582
131	0x3f1809f0	0.59390163
132	0x3e9c86b0	0.30571508
133	0x3e65317d	0.2238216
134	0xbf12ed2b	-0.5739314
135	0xbd0361e9	-0.032075796
136	0xbe5f93b6	-0.21833691
137	0x3d668d60	0.05628717
138	0x3d34a9a6	0.0441071
139	0x3b9c65c8	0.0047728755
140	0xbdd7c2a6	-0.10535173
141	0x3c5d8350	0.013520077
142	0x3f1f0d75	0.6212991
143	0xbf2aca8c	-0.6671531
144	0xbe2f020c	-0.17090625
145	0x3caa08fc	0.020756237
146	0x3e051371	0.12995698
147	0xbf111c09	-0.56683403
148	0x3cad598c	0.021160863
149	0xbdf8cdf8	-0.121486604
150	0x3c779fd3	0.015113789
151	0xbe2be908	-0.16788113
152	0xbd99b01d	-0.07504294
153	0xbf1b9d04	-0.6078646
154	0xbf1f48f1	-0.62220675
155	0xbf009a63	-0.50235575
156	0x3ebdd7d6	0.37078732
157	0xbe6f1bb4	-0.23350412
158	0x3e8dd8b0	0.27704382
159	0x3df4aab5	0.11946622
160	0x3ef40ed9	0.47667578
161	0xbe53bac3	-0.20676713
162	0xbe8310b4	-0.2559868
163	0xbe6b4615	-0.22975953
164	0x3cf8836a	0.0303361
165	0xbd3b44fc	-0.045720086
166	0xbfea623f	-1.8311232
167	0x3f56f73d	0.83971006
168	0xbdc9dac3	-0.098561786
169	0x3eb853ba	0.36001378
170	0xbdd933b2	-0.10605563
171	0x3d0dc71c	0.034613714
172	0xbf92fd18	-1.1483488
173	0xbe9fd222	-0.31215006
174	0x3ea0ceab	0.31407675
175	0xbd3e4e6d	-0.04646151
176	0xbe038e18	-0.12847173
177	0x3e4d087f	0.20022772
178	0x3e48a1da	0.19592991
179	0xbe74d007	-0.23907481
180	0x3df1a943	0.11799862
181	0x3dfda8ca	0.123857096
182	0x3d83377f	0.064070694
183	0x3dd2a99b	0.10286256
184	0x3ee0bc16	0.43893498
185	0xbce37ac2	-0.027768496
186	0xbea5f86a	-0.32416087
187	0xbe064fde	-0.13116404
188	0x3f476250	0.7788439
189	0x3f003610	0.5008249
190	0xbea76036	-0.3269059
191	0x3dcd63aa	0.10028775
192	0x3cac6c32	0.021047685
193	0xbe0ffd61	-0.140615
194	0xbd298ccc	-0.04139404
195	0xbe1eb78b	-0.15499704
196	0xbe170c3f	-0.14750765
197	0xbbf8a835	-0.007588411
198	0x3ac7a356	0.0015231173
199	0x3c5608af	0.013063594
200	0xbd0b592c	-0.034020588
201	0x3dab31e5	0.08359126
202	0xbcdf9b14	-0.027295627
203	0xbdf37e86	-0.11889367
204	0xbd1ef520	-0.03880799
205	0x3cf5e8a0	0.03001815
206	0x3d334c74	0.043774083
207	0xbdf5ff5a	-0.12011595
208	0x3aea6e22	0.0017885605
209	0xbddf224b	-0.10895213
210	0xbe390f08	-0.1807214
211	0xbe059377	-0.13044535
212	0x3db5dea4	0.08880356
213	0x3d99dc04	0.07512668
214	0x3d88d393	0.066809796
215	0x3d2a93f4	0.041645005
216	0x3d49b289	0.04924253
217	0xbd467e5e	-0.048460357
218	0xbdcdd800	-0.10050964
219	0x3cfbb4a9	0.030725794
220	0xbddff057	-0.10934513
221	0xbe251577	-0.1612147
222	0xbd57dd8c	-0.052701518
223	0xbc9adabe	-0.018903133
224	0x3c9fac49	0.019491332
225	0xbe007b02	-0.12546924
226	0xbe1a14ab	-0.15046947
227	0xbd75d9b0	-0.060022056
228	0xbd96e518	-0.07367915
229	0xbda6abf6	-0.08138268
230	0x3d8570c4	0.06515649
231	0xbdc88714	-0.09791389
232	0x3d8d65d0	0.06904185
233	0x3d3719ff	0.044702526
234	0x3cc4aa7b	0.024007073
235	0x3c38f2ef	0.011288389
236	0xbb410ed4	-0.00294583
237	0xbcf42826	-0.0298043
238	0xbd2749e5	-0.040841956
239	0xbcf5ddab	-0.030012926
240	0x3adf344a	0.0017029133
241	0x3dad0479	0.08448119
242	0xbd9eddc1	-0.0775714
243	0xbdad336e	-0.08457075
244	0xbd992ecd	-0.0747963
245	0xbdbcaa38	-0.09212154
246	0xbcc352a6	-0.02384312
247	0x3d4646f0	0.048407495
248	0x3d575378	0.052569836
249	0x3cd2339e	0.025659379
250	0xbdfd7183	-0.12375166
251	0xbe05b246	-0.13056287
252	0xbce0fc08	-0.027463928
253	0xbd605757	-0.054770794
254	0xbd0d3ab8	-0.034479827
255	0xbdeb002e	-0.11474644

net.2.bias f4 [64]
0	0xbe39e027	-0.18151914
1	0x3d20a28e	0.039217524
2	0xbda5223d	-0.08063171
3	0xbe2b96f5	-0.16756804
4	0x3e6b04ac	0.22951001
5	0x3b859219	0.004076254
6	0x3d856b0c	0.06514558
7	0xbcd36b6c	-0.025808059
8	0xbe02e9c5	-0.12784488
9	0x3e22f3f0	0.15913367
10	0xbd0e0b8c	-0.03467898
11	0x3e4a2f06	0.197445
12	0x3e24ec2c	0.16105717
13	0xbd20a50b	-0.039219897
14	0x3e04354c	0.12910956
15	0x3da0e2b1	0.07855738
16	0xbd700fb6	-0.058608733
17	0xbd85341a	-0.06504078
18	0xbdea8dcb	-0.11452826
19	0xbcc2cc8e	-0.02377918
20	0x3dbd3168	0.09237939
21	0x3cff855c	0.03119152
22	0x3cd8546d	0.026407445
23	0x3eb10d21	0.3458033
24	0xbef203ff	-0.47268674
25	0xbe196645	-0.14980419
26	0xbdef52e4	-0.11685732
27	0xbdca4664	-0.09876707
28	0x3ea0e437	0.31424114
29	0x3df39f15	0.11895577
30	0x3cd78cc0	0.026312232
31	0x3eb1a3bc	0.34695232
32	0xbd8070c0	-0.06271505
33	0xbe063597	-0.1310638
34	0xbe2ca7d3	-0.16860895
35	0x3cac94b6	0.021067005
36	0xbd925edf	-0.071470015
37	0x3d7108fb	0.058846455
38	0xbe4ac2bd	-0.1980085
39	0xbdc0c879	-0.09413237
40	0x3e95ce61	0.29259017
41	0xbcccbc23	-0.024992054
42	0xbd7e3090	-0.06205803
43	0x3c1873ac	0.009304922
44	0x3e73df63	0.23815684
45	0x3da28c71	0.07936943
46	0x3e9abd89	0.3022273
47	0xbd3d9f6f	-0.046294626
48	0xbe086f8d	-0.13323803
49	0x3e6843b7	0.22682081
50	0x3c0a3907	0.008436448
51	0x3efcb4b4	0.49356616
52	0xbc6a48bf	-0.014299571
53	0x3e31b5a4	0.17354447
54	0x3ea36584	0.31913388
55	0x3dcc1552	0.09965004
56	0x3e865603	0.26237497
57	0x3d26e2e3	0.04074372
58	0xbe17a333	-0.1480835
59	0x3e6ea69f	0.23305748
60	0xbc343589	-0.010999092
61	0xbc6bdbc9	-0.014395663
62	0xbc58a835	-0.013223697
63	0xbc2bc989	-0.010485061

net.4.weight f4 [4, 64]
0	0xbe522d6d	-0.20525141
1	0xbdf04326	-0.117315575
2	0xbf04f587	-0.51937145
3	0xbc3cf74e	-0.011533571
4	0xbf359ca7	-0.7094216
5	0xbdb5dfa6	-0.08880548
6	0xbd60efbf	-0.05491614
7	0x3e59ad40	0.21257496
8	0x3cbf2fdb	0.023338249
9	0x3f0b8141	0.544941
10	0xbba85740	-0.005137354
11	0x3e64a670	0.22329116
12	0xbd8d0851	-0.06886352
13	0xbf385baf	-0.720149
14	0x3e33ceee	0.17559406
15	0x3ec13a63	0.37739858
16	0x3eca8771	0.3955646
17	0xbcd567ef	-0.026050536
18	0xbddc740a	-0.1076432
19	0x3f0d3afe	0.5516814
20	0x3f0b5182	0.54421246
21	0xbef589d3	-0.47956714
22	0x3e7a0079	0.24414243
23	0xbea451a1	-0.32093528
24	0xbee8f486	-0.45499057
25	0x3d892cb0	0.066979766
26	0x3bdc2497	0.006718229
27	0xba9aae80	-0.0011801273
28	0x3e7cece5	0.24699743
29	0x3e94a5be	0.290327
30	0x3eba449d	0.36380473
31	0x3ee4bdf9	0.44676188
32	0xbed795af	-0.42106387
33	0xbd9bcac0	-0.07607031
34	0xbe9bc50c	-0.30423772
35	0x3e7e3ede	0.2482867
36	0xbd2b9b39	-0.04189608
37	0xbdadf567	-0.084940724
38	0xbda3ff68	-0.08007699
39	0xbdd6c13b	-0.104860745
40	0xbee6c0c4	-0.45068944
41	0x3d585808	0.05281833
42	0x3da18277	0.07886212
43	0x3dcc6fbf	0.099822514
44	0xbf157337	-0.5837893
45	0xbd2aa8ba	-0.041664816
46	0xbd9d3c64	-0.07677534
47	0xbd2b76bc	-0.04186128
48	0xbda7626b	-0.081730686
49	0x3f195b17	0.5990462
50	0xbdc211c6	-0.09476046
51	0x3f4c7bbb	0.798763
52	0x3ebe2069	0.37134102
53	0x3e6a5caa	0.22886911
54	0x3f11e0dd	0.5698374
55	0x3c1c6834	0.009546328
56	0x3ea2d173	0.31800422
57	0xbe195ec0	-0.1497755
58	0xbc3503fd	-0.011048314
59	0x3f153a9f	0.58292574
60	0xbcb51ed2	-0.022109423
61	0xbddeaa12	-0.10872282
62	0x3c6bda8c	0.014395367
63	0x3f2d07c9	0.67590004
64	0xbf3deeb9	-0.74192387
65	0xbe011aef	-0.1260793
66	0x3edfe2ba	0.43727666
67	0x3d8281f9	0.063724466
68	0xbe42fd20	-0.19041872
69	0xbcd6307e	-0.02614617
70	0x3edcf57c	0.4315604
71	0x3da30766	0.079603955
72	0x3b3b24ff	0.0028555987
73	0x3f05448a	0.5205771
74	0xbb224080	-0.0024757683
75	0x3e83daaf	0.2575278
76	0xbf43fa60	-0.76553917
77	0x3e67a69e	0.22622153
78	0xbcd15486	-0.025553
79	0xbd527cab	-0.051388424
80	0xbebdde87	-0.37083837
81	0xbc1efafa	-0.009703392
82	0xbb585755	-0.0033011038
83	0x3f8d8a71	1.1057874
84	0x3eb513e0	0.35366726
85	0x3d1eb5c5	0.038747568
86	0x3d9e0d21	0.07717348
87	0xbe527891	-0.20553805
88	0x3ee4753f	0.44620702
89	0xbccfe31a	-0.025376845
90	0xbdafe155	-0.085879005
91	0x3c751e10	0.014960781
92	0xbee4e31b	-0.44704518
93	0x3ed4d990	0.41572237
94	0x3d174559	0.03693137
95	0xbd178afd	-0.036997784
96	0xbd529e2b	-0.051420372
97	0x3d8f02ac	0.069829315
98	0xbd876307	-0.06610685
99	0xbd12c852	-0.03583557
100	0xbdfa1c3f	-0.12212419
101	0xbdf208dd	-0.11818097
102	0x3d95c8e5	0.07313708
103	0x3df8ca89	0.121480055
104	0x3d3e3c58	0.046444267
105	0xbda72893	-0.08162036
106	0xbdb05fdc	-0.08612034
107	0xbd5a7d8d	-0.05334239
108	0x3e79405c	0.24340957
109	0xbdd7ffca	-0.10546835
110	0x3e280208	0.16407025
111	0xbf52941a	-0.82257235
112	0xbd29276f	-0.041297372
113	0x3d832858	0.06404179
114	0x3ea46c81	0.32114032
115	0x3ed1a4b6	0.40945977
116	0x3d77a2b9	0.06045792
117	0x3e81dcf3	0.25363883
118	0x3e8b0829	0.27154663
119	0x3eb6bc66	0.35690612
120	0x3f317fc8	0.69335604
121	0xbe1288ae	-0.14309952
122	0xbd80307c	-0.06259248
123	0x3e65a33c	0.2242555
124	0x3cf85518	0.030314013
125	0x3dcde644	0.10053685
126	0xbc053354	-0.008129913
127	0xbe067308	-0.13129818
128	0x3d9b2e53	0.07577195
129	0xbb560b7c	-0.0032660654
130	0x3f31aa5a	0.6940056
131	0xbd340a33	-0.04395504
132	0xbe2f7a84	-0.1713658
133	0xbcb55f92	-0.022140298
134	0x3c86ae00	0.016440392
135	0xbdd7dc81	-0.10540105
136	0xbd8064d8	-0.062692344
137	0x3f0ab462	0.5418149
138	0x3cd53800	0.02602768
139	0xbea8359e	-0.32853407
140	0x3f037548	0.5135083
141	0xbd7e4944	-0.06208159
142	0xbf3ff91e	-0.749895
143	0x3f0696f5	0.5257409
144	0xbe55c691	-0.20876528
145	0xbbff6475	-0.007793958
146	0x3d099e40	0.033598185
147	0x3eb5992f	0.35468432
148	0x3da0e115	0.07855431
149	0x3ca74545	0.020418772
150	0xbd20e41c	-0.039280042
151	0x3ed23806	0.41058367
152	0x3f73173f	0.94957346
153	0xbd3b3570	-0.04570526
154	0x3de4d90a	0.111742094
155	0xbd8b1d2e	-0.06792675
156	0x3e95a011	0.29223683
157	0x3e0095ec	0.1255719
158	0x3ec8508e	0.39123958
159	0xbf1b759c	-0.6072633
160	0xbe471c82	-0.19444469
161	0xbc80914d	-0.015694285
162	0x3e8407aa	0.25787097
163	0xbd742f2f	-0.05961531
164	0x3b440f6d	0.002991642
165	0x3d2e1205	0.042497654
166	0x3d9dfaba	0.07713838
167	0xbc56e130	-0.013115212
168	0x3eeea3b6	0.46609277
169	0x3f044001	0.5166016
170	0xbd4f2075	-0.050568063
171	0x3b36fd1d	0.0027921863
172	0x3e913fb8	0.28368926
173	0xbd67dbaf	-0.05660599
174	0x3f2fe719	0.68712
175	0x3e9729fc	0.2952422
176	0xbdc82bca	-0.09773977
177	0xbe0473fa	-0.12934867
178	0xbdf27b44	-0.11839917
179	0xbd584c1f	-0.05280697
180	0x3ec2d0dc	0.38049972
181	0x3e0d7e2a	0.13817659
182	0x3e445b70	0.19175506
183	0xbe391d41	-0.18077566
184	0x3e930d71	0.28721192
185	0xbec03b70	-0.37545347
186	0xbc55a09f	-0.013038783
187	0x3ee8511f	0.4537439
188	0xbca20b49	-0.019780772
189	0x3cea0c53	0.02857033
190	0x3c4870a4	0.012233887
191	0x3e79c3bf	0.24391077
192	0x3eb05081	0.3443642
193	0xbda3bca7	-0.07994967
194	0x3f16987e	0.58826435
195	0xbdc1d810	-0.09465039
196	0x3ef7b1c2	0.48377806
197	0x3d2b0698	0.041754335
198	0x3df36417	0.11884325
199	0x3d904d48	0.0704599
200	0xbd8ea730	-0.06965482
201	0xbd85471c	-0.06507704
202	0xbc41d79d	-0.011831191
203	0xbf0d7054	-0.55249524
204	0xbe971d3e	-0.29514498
205	0xbea95b7a	-0.33077604
206	0xbe990d11	-0.2989278
207	0xbe226f96	-0.15862879
208	0xbe0fe626	-0.14052638
209	0x3dd5db5f	0.10442232
210	0x3d778164	0.06042613
211	0x3e857b3a	0.26070577
212	0x3e990a45	0.29890648
213	0x3e73b628	0.23799956
214	0x3bf35061	0.0074253534
215	0x3fa37959	1.2771407
216	0x3f494797	0.7862486
217	0x3cb2e814	0.02183918
218	0xbdae6027	-0.08514433
219	0x3d9d594e	0.07683049
220	0x3d8f8370	0.070074916
221	0x3eb3a2bf	0.35085103
222	0xbe05c451	-0.1306317
223	0xbe260329	-0.16212143
224	0xbdd712a3	-0.105016015
225	0x3d85d778	0.06535238
226	0x3efacc9a	0.48984224
227	0xbec90b92	-0.3926664
228	0x3dbdac32	0.09261359
229	0x3d4c66f0	0.049902856
230	0xbec1b8b1	-0.3783622
231	0x3dbae52a	0.09125741
232	0x3e4e2322	0.2013059
233	0x3fbcf7fe	1.4763181
234	0x3c2bf402	0.010495188
235	0xbda7de84	-0.08196738
236	0x3ecc282d	0.39874402
237	0x3c33dda7	0.010978139
238	0x3e55f4df	0.20894192
239	0x3f75fd22	0.96089375
240	0x3d9661b5	0.07342855
241	0xbdcf42e3	-0.101201795
242	0xbe65c63c	-0.22438902
243	0x3f81ffb3	1.0156158
244	0x3d8a5581	0.0675459
245	0xbdc52e80	-0.0962801
246	0xbde3b4b0	-0.11118448
247	0xbe4deb66	-0.20109329
248	0x3e80be68	0.25145268
249	0xbf040e14	-0.5158398
250	0x3d31b1d9	0.0433825
251	0x3f1259cd	0.57168275
252	0xbd43c0fc	-0.047791466
253	0xbd5bd8fd	-0.053673733
254	0x3ba7d1d3	0.0051214485
255	0x3f170f04	0.5900729

net.4.bias f4 [4]
0	0x3ec76a2b	0.38948187
1	0x3e81b3e3	0.25332555
2	0x3e406d4e	0.18791696
3	0x3ca4bcac	0.020109497
