rl_agents/checkpoint_dqn_seed_42_ep_3000.pth (torch, 22121 bytes, 6 tensors)

net.0.weight f4 [64, 3]
000000 77 21 0c 3f ba ef 77 3f 0a 34 ea be 53 8f 1c 3f
       0.54738563 0.9685017 -0.45742828 0.61156195
000010 a9 85 29 bd f4 4a 55 3c 13 24 a7 be f9 03 b3 3e
       -0.041387234 0.0130183585 -0.3264471 0.34963968
000020 35 c8 37 3f 8d b2 65 bf fb 4c 6f 3f cb 2b a3 3e
       0.71789867 -0.8972557 0.9347684 0.3186935
000030 c4 ae 46 3f 78 52 86 bd 50 0e d1 3e fe 2c bb be
       0.7761042 -0.065586984 0.40831232 -0.36557764
000040 5e cb 09 3f 4c 31 11 3e 81 76 dc bd 3d af 77 3f
       0.5382594 0.14178962 -0.1076479 0.9675177
000050 9d f0 cb bf b2 72 9a be 5c 65 42 3e 94 63 88 3e
       -1.5932804 -0.3016563 0.18983978 0.26638472
000060 44 f4 cd be a0 be c8 be 4c f0 2b bf 5e 00 3a bf
       -0.40225422 -0.39207935 -0.6716354 -0.7265681
000070 65 e7 d0 3d f6 a3 74 bf ca cb 17 3f a1 f5 57 bf
       0.10200385 -0.95562685 0.5929533 -0.84359175
000080 93 a8 96 3e 19 ef 82 3c c3 3d fa 3a aa c9 e4 bc
       0.29425487 0.015983151 0.0019091893 -0.027928192
000090 d9 43 c1 bc 8e 01 9e 3f 6e 37 d0 bd 62 73 3a be
       -0.023591923 1.2344224 -0.101668224 -0.18208078
0000a0 fc d8 1e 3e b6 52 20 be c8 5c dd 3e e0 0d 5b 3f
       0.1551246 -0.15656552 0.4323485 0.85568047
0000b0 f9 0a 13 3f c0 28 62 bf e5 34 a0 3e 79 93 e0 3d
       0.5743862 -0.8834343 0.31290355 0.10965628
0000c0 f7 78 34 3e cb e6 97 bf 8a 4d 9e be 77 ea ac be
       0.1762427 -1.1867307 -0.30918533 -0.33772632
0000d0 8c 8a bf be 6d b3 02 3e ca 37 95 bd c7 fd b1 3e
       -0.3741039 0.12763758 -0.072860315 0.3476393
0000e0 6e f4 25 bf 87 f3 26 3e c1 b7 d7 3f 4e cb 15 c0
       -0.64826095 0.16303836 1.6852952 -2.3405337
0000f0 7e 4f b9 3e c6 20 3d bf 66 0a 04 3f a7 17 8c be
       0.3619346 -0.73878133 0.51578367 -0.27361795
000100 46 0d 74 3f 2b dd f7 be b2 a7 ac 3f 96 9e 67 be
       0.95332754 -0.48410925 1.3488677 -0.2261909
000110 b1 cb a3 bd ee 70 6a bf 85 e3 54 3f 67 8e 70 3d
       -0.079978354 -0.9157857 0.8315967 0.058729555
000120 61 2a c4 3f ed c3 57 bf e8 51 25 bf 29 0e 69 bf
       1.5325433 -0.84283334 -0.64578104 -0.9103723
000130 a1 7f 07 bf 62 02 36 3e 0b d4 0c 3e 3e b6 95 3f
       -0.5292912 0.17774346 0.13752763 1.1696241
000140 c0 e7 36 bf b6 b1 23 bf 95 c4 fd 3e 36 00 a8 bf
       -0.7144737 -0.6394304 0.49564043 -1.3125064
000150 18 50 2f 3f 65 3c 76 3d a3 ea 3d 3f 13 37 b9 be
       0.6848159 0.06011619 0.7418615 -0.3617483
000160 8e ab 8f be 6b 2d 84 bd a7 68 3c 3f 8d 9a 30 bd
       -0.28060573 -0.06453975 0.73597187 -0.04311614
000170 04 12 33 3f 06 00 93 3f de 34 a3 be 76 f0 af be
       0.69949365 1.1484382 -0.31876272 -0.34363145
000180 5c 15 93 3f 74 ff 72 3e 16 96 2c bf 7d 1b 11 bf
       1.1490893 0.2373026 -0.6741651 -0.5668257
000190 b7 df bf be a4 5f f7 bc b1 d1 cc 3d a7 92 5c be
       -0.37475368 -0.030196972 0.10000933 -0.21540318
0001a0 a7 85 3c be 16 71 17 bf 2c f1 4c bf 42 04 36 be
       -0.1841036 -0.5915693 -0.800555 -0.17775062
0001b0 9e 9c ea be dc c2 dc be e3 87 78 3f 08 54 df 3d
       -0.45822614 -0.43117416 0.97082347 0.109046996
0001c0 a4 2f 36 3e 30 da 09 bf 58 f4 b3 bf 76 79 0d bf
       0.17791611 -0.5384855 -1.4058943 -0.5526346
0001d0 4b 6f ff 3e ec 1c 49 bf 07 72 ee be 53 85 62 bf
       0.49889597 -0.78559756 -0.4657137 -0.88484687
0001e0 2b 45 4f 3e cb a4 86 be bf 13 c3 be f9 58 64 be
       0.20241229 -0.26297602 -0.38101003 -0.22299565
0001f0 77 ab 53 be f2 89 1d bf 30 00 16 3d 35 1c a2 be
       -0.20670877 -0.6153861 0.036621273 -0.31662145
000200 22 ae 2d 3e 6e e7 2e bf a8 eb 23 3f 18 0d 91 3d
       0.16960958 -0.68321884 0.6403146 0.070825756
000210 d0 33 8d bf db 3f 25 3e b2 30 6c be d3 4c 7a bd
       -1.1031437 0.1613764 -0.23065451 -0.06110842
000220 83 dd b8 bf 51 8b af bf 7c 36 fa 3e aa 8a 64 bd
       -1.44426 -1.3714391 0.48869693 -0.055796303
000230 3d 59 0b 3f ec 44 30 bf 85 28 95 3f c2 8c 26 bf
       0.5443304 -0.68855166 1.165299 -0.6505853
000240 10 5b ce bd d0 76 dc 3a dd 9b 59 be 03 bc b1 3f
       -0.100759625 0.0016820077 -0.21250863 1.3885502
000250 f1 52 22 3f ce 13 bb be 56 40 8e 3f e4 7e 03 be
       0.6340781 -0.36538547 1.1113384 -0.12841374
000260 2b 7e 21 3e e9 52 28 3e eb 04 90 3f 01 30 91 bf
       0.15770786 0.16437878 1.1251501 -1.1342775
000270 6b 47 af 3e 0a 0b 06 3d 38 de d8 bd c4 0a e8 be
       0.34234175 0.03272537 -0.1058926 -0.45320714
000280 70 c5 92 3e 93 0d 69 3e e4 b9 25 3e 58 7a 9e bf
       0.28666258 0.22759084 0.16184193 -1.2381086
000290 cd ce ad 3e 47 4a 7a be a0 54 df be 1e 06 8b 3e
       0.3394684 -0.24442397 -0.4361925 0.27153105
0002a0 dc 46 eb 3e a5 48 49 bf 14 5c ee be bc 5e 16 be
       0.459525 -0.7862647 -0.46554625 -0.14684576
0002b0 12 1a 1f 3f 38 db 84 be 77 8e 44 be 77 e5 63 bf
       0.62149155 -0.259485 -0.19194971 -0.8902201
0002c0 4d 47 7a bf 9a f4 52 3f de 0f 8b 3f a2 6d 8e be
       -0.97765046 0.8240448 1.0864217 -0.27818018
0002d0 cf 9a a2 3e 43 16 48 3f 09 8e c0 3e 26 c9 5c 3e
       0.31758735 0.7815897 0.37608364 0.21561107
0002e0 dd 21 13 3f bc 63 49 3f 14 b5 dc 3e b0 98 f3 be
       0.57473546 0.7866781 0.43106902 -0.4757743
0002f0 1f 30 ab be c0 fd 7c 3d d0 e0 d0 bd 22 2e 30 be
       -0.3343515 0.061765432 -0.101991296 -0.17205098

net.0.bias f4 [64]
000000 c0 0c 60 3f 67 70 40 3e 10 bd 45 bf 4c 14 5b bd
       0.87519455 0.18792878 -0.7724161 -0.053486153
000010 89 6d 06 bf 28 c5 90 3d c7 f7 00 3f 5e 5c 26 bf
       -0.5251089 0.070688546 0.5037808 -0.6498469
000020 2a 95 4c bf e1 68 dc bd fd 02 cc bd d9 15 9a bc
       -0.79915106 -0.107621916 -0.099615075 -0.018809246
000030 64 77 35 be 90 38 b2 be 75 6a 35 bf f6 6d 3b bf
       -0.17721325 -0.3480878 -0.70865566 -0.7321466
000040 c5 40 67 3e c3 0b c1 be 14 1c 16 3e a0 ac 1a 3f
       0.22583301 -0.37704286 0.14659148 0.60419655
000050 f2 bc 31 bf ed 5e 89 be 3c bb 62 3e 98 70 35 3f
       -0.6942893 -0.26830235 0.22141737 0.7087493
000060 60 52 bf 3e 1c fa 20 be c2 9b b8 3e 9f 11 18 3e
       0.37367535 -0.15720409 0.36056334 0.14850472
000070 ba 78 73 bf ee 67 2a 3e 57 20 6d bf 6b 46 66 3e
       -0.9510609 0.16641209 -0.9262747 0.224878
000080 0c 0b 3b 3e 0d 8b a2 3e b8 81 ed 3e e5 5f f5 3e
       0.18265933 0.31746712 0.4638803 0.47924724
000090 03 a7 23 bf 12 df 11 bf 5d 2b 33 bf dd 08 97 3f
       -0.63926715 -0.56981003 -0.6998804 1.179958
0000a0 78 15 5c 3f f5 f8 17 3f 57 0f 13 bf 29 50 fb 3e
       0.8597026 0.59364253 -0.5744528 0.49084595
0000b0 97 4d 04 3e 9a 43 89 3e 7e 66 59 bf f9 85 19 bf
       0.12920223 0.26809388 -0.84922016 -0.5997005
0000c0 c7 87 d7 bd 1b 8e 40 be 04 e9 e4 be eb dd 83 bd
       -0.10523944 -0.18804209 -0.44709027 -0.06438812
0000d0 86 fc c0 be 0d 06 9e bf 91 25 14 bf e9 23 2d bf
       -0.3769266 -1.2345597 -0.5786982 -0.6763292
0000e0 82 0e c7 3d 8e 88 16 3f a9 75 00 3f 3c 53 bf 3e
       0.09719564 0.58802116 0.50179535 0.3736819
0000f0 0e df e5 be ea 6a 7f bf 36 ba ee 3e e0 b4 0c bf
       -0.4489674 -0.9977251 0.46626443 -0.54963493

net.2.weight f4 [64, 64]
000000 bd c7 31 be 0d 48 66 be 90 10 a8 3d 19 58 81 bd
       -0.1736135 -0.22488423 0.08206284 -0.063156314
000010 53 81 ae 3d 08 0f 87 bd b0 19 65 3f f2 fe d2 bd
       0.085207604 -0.06594664 0.8949232 -0.10302533
000020 ed 1c 59 be 3a 93 d6 be f3 15 83 be 7d 10 17 bd
       -0.2120244 -0.419092 -0.25602683 -0.03688096
000030 4e 86 b9 be 8c c1 d5 bd c1 0c 6b 3e 8d 36 44 bf
       -0.3623528 -0.10437307 0.22954084 -0.7664574
000040 1f 1f 65 bd bc db 02 bf 16 af 87 3d c0 4f 96 3e
       -0.055937883 -0.5111654 0.06625192 0.2935772
000050 3c 91 91 be 54 30 65 bf 32 86 9f be c3 af 1c bf
       -0.28431118 -0.8952687 -0.3115707 -0.6120569
000060 3d 10 03 bf 10 7e 05 c0 c8 50 be be 26 48 f5 3e
       -0.5119665 -2.0858192 -0.37171006 0.47906607
000070 0c a4 1a 3e f4 5b 23 bf f5 78 7e 3d c8 b9 3d bf
       0.15101641 -0.63812184 0.062127072 -0.74111605
000080 b7 d1 bd 3e 09 d7 5b bf 66 e9 46 bf e3 4e 47 be
       0.37074062 -0.8587499 -0.7769989 -0.19463687
000090 3f 9d 94 be fe 1f f9 bd 4d ab 8e bf 99 f9 b2 3c
       -0.2902622 -0.12164305 -1.1146027 0.021847533
0000a0 b0 45 49 bf af d6 00 3e 52 a7 7d bf cc fd bf be
       -0.7862196 0.12581895 -0.99083436 -0.3749832
0000b0 b9 1f 2a bf 7f 71 87 bf f5 a7 c6 bc de 49 77 bf
       -0.66454655 -1.0581511 -0.02425001 -0.9659709
0000c0 1c f4 c4 be 5d 34 e4 3e bd 40 18 be 16 4c 95 3f
       -0.3846749 0.445712 -0.14868446 1.1663845
0000d0 2b 7d 2e 3b fd f3 97 bf b9 54 f5 be 83 2d de be
       0.00266249 -1.1871334 -0.479162 -0.43394098
0000e0 2b 67 dd be 4e 23 f4 be 2b 6e 55 bf 63 dc ff bc
       -0.43242773 -0.47683185 -0.8337123 -0.031233018
0000f0 d0 89 8e 3e 15 4f b8 3e ca 91 f7 be 28 89 d4 3c
       0.27839518 0.35997835 -0.48353416 0.025944307
000100 d2 ed b1 bd 51 90 6b bd ce 28 97 3d 94 96 39 3d
       -0.08687939 -0.057510678 0.0738083 0.045309618
000110 76 fe a1 bd 32 af f3 bd 64 61 d5 bd 1b 86 11 be
       -0.07909863 -0.1189865 -0.104189664 -0.14211313
000120 22 8a c5 bd 08 6a 4b bd 77 72 57 3d 1a e2 10 3b
       -0.09645487 -0.049661666 0.052599397 0.0022107423
000130 0a b7 c2 bd 8c 5e cd bd 14 b5 7e 3d 62 6c be bd
       -0.09507568 -0.10027799 0.06218441 -0.09298016
000140 3d 23 41 bd bc bd 1a 3c 3d 0f d8 bd 61 aa 04 bd
       -0.047152746 0.00944465 -0.105497815 -0.03238905
000150 60 44 32 bc e8 42 f2 bc e4 d7 c2 bd 9a 54 05 be
       -0.01088056 -0.029572919 -0.09513834 -0.13020554
000160 79 fe 07 be 8d 8c f0 bd 47 f5 d0 3d f2 0d a2 bd
       -0.13280667 -0.11745558 0.10203033 -0.07912816
000170 42 e9 ab bd 6d c4 a5 bc cc 1c 0d 3d 96 73 16 3d
       -0.083941 -0.020235265 0.03445129 0.036731325
000180 dc 9d 81 3d 57 3d 9c 3c cc a7 32 be 3b 96 21 bd
       0.063289374 0.019072218 -0.17446822 -0.03944991
000190 9c 4b 69 3d 90 49 3d bc 00 db 96 bd bc 8d 8c 3d
       0.056956872 -0.011553183 -0.0736599 0.06862971
0001a0 60 36 c7 bd 36 40 f9 bd 5a 9e 06 be db 03 58 bc
       -0.09727168 -0.121704504 -0.13146344 -0.013184513
0001b0 50 fd 15 3d d4 cc b8 bc e8 7e ca 3c a8 86 e7 bd
       0.03661853 -0.022558607 0.024718717 -0.113049805
0001c0 65 c0 0a be 80 41 10 3b f6 6d e9 3d c4 ad 5a 3d
       -0.13549955 0.0022011697 0.113979265 0.053388372
0001d0 4e 0d 95 bd 88 ec 84 bc e6 c0 fd bd 1e eb a1 bd
       -0.07277928 -0.016226068 -0.12390308 -0.07906173
0001e0 35 7c 15 bc 47 ea 49 3d 6a 34 59 3d 00 09 eb bd
       -0.009123852 0.04929569 0.0530285 -0.11476326
0001f0 5e 2a ab 3d 06 8e b4 bd b6 8d 76 3c 88 a3 d8 3d
       0.0835769 -0.08816151 0.015048435 0.10578066
000200 a8 a6 1a 3e 2f 3b 6b 3e 9e da 55 3b b9 79 47 3f
       0.15102637 0.22971795 0.0032631527 0.7792011
000210 37 7f c7 3e e8 08 ae 3e df 42 3b bf 91 fc dc 3c
       0.38964245 0.3399117 -0.7314891 0.026975902
000220 b6 93 5f be 0f 88 68 bd a1 67 97 3d c8 65 9c 3b
       -0.21833691 -0.05677038 0.073928125 0.0047728755
000230 64 1a 24 3e 50 83 5d 3c fc d8 2d 3f 21 69 d5 bf
       0.16025692 0.013520077 0.67909217 -1.6672708
000240 2a 00 9b be ea 47 3b be 1e fc 22 be e8 8c e9 be
       -0.30273563 -0.18289152 -0.15916488 -0.45615315
000250 63 20 3a 3e 9d a6 14 bd 46 b7 76 bc c5 ad d3 3d
       0.18176417 -0.036291707 -0.015058344 0.10335878
000260 04 e8 45 be 95 9d 4a bf 65 4c 0f bf 58 63 fe be
       -0.19326788 -0.791467 -0.55975944 -0.49685168
000270 94 24 e8 3e 42 e5 4e be 4b 0f b9 3e d4 62 bd bb
       0.45340407 -0.20204642 0.3614448 -0.0057796035
000280 e4 af 3d 3f ae ab c6 be 1d b4 94 be 2b 43 42 bd
       0.7409651 -0.38802856 -0.29043666 -0.047427338
000290 3a 7f 73 3e fc 44 3b bd 48 34 33 c0 6f 78 88 3f
       0.23779002 -0.045720086 -2.800066 1.0661753
0002a0 54 79 3f be e3 37 02 3f f2 4c d4 3e a6 a5 86 3e
       -0.18698627 0.50866526 0.41464955 0.26298255
0002b0 7a a9 ba bf 6f 52 5c bf 48 66 ba 3e ad 6b 39 be
       -1.458297 -0.86063284 0.3640616 -0.18107481
0002c0 c9 05 fc bd 41 5e ec 3e 15 f5 c0 3d c2 e4 ce be
       -0.12305791 0.4616566 0.09421746 -0.40408903
0002d0 f4 01 15 bc 5d 63 7c be c3 ad 99 3e 59 9d 71 3e
       -0.009094704 -0.24647279 0.30015382 0.2359518
0002e0 18 d7 e8 3d 44 be 79 3e 5e ef 75 bf 57 6e e4 3c
       0.11369151 0.24388987 -0.9606837 0.027884645
0002f0 e9 0f 3e 3f fa 0c 1c 3f 13 87 07 bf aa 63 cd 3d
       0.74243027 0.609573 -0.5294048 0.10028775
000300 32 6c ac 3c 61 fd 0f be cc 8c 29 bd 8b b7 1e be
       0.021047685 -0.140615 -0.04139404 -0.15499704
000310 3f 0c 17 be 35 a8 f8 bb 56 a3 c7 3a af 08 56 3c
       -0.14750765 -0.007588411 0.0015231173 0.013063594
000320 2c 59 0b bd e5 31 ab 3d 14 9b df bc 86 7e f3 bd
       -0.034020588 0.08359126 -0.027295627 -0.11889367
000330 20 f5 1e bd a0 e8 f5 3c 74 4c 33 3d 5a ff f5 bd
       -0.03880799 0.03001815 0.043774083 -0.12011595
000340 22 6e ea 3a 4b 22 df bd 08 0f 39 be 77 93 05 be
       0.0017885605 -0.10895213 -0.1807214 -0.13044535
000350 a4 de b5 3d 04 dc 99 3d 93 d3 88 3d f4 93 2a 3d
       0.08880356 0.07512668 0.066809796 0.041645005
000360 89 b2 49 3d 5e 7e 46 bd 00 d8 cd bd a9 b4 fb 3c
       0.04924253 -0.048460357 -0.10050964 0.030725794
000370 57 f0 df bd 77 15 25 be 8c dd 57 bd be da 9a bc
       -0.10934513 -0.1612147 -0.052701518 -0.018903133
000380 49 ac 9f 3c 02 7b 00 be ab 14 1a be b0 d9 75 bd
       0.019491332 -0.12546924 -0.15046947 -0.060022056
000390 18 e5 96 bd f6 ab a6 bd c4 70 85 3d 14 87 c8 bd
       -0.07367915 -0.08138268 0.06515649 -0.09791389
0003a0 d0 65 8d 3d ff 19 37 3d 7b aa c4 3c ef f2 38 3c
       0.06904185 0.044702526 0.024007073 0.011288389
0003b0 d4 0e 41 bb 26 28 f4 bc e5 49 27 bd ab dd f5 bc
       -0.00294583 -0.0298043 -0.040841956 -0.030012926
0003c0 4a 34 df 3a 79 04 ad 3d c1 dd 9e bd 6e 33 ad bd
       0.0017029133 0.08448119 -0.0775714 -0.08457075
0003d0 cd 2e 99 bd 38 aa bc bd a6 52 c3 bc f0 46 46 3d
       -0.0747963 -0.09212154 -0.02384312 0.048407495
0003e0 78 53 57 3d 9e 33 d2 3c 83 71 fd bd 46 b2 05 be
       0.052569836 0.025659379 -0.12375166 -0.13056287
0003f0 08 fc e0 bc 57 57 60 bd b8 3a 0d bd 2e 00 eb bd
       -0.027463928 -0.054770794 -0.034479827 -0.11474644

net.2.bias f4 [64]
000000 a5 0a 06 bf 8c 54 f4 3b 6f 2b a3 3d f5 96 2b be
       -0.5235999 0.007456368 0.07967269 -0.16756804
000010 cc f6 19 3e 19 92 85 3b 03 6b 3c 3e 0b 38 05 be
       0.15035552 0.004076254 0.18400197 -0.1300966
000020 c5 e9 02 be 8d bb ac 3e 8c 0b 0e bd 7c 96 6a 3e
       -0.12784488 0.3373684 -0.03467898 0.22908968
000030 75 ac 3b 3e d7 61 91 bd c4 c2 e3 bd d7 69 b5 bd
       0.18327506 -0.070987396 -0.11121133 -0.08858078
000040 1e bb 84 3c d6 6f b8 bd 81 cb 15 be 5d 0a 26 3e
       0.016202506 -0.09005706 -0.14628412 0.16214891
000050 28 3a ce 3e 04 63 80 be 9a 17 fe bd d1 d3 f6 3e
       0.40278745 -0.25075543 -0.124068454 0.48208478
000060 c2 3d 17 bf 45 66 19 be af 2a 18 be 64 46 ca bd
       -0.5907861 -0.14980419 -0.14860032 -0.09876707
000070 6d ca 1e 3f 35 fb a2 3e 97 49 e4 3d 80 d0 29 3e
       0.6202763 0.3183228 0.11146849 0.16583443
000080 57 15 63 be 3a 0e 35 be 62 19 f6 be ee 20 3d 3c
       -0.22176109 -0.17681208 -0.4806624 0.011543496
000090 14 73 2c be fb 08 71 3d b0 57 4e be 39 e8 00 be
       -0.16840774 0.058846455 -0.20150638 -0.12588586
0000a0 ef ab 0a 3f 26 c0 a2 3d 7d 26 c0 bd ac 73 18 3c
       0.541686 0.07946806 -0.09382341 0.009304922
0000b0 47 8e 3a 3d 71 8c a2 3d 21 a6 fd 3e 4d 7a 63 3d
       0.045545842 0.07936943 0.4954081 0.055536557
0000c0 ba f1 28 be 02 c7 13 3f d2 20 c6 ba c0 4c 0c 3f
       -0.16498461 0.57725537 -0.0015115982 0.5480461
0000d0 de 3e 6e 3e 2c c0 cc 3e e1 97 0e 3f bc 71 5f 3e
       0.2326617 0.39990366 0.557005 0.2182073
0000e0 30 c5 04 3f 6b ae e6 bd 33 a3 17 be 6f af c4 3e
       0.51863384 -0.11263736 -0.1480835 0.38415095
0000f0 89 35 34 bc 29 78 8a bc 35 a8 58 bc 6b 12 ed 3d
       -0.010999092 -0.016903 -0.013223697 0.115757786

net.4.weight f4 [4, 64]
000000 4f e9 96 3e 48 9d b5 bd a1 bd ad be 4e f7 3c bc
       0.29474875 -0.0886789 -0.33933738 -0.011533571
000010 14 67 5e be a6 df b5 bd 7a e1 cd be 2a a3 de 3c
       -0.21719009 -0.08880548 -0.40211087 0.027177412
000020 db 2f bf 3c 9c 41 14 3f 40 57 a8 bb 7c 2f 12 3f
       0.023338249 0.5791261 -0.005137354 0.57103705
000030 82 37 51 3f 91 50 1a bf 1a 49 5d 3e 95 e8 a6 3e
       0.81725323 -0.60279185 0.21609917 0.3259932
000040 04 3a d8 3e 02 41 81 bc 0a 74 dc bd cf 74 1e 3f
       0.42231762 -0.015778068 -0.1076432 0.61896986
000050 b3 83 21 3f a1 f4 20 bf dd 42 cd 3d 9e ec db be
       0.6309158 -0.62873274 0.10022519 -0.42953962
000060 43 4d 59 bf b0 2c 89 3d 68 50 4b bc 80 ae 9a ba
       -0.8488352 0.066979766 -0.012409307 -0.0011801273
000070 c6 b1 79 3e c7 8d 34 3f ad bb fc 3e ed ec ae 3e
       0.24384221 0.70528835 0.49361935 0.34165135
000080 74 e2 d3 3e f7 d1 b1 bd cb c7 e4 be 78 ad 08 3f
       0.41383708 -0.08682626 -0.4468368 0.5338969
000090 57 79 b7 3e 67 f5 ad bd 4e b6 a7 bd 3b c1 d6 bd
       0.35834762 -0.084940724 -0.08189069 -0.104860745
0000a0 ba c5 7f be 32 73 30 bc e4 10 41 3d bf 6f cc 3d
       -0.2497777 -0.010769652 0.04713525 0.099822514
0000b0 f2 35 85 bf ba a8 2a bd 09 8e 26 be 83 00 56 be
       -1.0407088 -0.041664816 -0.1626512 -0.20898633
0000c0 3f 22 50 bd 62 c6 3b 3f 1f 6b 81 bf 4a 69 7b 3f
       -0.05081391 0.73349583 -1.0110816 0.98207533
0000d0 8d 33 b7 3e b9 38 01 3e a1 fc 3f 3f 92 09 95 3e
       0.35781518 0.12619294 0.74994856 0.29108864
0000e0 01 ee b4 3e a9 43 19 3e fd 03 35 bc db 44 21 3f
       0.35337833 0.14967217 -0.011048314 0.6299569
0000f0 d2 1e b5 bc b7 df 15 be 8c da 6b 3c db 60 63 3f
       -0.022109423 -0.14636122 0.014395367 0.88819665
000100 6d a7 1f bf ef 1a 01 be 59 24 12 3f f9 81 82 3d
       -0.62364846 -0.1260793 0.5708671 0.063724466
000110 30 61 6f bf 7e 30 d6 bc 91 62 db 3e fc 25 3c 3e
       -0.9350767 -0.02614617 0.42848638 0.18373865
000120 ff 24 3b 3b 32 c7 2e 3f 80 40 22 bb d9 87 b7 3e
       0.0028555987 0.682727 -0.0024757683 0.3584583
000130 13 e3 53 bd 86 bd d6 3e a5 53 bc 3e 34 a7 30 3d
       -0.051730227 0.4194147 0.36782566 0.043128207
000140 7b b4 7b bd 70 c2 22 3d 55 57 58 bb ce 43 77 3f
       -0.061451416 0.03973621 -0.0033011038 0.96587837
000150 1a 03 5f 3d 9a 1f 7c 3f 56 ed 90 3f 97 a6 1d be
       0.054446317 0.9848572 1.1322429 -0.1539558
000160 83 25 5f 3d 1a e3 cf bc b2 5a d7 bd 10 1e 75 3c
       0.054479133 -0.025376845 -0.10515346 0.014960781
000170 34 94 36 bf 7c 27 f4 3e 8d 7b 0e 3e b3 07 0b 3e
       -0.7131989 0.47686374 0.13914318 0.13577156
000180 7f cb ac 3e ac 02 8f 3d 55 e8 8a 3e 29 b8 d8 3f
       0.33749005 0.069829315 0.2713038 1.6931201
000190 b6 94 dd bc dd 08 f2 bd ec fe 40 3f 73 ef d9 3d
       -0.02704845 -0.11818097 0.7538898 0.106413744
0001a0 c5 e3 01 3e 61 02 de 3e dc 5f b0 bd 8d 7d 5a bd
       0.12684543 0.4336119 -0.08612034 -0.05334239
0001b0 e8 68 2f 40 ca ff d7 bd 2b 4d 7f be 38 0c 48 bf
       2.740778 -0.10546835 -0.24931781 -0.78143644
0001c0 6f 27 29 bd ef 20 a7 3d 18 6b 25 3e 07 79 01 3f
       -0.041297372 0.081605785 0.16154134 0.505753
0001d0 0c 57 80 3e f6 87 70 3e 8f d8 9d 3e ac be 73 3e
       0.25066411 0.23489365 0.30829284 0.23803204
0001e0 e1 3d 42 3f f2 41 84 be 7c 30 80 bd 87 2d 03 3d
       0.7587567 -0.25831562 -0.06259248 0.03202584
0001f0 18 55 f8 3c a1 76 49 3e 54 33 05 bc bc ac b4 be
       0.030314013 0.1967416 -0.008129913 -0.35288036
000200 9e be 1b 3f 7c 0b 56 bb ba 58 6d 3f 33 0a 34 bd
       0.60837734 -0.0032660654 0.9271351 -0.04395504
000210 08 11 88 3e 92 5f b5 bc 64 2f f6 3d aa bc 84 be
       0.26575494 -0.022140298 0.12020758 -0.2592519
000220 d8 64 80 bd 00 0f 23 3f 00 38 d5 3c 37 4a 92 bf
       -0.062692344 0.63694763 0.02602768 -1.1428899
000230 5d 35 09 3f 1a 3e 62 be 85 95 cf bf 2f 7d f3 3e
       0.5359705 -0.22094002 -1.6217505 0.47556445
000240 00 b8 2b bf d7 9c d5 3c 40 9e 09 3d 30 c7 8b bd
       -0.67077637 0.026075764 0.033598185 -0.068251014
000250 0a 5d c2 3e 6a e6 0c 3e 81 82 1b bf ca ba db 3e
       0.37961608 0.13759771 -0.6074601 0.42915946
000260 09 ff 60 3f 70 35 3b bd 0a d9 e4 3d 2e 1d 8b bd
       0.8788915 -0.04570526 0.111742094 -0.06792675
000270 41 4d 07 3f 56 9a 44 3e 27 c2 a0 3e 9d 46 71 bf
       0.52852255 0.191995 0.31398126 -0.9424837
000280 e2 75 c2 3d ce f4 f9 bc 7e 76 ae 3d fe b6 10 3f
       0.094951406 -0.03051224 0.08518694 0.56529224
000290 1b a9 2e be 05 12 2e 3d 1e 98 33 3e 30 e1 56 bc
       -0.17056696 0.042497654 0.17538497 -0.013115212
0002a0 25 a8 50 3f 53 ff 0a 3f 75 20 4f bd 1d fd 36 3b
       0.8150657 0.54295844 -0.050568063 0.0027921863
0002b0 0c e0 c1 3d af db 67 bd 78 1b 53 3f ba ff a0 3e
       0.09466562 -0.05660599 0.8246379 0.31445104
0002c0 ca 2b c8 bd d0 51 9a bb 0f 06 86 3d 0a 19 b4 3e
       -0.09773977 -0.00470946 0.06544124 0.35175353
0002d0 b3 81 82 3e 0b 41 b7 bd 19 e9 92 3e 3c 8c cd bd
       0.25489578 -0.08947953 0.28693464 -0.10036513
0002e0 6c f2 b1 3e 74 3b 07 3e 9f a0 55 bc f5 be 05 3f
       0.34755266 0.13206273 -0.013038783 0.522445
0002f0 49 0b a2 bc c3 1d 97 3d a4 70 48 3c 43 4b 19 bc
       -0.019780772 0.073787235 0.012233887 -0.009356323
000300 54 da 27 3d a7 bc a3 bd 6b d2 f0 3e 10 d8 c1 bd
       0.0409797 -0.07994967 0.47035536 -0.09465039
000310 a6 65 d8 3e 98 06 2b 3d 2b 8e fa 3d de a3 cc 3d
       0.42265052 0.041754335 0.12234148 0.09992193
000320 30 a7 8e bd c3 11 cf 3e 9d d7 41 bc d7 19 07 bf
       -0.06965482 0.4044324 -0.011831191 -0.52773803
000330 f6 6d 67 bf 44 00 58 bf 2b 20 97 3d 1f 2d 28 3f
       -0.9040216 -0.84375405 0.073791824 0.6569385
000340 75 15 5d 3d 0d 12 e9 3d d7 2a 03 3d 31 89 67 3e
       0.05397554 0.11380396 0.032023277 0.22610928
000350 79 49 01 3f 6c cb 23 3e 93 85 ef 3d a9 92 a9 3f
       0.50502735 0.15995568 0.11695399 1.3247882
000360 a2 31 84 3f 14 e8 b2 3c a1 f5 84 bd 4e 59 9d 3d
       1.0327647 0.02183918 -0.064921625 0.07683049
000370 04 97 2b 3e 2c 87 f2 3e 63 77 f8 be a5 e8 5b 3e
       0.16756827 0.47368753 -0.48528585 0.21475466
000380 32 e5 8f bf bb 93 09 3d 36 02 80 3e 18 30 9e 3e
       -1.124182 0.033588152 0.25001687 0.30896068
000390 55 ab 83 3f f0 66 4c 3d 36 e7 8a bf 2a e5 ba 3d
       1.0286661 0.049902856 -1.085181 0.09125741
0003a0 b6 05 9b 3e ae 94 19 40 02 f4 2b 3c 84 de a7 bd
       0.30277795 2.3996997 0.010495188 -0.08196738
0003b0 80 8d e9 3d a7 dd 33 3c 6a 6d 60 3e 20 a7 8d 3f
       0.11403942 0.010978139 0.21916738 1.1066628
0003c0 6b 8f d5 3d 47 b4 b6 bc 1b 10 dc 3d eb 0d 7a 3f
       0.104277454 -0.02230276 0.107452594 0.9767749
0003d0 38 ac 55 3d 90 bb 4a bd 54 e4 b2 be 19 84 d1 3c
       0.052166194 -0.04949528 -0.34939826 0.025575684
0003e0 65 2f ce 3e de ed 94 be d9 b1 31 3d 1d e7 aa 3e
       0.40270534 -0.29087728 0.0433825 0.3337945
0003f0 fc c0 43 bd fd 27 01 3d d3 d1 a7 3b 7b 60 08 3f
       -0.047791466 0.031532276 0.0051214485 0.5327222

net.4.bias f4 [4]
000000 d7 40 61 3f d0 1d 1a 3f cb 28 1d 3f fc e1 82 3e
       0.8798956 0.6020174 0.6139037 0.25563037
