rl_agents/checkpoint_dqn_seed_999_ep_1000.pth (torch, 22133 bytes, 6 tensors)

net.0.weight f4 [64, 3]
0	0x3e51f878	0.2050494
1	0x3e350618	0.17678106
2	0xbf064a71	-0.5245734
3	0x3f3abe7b	0.729469
4	0x3c03ea37	0.008051447
5	0x3f5b3241	0.85623556
6	0x3f08415f	0.5322475
7	0xbf72dcbb	-0.9486806
8	0xbea7b0fc	-0.32752216
9	0x3eb6ef95	0.35729662
10	0xbf9fe5f5	-1.2492052
11	0xbd5b4f2a	-0.053542294
12	0xbe4f18d7	-0.2022432
13	0x3f1c6199	0.6108642
14	0x3f5dae99	0.8659454
15	0xbf3e33a9	-0.7429758
16	0x3f31c99f	0.69448274
17	0xbedb7053	-0.42859134
18	0x3ddce77b	0.10786339
19	0xbf31909f	-0.693613
20	0xbf8019c0	-1.0007858
21	0x3eeefe37	0.46678326
22	0x3f23d0dc	0.6399057
23	0x3e455025	0.19268854
24	0x3f712231	0.94192797
25	0x3d64abcf	0.055827912
26	0x3dd73577	0.105082445
27	0xbf4caff1	-0.79955965
28	0xbf1ff787	-0.6248707
29	0x3e31e8ce	0.17373964
30	0x3cf6004d	0.03002944
31	0xbf4ce74b	-0.80040425
32	0x3eb05158	0.3443706
33	0xbd234a10	-0.039865553
34	0x3e82bbbc	0.25533855
35	0xbe1ef2de	-0.15522334
36	0x3d6d2f71	0.05790657
37	0x3ee8792c	0.45404947
38	0xbe93f74a	-0.28899604
39	0x3e0163ac	0.12635678
40	0x3d2e181a	0.042503454
41	0x3eac3081	0.33630756
42	0xbf0f9ac6	-0.5609554
43	0x3f4920a4	0.7856543
44	0x3e9ad77f	0.30242535
45	0xbdb310b0	-0.08743417
46	0x3ea16377	0.31521198
47	0xbe7a5913	-0.24448042
48	0xbf19f01e	-0.60132015
49	0x3ed02def	0.40660045
50	0x3e357959	0.17722072
51	0x3f0db41a	0.5535294
52	0xbf6dd148	-0.9289746
53	0xbebc3af3	-0.36763725
54	0x3ecdbb82	0.4018212
55	0x3eb8a0f6	0.36060303
56	0x3f157454	0.5838063
57	0x3edbbfdd	0.42919818
58	0xbf8de1a1	-1.1084481
59	0xbdc27ba6	-0.0949624
60	0xbf2cb685	-0.67466
61	0xbf2a663d	-0.66562253
62	0xbf2b29ec	-0.6686084
63	0x3f4bc58a	0.79598296
64	0xbe93c523	-0.2886134
65	0xbefd69c7	-0.49494764
66	0xbef064bd	-0.46951857
67	0x3f135762	0.5755521
68	0x3e17ddcd	0.14830704
69	0xbeb223dc	-0.34792984
70	0xbd58aedc	-0.052901134
71	0x3f23aff2	0.63940346
72	0xbe4a8ac9	-0.19779505
73	0x3ec38319	0.38185957
74	0x3f0fb300	0.5613251
75	0x3dfbe394	0.122992665
76	0xbe8fb6f6	-0.28069276
77	0xbeb42e6d	-0.3519167
78	0xbe97aa95	-0.2962233
79	0x3f1f824b	0.62308186
80	0xbf7b17ce	-0.980832
81	0xbf429a4b	-0.7601668
82	0x3f6a2789	0.91466576
83	0xbea0fea7	-0.31444284
84	0xbf093b8c	-0.53606486
85	0x3ee13968	0.4398911
86	0x3e923b71	0.28560975
87	0x3f129b35	0.5726808
88	0xbef420f4	-0.4768139
89	0xbebb35ce	-0.36564487
90	0x3f1f0429	0.6211572
91	0xbe8f29c2	-0.27961546
92	0x3f0058a1	0.50135237
93	0x3c7c5df6	0.015403261
94	0xbee40b92	-0.44540077
95	0xbf581f56	-0.84422815
96	0x3e570318	0.20997274
97	0xbf31110e	-0.6916665
98	0xbf954926	-1.1662948
99	0xbf3682e5	-0.7129348
100	0x3dc13b9b	0.09435197
101	0xbe438096	-0.1909202
102	0x3f361fab	0.7114207
103	0x3e755403	0.23957829
104	0x3f115601	0.56771857
105	0xbf35663f	-0.7085914
106	0x3d237185	0.039903183
107	0xbf53d8ad	-0.82752496
108	0xbf8fb31e	-1.1226537
109	0xbddda26d	-0.10821996
110	0xbe7e5df2	-0.24840525
111	0xbc09b180	-0.008404136
112	0x3ef61a1c	0.48066795
113	0xbef2e2f6	-0.47438782
114	0xbf26c879	-0.65149647
115	0xbf37562f	-0.7161588
116	0x3ddd7f53	0.10815301
117	0x3f70f12e	0.9411801
118	0xbeb1f3da	-0.34756356
119	0xbf1a7bf9	-0.6034542
120	0xbf34f0b7	-0.706798
121	0xbe819d35	-0.25315252
122	0x3e8bb026	0.27282828
123	0xbe3b59fd	-0.18296047
124	0xbf080623	-0.53134364
125	0xbef278e5	-0.4735786
126	0xbf3dfebc	-0.7421682
127	0x3e4790a9	0.19488777
128	0xbf4c1fa1	-0.7973576
129	0xbf18b380	-0.59648895
130	0x3f193b56	0.59856164
131	0xbf72e786	-0.94884527
132	0x3f5b3f96	0.856439
133	0x3f256e5c	0.6462152
134	0xbbbaabe7	-0.005696762
135	0xbf42212d	-0.7583187
136	0xbf31027c	-0.69144416
137	0xbf2b426f	-0.66898245
138	0x3e1f8247	0.1557704
139	0xbf3222ee	-0.6958455
140	0x3ee4b761	0.44671157
141	0x3f714042	0.94238675
142	0x3f162939	0.5865665
143	0xbedf4693	-0.4360853
144	0x3f49ed3b	0.7887761
145	0xbf384b4c	-0.71989894
146	0x3efbe561	0.4919844
147	0x3f48ddef	0.78463644
148	0xbe8bbd8f	-0.2729306
149	0x3e90ba14	0.28266966
150	0xbd97ff4b	-0.0742174
151	0x3e88d06c	0.26721513
152	0x3e71ecd3	0.23625498
153	0x3ef6b1b2	0.48182446
154	0x3ed80302	0.42189795
155	0xbf24fcb4	-0.64448094
156	0xbf522d28	-0.8210015
157	0xbec635fc	-0.38713062
158	0x3eb57127	0.3543789
159	0xbf73dd78	-0.9525981
160	0x3e2a565c	0.16634506
161	0xbe6fe8c5	-0.23428638
162	0xbf17ebf8	-0.59344435
163	0xbe8abe8e	-0.27098507
164	0xbf053676	-0.52036226
165	0xbf34979c	-0.7054384
166	0x3f5d35b5	0.86410075
167	0x3eabc842	0.33551222
168	0xbe4990f1	-0.19684197
169	0xbe73691d	-0.23770566
170	0x3f252194	0.6450436
171	0x3f839b00	1.0281677
172	0xbf190d27	-0.59785694
173	0x3ef1384e	0.4711327
174	0xbd7fe4c5	-0.06247403
175	0xbdbf90ba	-0.09353776
176	0x3dca443c	0.09876296
177	0x3ed0975c	0.40740478
178	0xbc4b4313	-0.012406128
179	0x3e8d4eff	0.27599332
180	0xbf1e1fa1	-0.6176701
181	0x3f455116	0.7707685
182	0xbee2318d	-0.4417843
183	0x3ef5c737	0.4800355
184	0xbeca82cc	-0.39552915
185	0xbe3eec28	-0.18644774
186	0x3f4457fc	0.76696754
187	0x3f396ede	0.72434795
188	0xbd2ce7e2	-0.04221333
189	0xbe471691	-0.19442202
190	0x3f68cf57	0.90941375
191	0xbe94feba	-0.2910059

net.0.bias f4 [64]
0	0xbef57c75	-0.47946516
1	0xbf8133ec	-1.009397
2	0x3efca0c0	0.49341393
3	0xbedf135e	-0.43569463
4	0xbf01c860	-0.50696373
5	0x3f3de20d	0.7417305
6	0x3e09763d	0.1342401
7	0x3e6e284c	0.2325756
8	0xbe9b89d8	-0.30378604
9	0x3e8a392d	0.26996747
10	0xbec94f42	-0.3931828
11	0xbead2324	-0.33815873
12	0x3f74b0ca	0.9558226
13	0x3da6e86b	0.08149799
14	0xbf1d25a8	-0.61385584
15	0x3f32a4a1	0.69782454
16	0x3cb25dfa	0.021773327
17	0x3f0b10fc	0.5432279
18	0xbf38f2c4	-0.7224543
19	0xbdaf1551	-0.08548988
20	0xbc92c9a6	-0.01791842
21	0x3f2448e4	0.6417372
22	0x3edbaa01	0.4290314
23	0xbe80eca8	-0.25180554
24	0xbeb8d6a8	-0.3610127
25	0x3f566df6	0.8376154
26	0x3f715f7c	0.9428632
27	0x3f181c41	0.5941811
28	0x3dbc19fb	0.09184643
29	0x3f05a7d0	0.52209187
30	0xbed00d39	-0.40635088
31	0x3e832459	0.2561367
32	0x3e53ad66	0.20671615
33	0x3e2bc954	0.1677602
34	0xbec364d0	-0.3816285
35	0xbe333aca	-0.17502895
36	0x3ebe267f	0.37138745
37	0xbf0b5330	-0.5442381
38	0x3f089703	0.53355426
39	0xbed387e7	-0.41314623
40	0x3e4e691c	0.20157284
41	0x3ed515c0	0.41618156
42	0x3f11983f	0.56872934
43	0xbe181ee6	-0.14855537
44	0x3f1c6d84	0.6110461
45	0x3d4d9d09	0.05019859
46	0xbf39a092	-0.72510636
47	0x3eab3722	0.334405
48	0xbf33086c	-0.69934726
49	0xbefae951	-0.4900613
50	0xbe4f5e16	-0.20250735
51	0x3f36815d	0.7129114
52	0xbe812d9f	-0.2523012
53	0x3e799f76	0.24377236
54	0xbd1321e9	-0.03592101
55	0xbf2ebec7	-0.68259853
56	0xbeee230f	-0.46511123
57	0xbf384839	-0.71985203
58	0xbe2a494b	-0.16629522
59	0xbe2d204d	-0.16906853
60	0xbec38347	-0.38186094
61	0x3f3e405b	0.7431695
62	0x3f35dede	0.71043193
63	0x3db017a2	0.085982576

net.2.weight f4 [64, 64]
0	0x3dbf92e6	0.093541905
1	0xbe035eaf	-0.12829088
2	0xbdecc3e4	-0.11560801
3	0xbde4f6c6	-0.11179881
4	0x3c3826db	0.011239733
5	0xbb358338	-0.002769662
6	0xbd52dfdd	-0.051483024
7	0xbd279e1a	-0.04092226
8	0x3c6b6110	0.014366403
9	0xbc6cd3cf	-0.014454796
10	0x3cb7ab3d	0.02242052
11	0xbdc85218	-0.09781283
12	0x3c858451	0.016298445
13	0xbe02cdbf	-0.12773798
14	0x3d19e5f9	0.037572835
15	0x3d8cb5f3	0.068706416
16	0x3d029440	0.031879663
17	0x3cd8e39e	0.026475724
18	0xbdad1b76	-0.084525034
19	0x3de0c080	0.109742165
20	0xbdcf05ea	-0.1010855
21	0x3da11aa9	0.07866413
22	0xbe01e567	-0.12685166
23	0xbdd74058	-0.105103195
24	0x3c1eaf16	0.009685298
25	0xbd48feef	-0.04907125
26	0x3de1680a	0.11006172
27	0x3dcf6fb5	0.10128728
28	0xbe013270	-0.12616897
29	0xbcb8fe40	-0.022582173
30	0xbd4181bd	-0.04724287
31	0xbdb7f183	-0.089816116
32	0x3c94ff5c	0.018188171
33	0xbcbcd6a8	-0.023051575
34	0x3c86fa18	0.016476676
35	0xbdc5c7bf	-0.09657239
36	0x3d983f8a	0.07433994
37	0x3db74cda	0.08950205
38	0xbc5c53cb	-0.013447712
39	0xbc035c10	-0.008017555
40	0x3d298773	0.04138894
41	0xbddef831	-0.108871825
42	0xbdd7f630	-0.105450034
43	0xbd3c4dc4	-0.0459726
44	0x3c020270	0.007935151
45	0x3de3dbf1	0.11125935
46	0x3ddbd8a3	0.107346795
47	0x3d85c150	0.06531012
48	0xbd531226	-0.05153098
49	0xbe05580e	-0.13021871
50	0x3d934d82	0.07192518
51	0xbdebf9c7	-0.115222506
52	0x3d11c6e4	0.035590068
53	0xbd468278	-0.04846427
54	0xbcf67cfb	-0.030088892
55	0xbd6c343f	-0.057667013
56	0x3cdd2356	0.026994389
57	0x3d2a2442	0.041538484
58	0x3d81b37e	0.063330635
59	0x3c95a323	0.018266266
60	0x3a064400	0.0005121827
61	0xbbf041b4	-0.007332051
62	0xbd5e18c0	-0.054222822
63	0xbc25a730	-0.010110661
64	0x3d75cb34	0.060008243
65	0xbf03d436	-0.51495683
66	0x3ed87638	0.42277694
67	0x3ed8a2be	0.42311662
68	0xbedaf76a	-0.42766887
69	0xbed8f621	-0.4237528
70	0x3f4e73c0	0.8064537
71	0xbe95eed6	-0.2928378
72	0xbac767d1	-0.0015213435
73	0xbeb3617f	-0.3503532
74	0x3d8f213e	0.06988762
75	0xbd14ba10	-0.036310256
76	0xbd83b4d2	-0.06430973
77	0xbe7e4617	-0.24831425
78	0xbbf0529b	-0.007334066
79	0xbb736aed	-0.003714259
80	0xbf811a7a	-1.0086205
81	0x3eda2cdc	0.4261235
82	0xbef94257	-0.48683426
83	0x3f307509	0.6892858
84	0x3ac1e3f5	0.0014792668
85	0x3d912127	0.070864014
86	0xbf332bc2	-0.69988644
87	0xbf41339d	-0.7546938
88	0xbf7ca7f3	-0.9869377
89	0x3d1012bf	0.035174128
90	0xbf086a29	-0.5328699
91	0xbebf1a98	-0.37324977
92	0xbf3c95e4	-0.73666215
93	0x3e417bf4	0.1889494
94	0x3cdab343	0.026696807
95	0x3f399b2e	0.7250241
96	0x3f48be7c	0.78415656
97	0xbec841c7	-0.39112684
98	0xbef5fbb6	-0.48043603
99	0xbefd76d0	-0.4950471
100	0xbef6e2f3	-0.48220024
101	0xbdbbf500	-0.091775894
102	0x3d0a0e55	0.033705074
103	0x3ea2b1e1	0.31776336
104	0xbedf6f35	-0.43639532
105	0x3f09036e	0.5352086
106	0xbeaee65b	-0.34160122
107	0x3ea209a3	0.31647977
108	0xbe326f7b	-0.17425339
109	0xbd32f350	-0.043689072
110	0xbd80b706	-0.06284909
111	0xbe1fbc39	-0.15599145
112	0xbdabfc2d	-0.08397708
113	0xba922376	-0.0011149484
114	0xbf3adbd1	-0.72991663
115	0x3e90b301	0.2826157
116	0xbea51af9	-0.3224714
117	0xbf15df59	-0.58543926
118	0x3ca88413	0.02057079
119	0xbdc9bed1	-0.098508485
120	0xbf14dfde	-0.58154094
121	0xbdb336fc	-0.08750722
122	0xbe3f52c4	-0.18683916
123	0x3a7ea724	0.0009714237
124	0xbc9d4780	-0.019199133
125	0x3e23e34c	0.16004676
126	0xbe053eba	-0.1301221
127	0x3da9bea0	0.08288312
128	0xbd229bd8	-0.039699405
129	0x3e86126c	0.2618593
130	0x3de9d212	0.11417021
131	0x3eb2e3fe	0.3493957
132	0x3e74ec34	0.2391823
133	0x3e2b916a	0.1675469
134	0x3f08254d	0.53181916
135	0x3dd6c393	0.104865216
136	0xbee5c17b	-0.44874176
137	0xbd0e8f4d	-0.03480463
138	0x3d4df839	0.05028555
139	0x3caa35b0	0.020777553
140	0x3c7ecacc	0.01555128
141	0x3e316139	0.17322244
142	0x3d63e03b	0.055633765
143	0xbd96b318	-0.07358378
144	0xbc4664e5	-0.012109016
145	0x3e195988	0.1497556
146	0x3d0f869a	0.035040475
147	0x3eb314fd	0.3497695
148	0x3ef4bbd5	0.47799554
149	0x3e1ac08d	0.15112515
150	0x3de182e8	0.110112965
151	0x3d3159fb	0.043298703
152	0x3e1803bc	0.14845175
153	0x3e96dac0	0.29463768
154	0x3ee032ac	0.4378866
155	0x3e61da2f	0.22055887
156	0x3d35a6dc	0.044348583
157	0x3badc214	0.005302677
158	0x3d9aa2f9	0.07550616
159	0x3f0c00eb	0.546889
160	0x3ee939c3	0.4555188
161	0xbe97520a	-0.29554778
162	0x3e9bc328	0.3042233
163	0x3f139c1a	0.5766007
164	0xbf239388	-0.6389699
165	0xbdf9c526	-0.12195806
166	0x3d14b52f	0.036305603
167	0xbe95e7ca	-0.29278404
168	0x3dde0435	0.10840646
169	0xbe73e0ae	-0.23816177
170	0xbd64229b	-0.055697065
171	0xbf41b684	-0.7566912
172	0x3dc6653d	0.096872784
173	0x3eedd79e	0.46453565
174	0x3e45d9b3	0.19321327
175	0x3e5f2f54	0.21795398
176	0xb8bcd624	-9.0044254e-05
177	0x3e006cc9	0.12541498
178	0x3dcb1802	0.099166885
179	0x3cc1b803	0.023647314
180	0x3e5d1b17	0.21592365
181	0xbec94320	-0.39309025
182	0x3eae9054	0.3409449
183	0x3da2cfc2	0.07949783
184	0x3d1eb2c6	0.03874471
185	0xbd8ec1c6	-0.06970553
186	0xbcaaf033	-0.020866489
187	0x3e2f27a5	0.17104967
188	0xbe85d220	-0.26136875
189	0x3e89befc	0.26903522
190	0x3d412ac5	0.04715993
191	0x3ead8cc7	0.33896467
192	0xbc3bf150	-0.011471108
193	0x3d840305	0.064458884
194	0xbe505e54	-0.20348483
195	0xbe65d6f7	-0.22445284
196	0x3dadff52	0.08495964
197	0x3dbe1f1c	0.092832774
198	0xbe6b590f	-0.22983192
199	0xbc7f2d60	-0.015574783
200	0xbf2d07e6	-0.6759018
201	0xbf2fb93d	-0.68642026
202	0xbeb46cdb	-0.352393
203	0xbd45eb40	-0.048320055
204	0x3e69c4b4	0.22828943
205	0xbcc0e03f	-0.023544429
206	0x3d99d441	0.07511187
207	0x3e9182c2	0.28420073
208	0x3dd8cece	0.1058632
209	0xbed2a26d	-0.41139546
210	0x3dd1a6f3	0.10236921
211	0xbe8e4431	-0.277864
212	0x3c960e4c	0.018317364
213	0xbf1275cf	-0.5721101
214	0x3dfc59bf	0.12321805
215	0x3d927db2	0.07152881
216	0x3de5d11f	0.11221527
217	0xbeb0c5aa	-0.34525806
218	0x3e69dd2d	0.22838278
219	0x3e132b09	0.14371885
220	0x3df90f95	0.12161175
221	0xbef44429	-0.47708252
222	0xbd81d505	-0.063394584
223	0xbdbea2c9	-0.093083926
224	0xbdd58734	-0.104261786
225	0xbef41028	-0.47668576
226	0x3deb36fc	0.11485097
227	0xbeea6f06	-0.4578783
228	0xbf3a0bc3	-0.72674197
229	0xbd7623c8	-0.060092717
230	0xbea03f7a	-0.3129843
231	0x3e0fcdb3	0.14043312
232	0x3d500739	0.050788138
233	0x3e724789	0.23660101
234	0xbdfd007e	-0.123536095
235	0xbf70c95a	-0.9405724
236	0x3e06d013	0.13165312
237	0xbe063368	-0.13105547
238	0xbdd7d433	-0.10538521
239	0xbde0a2dc	-0.10968563
240	0xbedc11bc	-0.4298228
241	0xbebd309e	-0.36951154
242	0xbd1fbdb6	-0.03899928
243	0xbe7ff708	-0.24996579
244	0xbe947371	-0.28994325
245	0xbf097665	-0.5369628
246	0x3e3296c1	0.1744032
247	0x3e1836c5	0.14864643
248	0xbe0f0432	-0.13966444
249	0xbee5c9c3	-0.44880494
250	0xbbb63880	-0.0055609345
251	0xbd9b24a0	-0.07575345
252	0xbf7bf217	-0.98416275
253	0xbef9901a	-0.48742753
254	0x3e7afe6d	0.24511118
255	0x3e64de0f	0.22350334

net.2.bias f4 [64]
0	0xbdf25f35	-0.118345656
1	0xbc347e1a	-0.011016393
2	0x3de0f79b	0.10984727
3	0x3d19d7d6	0.037559353
4	0xbe2ba1da	-0.1676096
5	0xbc11e653	-0.008905011
6	0xbdc209b6	-0.094745085
7	0x3bbcfe86	0.0057676462
8	0x3da301af	0.079593055
9	0x3ec72279	0.38893488
10	0xbe651d63	-0.22374491
11	0xbe3d2deb	-0.18474548
12	0xbcf7ff50	-0.03027311
13	0x3d71f65f	0.05907285
14	0xbda8f870	-0.08250511
15	0x3e661014	0.22467071
16	0x3eca8f1e	0.39562315
17	0x3e7f262e	0.24916908
18	0xbdb687e8	-0.08912641
19	0x3d8ae871	0.06782616
20	0x3ed2c61c	0.4116677
21	0x3e3c5fe9	0.18395962
22	0x3e436a63	0.19083552
23	0x3e4fc914	0.20291549
24	0x3dfe75bf	0.12424802
25	0xbc80723c	-0.015679471
26	0xbe1493a9	-0.14509453
27	0xbe54ce98	-0.20781934
28	0x3dd2ac86	0.102868125
29	0xbe271297	-0.16315685
30	0xbe04faf1	-0.12986352
31	0x3e97e9b9	0.29670504
32	0x3da97802	0.08274843
33	0x3d8ee25b	0.06976768
34	0xbcfc3f01	-0.030791761
35	0xbe0bca07	-0.13651286
36	0x3dcfa862	0.10139538
37	0x3e0e65dc	0.13906044
38	0x3e8bfdbf	0.2734203
39	0x3cd5b1c1	0.026085736
40	0x3e91dff1	0.28491166
41	0x3e2817b3	0.1641529
42	0x3dd50f0c	0.104032606
43	0x3e899433	0.2687088
44	0x3c42e64c	0.011895727
45	0x3dcad908	0.09904677
46	0x3d91893f	0.07106256
47	0x3d7d8dad	0.06190269
48	0xbdd13280	-0.1021471
49	0x3db382f1	0.087652095
50	0x3ec30ec4	0.38097203
51	0x3d059907	0.03261664
52	0xbecb7cde	-0.39743704
53	0x3e59956f	0.2124841
54	0x3e089bff	0.13340758
55	0x3dc1d93e	0.09465264
56	0x3ed51ed0	0.4162507
57	0x3eb6683f	0.35626408
58	0x3cfe1afa	0.031018723
59	0x3caffa05	0.021481523
60	0xbe0e58d7	-0.13901077
61	0xbe62f79a	-0.22164765
62	0x3ea43c0a	0.32077056
63	0xbe3959b0	-0.1810062

net.4.weight f4 [4, 64]
0	0xbd675395	-0.056476194
1	0x3e938257	0.2881038
2	0x3eb28fec	0.3487543
3	0x3da23c16	0.07921617
4	0xbe882106	-0.26587695
5	0xbdf5f78f	-0.12010109
6	0xbc089a80	-0.008337617
7	0xbf162e51	-0.58664423
8	0xbd3aac7c	-0.04557465
9	0xbf812f2a	-1.0092518
10	0xbf302b1c	-0.6881578
11	0xbf170b95	-0.5900205
12	0xbc10d57b	-0.00883996
13	0xbf8cd94b	-1.1003813
14	0xbda06dd0	-0.07833445
15	0x3ee5d548	0.44889283
16	0x3e5a1a94	0.21299201
17	0x3db89997	0.0901367
18	0x3ddf56f2	0.109052554
19	0x3e7190b5	0.23590358
20	0x3e0fa2b3	0.14026909
21	0xbe170162	-0.14746621
22	0xbf5b7afc	-0.85734534
23	0x3ef365fb	0.47538742
24	0x3eac3340	0.3363285
25	0xbe21c922	-0.15799382
26	0x3bbefda7	0.0058285776
27	0x3b8cbeb1	0.004295193
28	0x3ea7b0ad	0.3275198
29	0x3e97eaf6	0.29671448
30	0x3daa92bc	0.083287686
31	0x3ec4a103	0.38404092
32	0x3d24bd47	0.04021957
33	0xbd22b546	-0.039723657
34	0x3d9a085f	0.07521128
35	0xbd9ad3ad	-0.07559905
36	0xbe0b2b9e	-0.13590857
37	0xbefece3b	-0.49766716
38	0x3ea9407c	0.3305701
39	0xbd91e50b	-0.071237646
40	0xbdad5dd4	-0.08465162
41	0x3f07ef75	0.5309976
42	0x3e50ef99	0.20403899
43	0x3eba4e68	0.36387944
44	0xbede7105	-0.43445602
45	0xbf36c047	-0.7138714
46	0x3e5519de	0.20810649
47	0x3d9106f0	0.07081401
48	0xbf13428c	-0.5752342
49	0x3df192eb	0.117956005
50	0x3eed620c	0.46363866
51	0x3f01a1b7	0.5063738
52	0xbea3ffb6	-0.3203103
53	0x3eb5df77	0.35522053
54	0x3e69bd5b	0.2282614
55	0xbe9f9845	-0.3117086
56	0x3eef15c3	0.4669629
57	0xbd2d6427	-0.04233184
58	0xbf40745e	-0.7517756
59	0x3d400098	0.046875566
60	0xbd2c7776	-0.042106114
61	0x3f216ad2	0.6305362
62	0x3edd1f85	0.4318811
63	0x3f107cca	0.56440413
64	0xbdb69113	-0.089143895
65	0x3eea4554	0.45756018
66	0x3e3cff63	0.18456797
67	0x3e6142c2	0.21998122
68	0x3e87b5f2	0.26506
69	0xbed440f6	-0.4145581
70	0x3d1778ec	0.036980554
71	0xbf29bcc2	-0.66303647
72	0xbca14408	-0.01968576
73	0xbe9e26aa	-0.30888873
74	0x3d960032	0.07324256
75	0x3ddcd306	0.10782437
76	0xbddf9c4c	-0.10918483
77	0xbde67df6	-0.11254494
78	0x3d7b9764	0.061423674
79	0xbe18e583	-0.14931302
80	0x3ea5454f	0.3227944
81	0xbccf5b48	-0.025312081
82	0xbde034a5	-0.10947541
83	0x3eb522a5	0.35377994
84	0x3d065357	0.032794323
85	0xbe5574e8	-0.20845377
86	0xbddf74bd	-0.10910938
87	0x3f264e70	0.64963436
88	0xbebb3684	-0.3656503
89	0x3e9a1035	0.3009049
90	0xbda2de2b	-0.079525314
91	0x3f3f71b3	0.74782866
92	0x3db90fe7	0.09036236
93	0xbd8c7979	-0.068591066
94	0x3caca93c	0.021076791
95	0x3dea9530	0.114542365
96	0xbd13f977	-0.03612658
97	0xbd93ac11	-0.072105534
98	0x3d406d1d	0.04697906
99	0x3e3b68c0	0.18301678
100	0xbe3856c7	-0.18001853
101	0xbea15ca4	-0.31515992
102	0x3ebd64c4	0.3699094
103	0xbc759728	-0.014989652
104	0x3ea8b9b2	0.32954174
105	0x3e800cde	0.25009817
106	0x3d907e79	0.07055373
107	0xbe0d969b	-0.13826983
108	0xbe4d1bca	-0.20030132
109	0xbec76249	-0.38942173
110	0xbce6fe47	-0.02819742
111	0x3dc468d0	0.09590304
112	0xbda6f829	-0.081528015
113	0x3d603784	0.054740444
114	0x3f611dd8	0.8793616
115	0x3e6bf9d6	0.23044524
116	0x3ecf61e7	0.4050438
117	0x3eb7974e	0.35857624
118	0xbf1eb4b1	-0.61994463
119	0x3e50e0c5	0.20398243
120	0x3e85bbf0	0.26119947
121	0x3e69c693	0.22829656
122	0x3eb5fc2b	0.3554395
123	0xbd80c50a	-0.06287582
124	0xbcb05ecc	-0.021529578
125	0xbe896f8e	-0.26842922
126	0x3f1ebee8	0.6201005
127	0x3e90c09a	0.28271943
128	0xbd2ce866	-0.04221382
129	0x3f05912b	0.52174634
130	0xbd81abab	-0.06331571
131	0xbec2a6c4	-0.38017857
132	0xbc8dabb1	-0.017293783
133	0x3dd2980c	0.10282907
134	0xbcd388d8	-0.025822088
135	0xbdfa5567	-0.122233205
136	0xbd502247	-0.05081394
137	0x3e66424d	0.22486229
138	0x3e84e924	0.25959122
139	0xbe41ba3a	-0.18918696
140	0xbda60085	-0.08105568
141	0x3ed80c6d	0.4219698
142	0x3dd27a30	0.10277212
143	0x3ead28e7	0.3382027
144	0x3f13a42d	0.5767239
145	0x3edca393	0.43093547
146	0xbac927a4	-0.0015346897
147	0xbd9afece	-0.075681314
148	0x3f24b4bb	0.6433827
149	0x3e31d35b	0.17365782
150	0x3ece5961	0.40302566
151	0x3ecde1c7	0.40211317
152	0xbcaf0699	-0.02136545
153	0xbe15f836	-0.14645466
154	0xbd5df982	-0.054193027
155	0xbe02ae17	-0.12761723
156	0xbf560cef	-0.83613485
157	0x3dd0a796	0.101882145
158	0xbc335be1	-0.010947199
159	0x3e7b83b9	0.24561967
160	0xbdc67d33	-0.096918486
161	0xbc81e6ce	-0.015857127
162	0x3d90be7d	0.07067583
163	0xbed6c956	-0.41950482
164	0x3ec4fa73	0.38472328
165	0x3e29459e	0.16530463
166	0xbd0b9686	-0.034079097
167	0x3d2bd614	0.041952208
168	0x3ec5c0e1	0.38623717
169	0x3cc903a9	0.024537878
170	0x3e835d8c	0.25657308
171	0x3e81694e	0.25275654
172	0xbdaca921	-0.08430696
173	0xbf124d63	-0.5714933
174	0x3bed72f0	0.0072463676
175	0x3d346e70	0.044050634
176	0xbe9fd482	-0.31216818
177	0x3ca6280d	0.02028277
178	0x3f263020	0.6491718
179	0x3eb9e04b	0.36303934
180	0x3f317e59	0.69333416
181	0xbe34d5c4	-0.1765967
182	0x3e1087bb	0.14114277
183	0x3e024bfa	0.12724295
184	0x3eb43f8a	0.35204726
185	0x3e8922db	0.26784405
186	0xbf07d949	-0.53065926
187	0xbd4c0408	-0.049808532
188	0xbdacfdbf	-0.08446836
189	0xbf773579	-0.9656597
190	0xbeccea8b	-0.40022692
191	0x3f48d5b5	0.7845109
192	0x3b576637	0.0032867321
193	0xbf0df7bd	-0.55456144
194	0xbdecbb63	-0.11559179
195	0x3e6fc783	0.23415951
196	0xbdfe0375	-0.12403003
197	0x3ecfc63d	0.4058093
198	0x3dfca4b2	0.12336101
199	0xbe82ecea	-0.25571376
200	0xbd2f621d	-0.042818177
201	0xbf1b1b68	-0.60588694
202	0x3f0ee8a9	0.5582376
203	0x3d49ec37	0.049297538
204	0xbdd3f19e	-0.10348819
205	0xbe8f50ed	-0.2799143
206	0xbddb57dc	-0.10710117
207	0x3e1b6769	0.15176167
208	0x3eeb58ab	0.45966086
209	0x3e4b19bb	0.19834034
210	0xbbb4fc3b	-0.0055232323
211	0xbd1181c3	-0.03552414
212	0xbccd4db0	-0.025061458
213	0x3f3667f3	0.71252364
214	0x3f0149d0	0.50503254
215	0xbd9eb8ee	-0.07750116
216	0x3ded3f47	0.11584335
217	0x3ee87dbf	0.45408437
218	0x3dafee88	0.08590418
219	0x3f071128	0.52760553
220	0xbda48215	-0.08032624
221	0xbe2fee90	-0.17180848
222	0xbd57637f	-0.05258512
223	0x3f5ba134	0.8579285
224	0xbd9ae146	-0.07562499
225	0xbd7fe0bb	-0.06247018
226	0x3cf29fa7	0.029617144
227	0x3edb0d6f	0.42783687
228	0x3ee17619	0.44035414
229	0x3dde3f9c	0.10851976
230	0xbe565dfe	-0.20934293
231	0x3d390e03	0.04517938
232	0x3f06267e	0.52402484
233	0xbe85a572	-0.26102787
234	0xbe650cc9	-0.22368158
235	0x3e888ea0	0.26671314
236	0x3bd79322	0.006578819
237	0xbe7b6d18	-0.24553335
238	0x3f423fc0	0.75878525
239	0xbd7c3301	-0.06157208
240	0xbe98eb88	-0.29867196
241	0xbe0d2df7	-0.13787065
242	0x3f9d6156	1.229533
243	0x3f3cffe0	0.73827934
244	0x3e5a6a8f	0.21329711
245	0x3e92b0c4	0.28650486
246	0x3e16656f	0.14687131
247	0x3e01f50a	0.12691131
248	0xbda40623	-0.08008983
249	0xbe86f3be	-0.26357836
250	0x3e3deca5	0.18547304
251	0x3d596422	0.05307401
252	0x3d4c52cd	0.049883652
253	0xbf5ef062	-0.87085545
254	0x3f03fc94	0.5155728
255	0x3f83be13	1.0292381

net.4.bias f4 [4]
0	0x3e41d6ef	0.18929647
1	0x3e4c5a34	0.19956285
2	0x3ea08f08	0.31359124
3	0xbe9ef2a1	-0.31044486
