rl_agents/checkpoint_dqn_seed_999_ep_2000.pth (torch, 22133 bytes, 6 tensors)

net.0.weight f4 [64, 3]
000000 78 f8 51 3e 18 06 35 3e 71 4a 06 bf f0 ba 3e 3f
       0.2050494 0.17678106 -0.5245734 0.74503994
000010 db 26 c1 bd cf ca 61 3f cc 3e d1 3e e1 56 69 bf
       -0.09431239 0.88200086 0.40868223 -0.9114819
000020 65 5b b6 be eb 64 07 3f bf 43 9a bf c0 a3 54 bd
       -0.35616603 0.52888364 -1.2051924 -0.051913977
000030 8a a9 de bd ff 9d 31 3f 96 91 53 3f 5c 40 2b bf
       -0.10872181 0.6938171 0.8264402 -0.6689508
000040 4c 34 75 3f 88 cf cb be dc 17 c5 3d 9a 00 52 bf
       0.95782924 -0.3980677 0.096236914 -0.8203217
000050 4d 49 93 bf 81 02 c6 3e 38 bd 26 3f dd 8b 1c 3e
       -1.1506745 0.38673785 0.65132475 0.15287729
000060 9f 50 8d 3f 35 6b 15 3d e8 10 cf 3d 44 d4 56 bf
       1.1040229 0.036479194 0.101106465 -0.8391764
000070 2c 0a 2b bf e1 84 65 3e d5 2f 8a 3c 71 84 46 bf
       -0.66812396 0.2241397 0.016868511 -0.7754584
000080 22 6b 7d 3e 10 4a 23 bd bc bb 82 3e de f2 1e be
       0.24747899 -0.039865553 0.25533855 -0.15522334
000090 25 30 0c bd 41 ae ed 3e b0 d2 a2 be 6e 78 4e ba
       -0.0342256 0.46422008 -0.31801367 -0.0007876222
0000a0 44 37 83 3c fe b3 74 3d b1 ed d4 be f7 93 45 3f
       0.016017564 0.059741966 -0.41587594 0.771789
0000b0 97 48 c2 3e 22 f3 0c be 4e a6 97 3e 79 78 96 be
       0.37946007 -0.13764623 0.29619068 -0.29388788
0000c0 b4 8a b5 be 2e a6 e6 3e 2c ce cd 3d 5e 96 00 3f
       -0.35457385 0.4504866 0.1004909 0.5022944
0000d0 3d 24 56 bf e1 47 b9 be b5 88 9e 3e 03 e4 9c 3e
       -0.83649045 -0.36187652 0.30963674 0.3064271
0000e0 27 64 0d 3f 71 11 72 3e 7b f9 79 bf f7 82 19 be
       0.55230945 0.23639466 -0.976463 -0.14991365
0000f0 d4 2f 2f bf 3f 61 55 bf 12 19 35 bf 85 02 55 3f
       -0.68432355 -0.8335151 -0.7074138 0.8320697
000100 9b 1b 17 be 8f 30 00 bf c9 e9 bc be d8 63 21 3f
       -0.14756624 -0.50074095 -0.36897114 0.63042974
000110 39 9d 28 3c 87 4d eb be f6 63 25 be 71 3c f3 3e
       0.010291391 -0.45957586 -0.16151413 0.4750705
000120 79 50 63 3b 8c 1a 0a 3f d0 7f 01 3f 34 c5 f6 3d
       0.0034685417 0.5394676 0.5058565 0.12049332
000130 ca 62 33 be 90 20 ab be 1f 0c a7 be 97 a3 3c 3f
       -0.17518154 -0.3342328 -0.32626435 0.7368712
000140 c5 88 7c bf bf fa 28 bf f6 0b 8b 3f fc 24 c7 be
       -0.98646194 -0.6600761 1.0863025 -0.38895404
000150 10 d2 a4 be 98 af 04 3f bd 51 24 3e 5c 0f 05 3f
       -0.32191515 0.51830435 0.16046806 0.5197656
000160 6e ae 9b be 31 af 0f bf b7 44 20 3f 88 05 4b be
       -0.30406517 -0.56126696 0.6260485 -0.19826329
000170 67 27 e5 3e ea d1 49 be 3b de 10 bf 7a c0 f7 be
       0.44756624 -0.19708982 -0.56589097 -0.48389035
000180 18 a6 99 3d 15 bb 4f bf d9 d8 a7 bf fd 40 46 bf
       0.07502383 -0.8114484 -1.3113052 -0.77442914
000190 b5 13 f3 3d 6a 5d 34 be fd 2d 10 3f 55 e1 0f 3e
       0.11868993 -0.1761376 0.5632017 0.14050801
0001a0 e9 0a f7 3e 15 6b 36 bf 8a 8c d4 bd ad d8 53 bf
       0.4825051 -0.71257144 -0.10378368 -0.82752496
0001b0 ba e2 ad bf 9f a1 a5 bd e3 d7 64 be 80 b1 09 bc
       -1.3584816 -0.080874674 -0.22347979 -0.008404136
0001c0 1c 1a f6 3e f6 e2 f2 be 7f 2f 28 bf 65 24 2c bf
       0.48066795 -0.47438782 -0.65697473 -0.67243034
0001d0 38 7f 81 3d dc c4 59 3f c2 1d da be 43 02 46 bf
       0.06323093 0.8506601 -0.42600828 -0.773472
0001e0 4f df 2f bf 90 ba 03 be 39 1b 46 3e da e0 5e be
       -0.68700117 -0.12864137 0.19346322 -0.21765462
0001f0 ae 84 ad be 97 72 fe be df e5 6e bf 45 6f 91 3e
       -0.3389029 -0.496968 -0.93319505 0.28405204
000200 03 aa 67 bf fd f3 d4 bd 19 78 3d 3f 6f fe a0 bf
       -0.9049379 -0.103980996 0.7401138 -1.2577647
000210 3f 66 52 3f c3 38 20 3f e4 a9 64 3c 57 2e 86 bf
       0.82187265 0.6258661 0.013956521 -1.0482892
000220 6b 69 24 bf a7 98 35 bf 2f 50 92 3d 69 20 52 bf
       -0.64223355 -0.70936054 0.071442 -0.82080704
000230 02 d0 e2 3e 33 7e 59 3f 93 e6 fa 3e 72 de fe be
       0.44299322 0.8495819 0.4900404 -0.49779087
000240 b4 27 40 3f e2 58 31 bf 88 07 f3 3e 44 b4 38 3f
       0.7506058 -0.6927625 0.47466683 0.72150064
000250 64 86 55 be e6 0c bb 3e e8 5e 95 bd a9 d5 cb 3e
       -0.20852047 0.36533278 -0.072934926 0.39811447
000260 23 8f 5c 3e 3c ab a8 3e 70 e8 2d 3e 70 7a ed be
       0.21538977 0.3294314 0.16983199 -0.46382475
000270 ab e8 57 bf 96 c1 cf be af 14 a9 3e ca 93 87 bf
       -0.843394 -0.40577382 0.33023593 -1.0591977
000280 a4 60 3f 3e 1d 10 5b be e0 06 2a bf d7 ed c8 be
       0.18689209 -0.21392865 -0.6641674 -0.39243957
000290 4d 00 11 bf 03 b9 29 bf 92 77 5a 3f 97 61 f1 3e
       -0.56641084 -0.6629793 0.853387 0.47144768
0002a0 2a 8f c3 be a6 f4 af be ac 0f 24 3f f8 61 8c 3f
       -0.38195163 -0.3436634 0.64086413 1.0967398
0002b0 78 84 be be 4e de 07 3f 86 c1 3c bc a4 38 38 bd
       -0.3721044 0.53073585 -0.011520749 -0.04497589
0002c0 90 4b 70 3d 20 de 17 3e 29 b6 02 be eb 80 cf 3d
       0.058665812 0.14830828 -0.12764801 0.10132011
0002d0 3e c8 32 bf a9 0b 77 3f ab 24 8a be 05 a9 d4 3e
       -0.69836795 0.96502167 -0.269811 0.41535202
0002e0 14 b4 c9 be ee e5 43 be e0 ab 3c 3f 97 4b 32 3f
       -0.393952 -0.1913068 0.7369976 0.6964659
0002f0 1e 17 d7 bc 3a 82 a2 bd b3 fe 9a 3f 43 af 8f be
       -0.02625614 -0.07934995 1.2108978 -0.28063402

net.0.bias f4 [64]
000000 75 7c f5 be 2b bb 8f bf 16 d5 0b 3f 36 e0 13 bf
       -0.47946516 -1.1228994 0.5462202 -0.57763994
000010 fa fc 38 bf 3e 09 43 3f 53 98 33 3e 2c dd db 3d
       -0.7226101 0.7618598 0.17538576 0.107355446
000020 7b bc c5 be 16 e7 87 3e a9 40 03 bf 24 23 ad be
       -0.38620362 0.26543492 -0.5127054 -0.33815873
000030 18 41 71 3f 3a 0f 4e be 8d 27 4d bf 0a 49 2d 3f
       0.9423995 -0.20122996 -0.80138475 0.67689574
000040 81 68 85 3b 6d f7 08 3f 37 0c 6c bf 21 86 9e be
       0.0040712957 0.5350254 -0.9220614 -0.30961707
000050 95 12 1b 3d ff 87 49 3f f4 26 a7 3e 23 50 7a be
       0.037859518 0.7872314 0.32646906 -0.24444632
000060 bf d6 0f bf a1 9f 75 3f 44 34 71 3f 1c 2b 18 3f
       -0.5618705 0.959467 0.94220376 0.5944078
000070 46 59 cc 3c 6e 08 9d 3e eb cc 05 bf 8b 8f b5 3e
       0.024944913 0.30670494 -0.52265805 0.35461077
000080 4b 9a ab 3e fa c9 cb 3d 21 1e 0b bf cf 5e 30 be
       0.33516154 0.09950633 -0.5434285 -0.17223667
000090 e9 e8 8a 3e 30 53 0b bf 9e 77 08 3f f3 51 10 bf
       0.2713082 -0.5442381 0.5330752 -0.56375045
0000a0 a2 a6 8f 3d ef 7f ff 3e 71 6a 1a 3f 6b 65 8b be
       0.070142046 0.49902293 0.60318667 -0.27225813
0000b0 f6 95 10 3f 52 7c c7 3d 60 51 41 bf 49 7f 99 3e
       0.5647882 0.09740509 -0.75514793 0.29979923
0000c0 01 58 5a bf f0 4e 0d bf 30 6d 90 be 85 8f 3a 3f
       -0.85290533 -0.55198574 -0.28208303 0.72875243
0000d0 d3 dc 88 be e2 41 34 3e 02 b1 c2 bd 89 05 1b bf
       -0.26730976 0.17603257 -0.09506418 -0.6055532
0000e0 52 8f ca be e3 2c 4b bf af eb 81 be 0e 80 fe be
       -0.3956247 -0.79365367 -0.25375125 -0.49707073
0000f0 78 68 ed be b1 7c 37 3f 32 40 2a 3f af 07 03 3e
       -0.46368766 0.7167464 0.66504204 0.127959

net.2.weight f4 [64, 64]
000000 e6 92 bf 3d a7 b5 f0 bd 5f 51 85 bd bb 50 a4 be
       0.093541905 -0.117533974 -0.06509661 -0.32092842
000010 fa c2 07 bd 63 fb b6 bd c1 8c 48 3c c2 0c fd bb
       -0.03314493 -0.08934667 0.01224059 -0.007722468
000020 ad ea 11 3e d2 b7 c1 3c 4d 19 59 bd 18 52 c8 bd
       0.14249678 0.023647223 -0.053002644 -0.09781283
000030 69 98 08 3d 1e d5 2f be 6a 10 b1 bc d8 f1 f1 3d
       0.033348475 -0.17171142 -0.021614272 0.11813706
000040 04 26 1e be 6c 9a a0 3d 6e 3d 03 be 79 e4 c2 bd
       -0.1544419 0.07841954 -0.12816402 -0.09516234
000050 3d 6f 23 be b1 c7 c6 3d b6 20 31 be 53 ba 29 be
       -0.15960403 0.09706057 -0.17297634 -0.16574983
000060 46 b7 11 bd 8c ca 86 bd 1c 13 b8 bd 77 0a 69 3b
       -0.035575174 -0.065816015 -0.0898802 0.0035559216
000070 78 38 74 be f5 8c 12 3e c3 fc 08 3d 7c 15 11 bd
       -0.23849666 0.14311583 0.033444177 -0.03542088
000080 c3 47 ec 3d 69 1a a2 be 9f ce 00 3e 59 89 24 be
       0.11537125 -0.31660774 0.1257882 -0.16068019
000090 03 2e 16 be da 4c b7 3d 60 f2 a0 bd 0f fc 83 3d
       -0.1466599 0.08950205 -0.07858729 0.06444561
0000a0 b0 0c a5 3d 81 07 8b bd af 1f dd be b0 84 ec be
       0.080590606 -0.06788541 -0.43188235 -0.46194983
0000b0 98 d5 2d 3d 94 8f f3 3d c7 62 93 3d 5f 69 2b 3e
       0.042440027 0.1189262 0.07196575 0.16739415
0000c0 a1 2d 14 be 9f 5e 8e bd 0f 27 1c 3e b3 7c 95 bd
       -0.14470531 -0.06951641 0.15249275 -0.07299175
0000d0 23 44 84 be 33 ea a4 be d5 d9 8a bd 62 1a 22 be
       -0.25833234 -0.3220993 -0.067798294 -0.15830377
0000e0 d7 6a 63 bd 24 63 98 3d 7e b3 81 3d fd 10 17 bc
       -0.055521812 0.074407846 0.063330635 -0.009220359
0000f0 a3 8b 30 be fe 99 9f 3d b2 b9 df bc 7b 23 61 bd
       -0.17240767 0.077930436 -0.027310226 -0.054965477
000100 34 cb 75 3d 83 88 cf be c0 b1 d0 3e 25 ae ae 3e
       0.060008243 -0.40533838 0.40760612 0.34117237
000110 14 35 59 be 31 45 6e bf df 35 4e 3f 6b d5 79 be
       -0.21211654 -0.9307433 0.8055095 -0.24397819
000120 cd 07 4f 3c 9d 00 f6 be e8 0a 2a bd 10 ba 14 bd
       0.012636137 -0.48047343 -0.041514307 -0.036310256
000130 a2 cd 39 bd f4 36 4b be 9b 52 f0 bb 66 62 31 3d
       -0.045362122 -0.19845182 -0.007334066 0.04330673
000140 b0 70 ba bf b5 18 d3 3e 08 b4 18 bd 66 9d 17 3f
       -1.456564 0.41229787 -0.037281066 0.59224546
000150 79 c0 29 3e 47 3f b5 3d 09 86 99 bf 14 e3 87 bf
       0.16577329 0.0884996 -1.1994029 -1.0616174
000160 bd 09 77 bf 50 8a b7 3c c8 49 e8 be c9 cf 62 bf
       -0.96499234 0.02240482 -0.4536879 -0.88598305
000170 5d d1 ad bf 68 43 67 3e ef 4b 83 bd fc 75 37 3f
       -1.3579518 0.22584307 -0.064109676 0.71664405
000180 6d 92 4d 3f 8b 25 ac be e5 4d e0 be 44 a6 87 bf
       0.80301553 -0.33622393 -0.4380943 -1.0597615
000190 99 b2 cb be 00 f5 bb bd 5f 0e 93 bd 84 29 5a 3e
       -0.39784697 -0.091775894 -0.071804754 0.213049
0001a0 ee bf 25 bf 6c ee 0a 3f 0f db 0d be a3 09 a2 3e
       -0.64745986 0.5427005 -0.13853095 0.31647977
0001b0 e8 f9 42 be bd a8 12 3e 2a 88 69 be f4 3d 53 be
       -0.19040644 0.14322181 -0.22805849 -0.20629102
0001c0 a9 29 64 be 77 22 3b 3b 66 27 28 bf 5c 5b 8f 3e
       -0.22281517 0.0028554478 -0.6568512 0.2799939
0001d0 c7 75 4a bf 94 57 6a be 7f d6 26 3d d1 be c9 bd
       -0.79085964 -0.22884971 0.040731903 -0.098508485
0001e0 5b c4 54 bf 07 83 da bd 82 b2 45 be 6b fa 9a 3d
       -0.83112115 -0.10669523 -0.19306377 0.07567295
0001f0 80 47 9d bc 70 7d 07 3e a6 4f 17 be bf fe 15 bf
       -0.019199133 0.13231444 -0.14776477 -0.58591837
000200 d8 9b 22 bd cf a4 72 3e b8 63 17 3e 51 28 d7 3e
       -0.039699405 0.23695682 0.14784133 0.42022946
000210 97 46 6e 3e 62 43 34 3e 43 65 fc 3e 58 40 da 3d
       0.23269115 0.1760383 0.49296007 0.10656804
000220 22 84 12 bf 10 63 8f bc ad cc 09 3e b0 35 aa 3c
       -0.5723287 -0.017503291 0.13456984 0.020777553
000230 87 23 c8 bc 79 07 a0 3b 7c 5d dc 3d fc 08 01 be
       -0.024431003 0.0048837033 0.10760018 -0.12601084
000240 97 a7 ab bc 18 cf 2c 3e 08 80 9f bd 3e 3b cb 3e
       -0.020953937 0.16875875 -0.07788092 0.39693636
000250 d2 a8 f0 3e 4b 66 7e 3d fa bb ee 3d 90 7e 26 3d
       0.470038 0.062109273 0.116569474 0.040648043
000260 57 57 0a 3e 04 65 b0 3e a2 da 18 3f 59 09 a4 3e
       0.1350988 0.3445207 0.5970861 0.32038382
000270 e1 df ba 3c 03 e9 a8 bd f4 e5 39 3d 3d 9d ff 3e
       0.022811832 -0.082475685 0.045385316 0.4992465
000280 39 6d da 3e 0f f6 d4 be ab 68 87 3e ae 52 fc 3e
       0.42661455 -0.41593978 0.26447043 0.4928183
000290 71 c8 51 bf 26 c5 f9 bd e1 0b 38 3d 9d 6f a4 be
       -0.81946474 -0.12195806 0.044933204 -0.32116404
0002a0 81 e7 a8 3d 85 db 8d be d3 db 09 be c8 65 2c bf
       0.08247281 -0.27706543 -0.13462763 -0.67342806
0002b0 99 92 00 3d 72 52 d3 3e 20 ae 9b 3e d1 3a 69 3e
       0.031389806 0.41273838 0.30406284 0.22776343
0002c0 8f 10 ec bc 49 30 88 3d 87 1e f5 3c c6 84 96 bc
       -0.02881649 0.06649835 0.029921783 -0.018373858
0002d0 a3 59 4a 3e b8 d2 04 bf 82 7b 67 3e 8c 47 de 3d
       0.19760756 -0.5188403 0.22605708 0.1085349
0002e0 d6 d9 7d 3d 8c ef e6 bd 99 2d 63 bd 50 7a 67 bd
       0.061975323 -0.11276159 -0.055463407 -0.05651313
0002f0 c9 39 78 be fc 84 94 3e 39 d4 23 3c 1b e9 f7 3e
       -0.24240793 0.2900771 0.009999328 0.48420033
000300 50 f1 3b bc 41 9c bb 3d 54 5e 50 be f7 d6 65 be
       -0.011471108 0.091606624 -0.20348483 -0.22445284
000310 1c 41 85 3d f8 be f7 bd 0f 59 6b be 69 55 31 be
       0.06506559 -0.12096971 -0.22983192 -0.17317738
000320 84 29 8b bf 4a 69 92 bf 0d db 56 be 40 eb 45 bd
       -1.0872045 -1.1438382 -0.20981999 -0.048320055
000330 0e e6 cc bc 33 1d d8 3c c0 cf 46 3d 5c 77 90 bb
       -0.025012042 0.02638111 0.04853797 -0.00440876
000340 65 c8 52 bc 6d a2 d2 be 8d f7 15 3e 31 44 8e be
       -0.012865161 -0.41139546 0.14645214 -0.277864
000350 4c 0e 96 3c 6d 8e 47 bf 3f 38 a0 bc 57 bc c4 3d
       0.018317364 -0.779517 -0.01955807 0.096062355
000360 ce bb c2 3d 54 b4 49 bf 4b 8e 89 be 11 e2 41 bd
       0.09508477 -0.78790784 -0.26866373 -0.047334734
000370 54 14 04 3d f6 8f f7 be f9 9b 55 bd c9 a2 be bd
       0.03224595 -0.4835202 -0.0521507 -0.093083926
000380 34 87 d5 bd 5a b0 8d bf e2 3c a2 3d 06 6f ea be
       -0.104261786 -1.1069443 0.07921769 -0.4578783
000390 02 46 af bf c8 23 76 bd 9f ae 28 bf b3 cd 0f 3e
       -1.369324 -0.060092717 -0.6589145 0.14043312
0003a0 6b c7 90 3d 89 47 72 3e bc b2 53 3e 5a 3b 77 bf
       0.07069286 0.23660101 0.2067365 -0.9657494
0003b0 66 e9 74 bd 68 33 06 be 51 fb 91 3d 77 d7 3f bf
       -0.0597929 -0.13105547 0.07128013 -0.7493815
0003c0 46 45 69 bf dc ab 56 bf ca 26 e0 bd 54 0a 41 bf
       -0.9112133 -0.83855987 -0.109448984 -0.75406384
0003d0 21 a2 88 be 32 9c 93 bf c1 96 32 3e 2d 5e 0a 3e
       -0.26686195 -1.1532042 0.1744032 0.13512488
0003e0 68 ef 85 bd ec d8 76 bf 62 8d 37 bc d5 17 d8 be
       -0.06539804 -0.96424747 -0.011203142 -0.42205682
0003f0 c5 e4 9b bf 90 48 98 bf c7 6d 71 3d a2 a1 c2 bc
       -1.217919 -1.1897144 0.058942582 -0.023758713

net.2.bias f4 [64]
000000 ae f0 05 be 67 f5 62 bd 74 34 48 3e 64 06 e8 bd
       -0.13080093 -0.055409815 0.1955126 -0.11329344
000010 41 12 fe bd 77 5a ef bc b8 eb fb bd df 4b 34 bd
       -0.124058254 -0.029217942 -0.12300819 -0.04401767
000020 af 01 a3 3d f9 e5 eb 3e 43 37 83 be 65 bd 95 be
       0.079593055 0.46073893 -0.256281 -0.2924606
000030 50 ff f7 bc 77 c6 14 be 70 f8 a8 bd 80 94 bc 3e
       -0.03027311 -0.14528833 -0.08250511 0.36832047
000040 d0 ab 08 3f b7 7e a7 3e e8 87 b6 bd a7 8b f4 3d
       0.53387165 0.32713863 -0.08912641 0.11940699
000050 14 90 11 3f c0 a4 96 3e 01 16 b5 3e 67 1a e2 3e
       0.5686047 0.2942257 0.3536835 0.44160768
000060 34 0b 62 3e bc a6 28 bc fe 17 35 be d9 ca 31 be
       0.22074586 -0.010293659 -0.17684934 -0.17362536
000070 72 40 f1 3d bd 1a 5e be f1 fa 04 be e8 8e a8 3e
       0.1177987 -0.21689887 -0.12986352 0.3292153
000080 02 78 a9 3d 51 e2 8e 3d 01 3f fc bc 57 ec 52 be
       0.08274843 0.0697676 -0.030791761 -0.20597969
000090 10 44 d4 3d 25 43 02 3e da 47 ce 3e c1 b1 d5 3c
       0.103645444 0.12720926 0.40289193 0.026085736
0000a0 eb c6 b1 3e 99 be 7b 3e b1 4e b7 3b 31 e2 b0 3e
       0.34722075 0.24584426 0.0055940975 0.3454757
0000b0 ae f1 e8 bd 8f 91 37 3d 16 62 ce bd ad 8d 7d 3d
       -0.11374222 0.04481655 -0.10077302 0.06190269
0000c0 4c b0 da bd 0a ea d1 3b 5d e0 fb 3e 7b b0 70 3e
       -0.10678157 0.0064060735 0.49194613 0.23504822
0000d0 0c 02 e1 be a4 f6 98 3e fb a2 be 3d 8e 6d c0 3d
       -0.43946874 0.29875672 0.0930843 0.09395896
0000e0 24 5d 25 3f 19 15 ec 3e 93 fa 2c be 40 bb f1 bb
       0.64595246 0.46109846 -0.16892461 -0.0073770583
0000f0 d7 58 0e be 3e 00 c5 bd 5b 71 9b 3e 6a a8 5a be
       -0.13901077 -0.09619187 0.3035992 -0.21353307

net.4.weight f4 [4, 64]
000000 ca ea cb bd 72 18 94 3e d3 1b aa 3e 7e 49 1c bf
       -0.09956892 0.289249 0.33224353 -0.6104964
000010 68 6b 90 be 78 f5 84 bc 80 9a 08 bc 17 bb cb be
       -0.28206944 -0.01623033 -0.008337617 -0.39791176
000020 7c ac 3a bd 57 0f e2 bf 17 3d 52 bf 98 1e 77 be
       -0.04557465 -1.7660931 -0.82124466 -0.24132764
000030 7b d5 10 bc 53 fa 7a bf d0 6d a0 bd 61 f1 08 3f
       -0.00883996 -0.98038214 -0.07833445 0.53493315
000040 8f 7c 46 3e fc 05 cb 3d f2 56 df 3d f2 9e 32 3e
       0.19383453 0.09913251 0.109052554 0.17443445
000050 e4 58 34 3e 31 21 f3 be 2f 76 7d bf a3 40 3c 3f
       0.17612034 -0.4748626 -0.9900846 0.7353613
000060 43 65 8a 3e 60 cb a1 be a7 fd be 3b 58 44 34 3d
       0.27030382 -0.31600475 0.0058285776 0.04401049
000070 89 ca eb 3a b9 5b a8 3e bc 92 aa 3d 13 86 7f 3e
       0.0017989437 0.3288248 0.083287686 0.24953489
000080 47 bd 24 3d 46 b5 22 bd 5f 08 9a 3d b0 b0 92 bf
       0.04021957 -0.039723657 0.07521128 -1.1460171
000090 e5 38 77 be 47 73 ba 3e 37 77 bc 3e 0b e5 91 bd
       -0.24142797 0.36416075 0.36809704 -0.071237646
0000a0 7e d4 f7 be cf c7 45 3f 27 f5 97 3d 63 7f fb 3e
       -0.48404306 0.7725801 0.07419806 0.49120626
0000b0 ef 85 e1 be 30 c6 e3 be 23 47 8a 3e f0 06 91 3d
       -0.44047496 -0.44487143 0.27007398 0.07081401
0000c0 4e fe 08 bf 83 a0 1a 3d 63 a2 dd 3e 22 98 23 3f
       -0.5351304 0.037750732 0.43287954 0.6390401
0000d0 d1 06 1d be eb 9a c4 3e 10 44 c5 3e 00 fe f9 be
       -0.15334632 0.38399443 0.3852849 -0.488266
0000e0 33 10 ec 3e a2 a9 ca 3d 69 5a 0c bf a8 85 ed 3c
       0.4610611 0.09895636 -0.54825455 0.028994396
0000f0 76 77 2c bd e0 ad 1d 3f 58 5d f0 3e 4a e2 a5 3e
       -0.042106114 0.6159344 0.46946216 0.32399207
000100 7d 26 57 3c 07 cc 0b 3f f4 2f 3d 3e 32 39 6f 3e
       0.013131735 0.54608196 0.18475324 0.23361662
000110 05 7a aa 3e 93 57 ba be ec 78 17 3d c2 3c 86 bf
       0.3329622 -0.3639494 0.036980554 -1.0487292
000120 08 44 a1 bc 24 a7 e0 be c9 b1 dc bb 1a 73 1d 3f
       -0.01968576 -0.43877518 -0.006735061 0.61503756
000130 4c 9c df bd 87 ee 15 be 64 97 7b 3d f1 20 58 be
       -0.10918483 -0.14641772 0.061423674 -0.21106316
000140 30 bc 82 3e 3c e0 64 bd a5 34 e0 bd b3 3b b9 3e
       0.255342 -0.05587791 -0.10947541 0.3617836
000150 c4 fb 85 3d 41 8f 8a be ac f0 df be d1 2b 3c 3f
       0.06542161 -0.2706242 -0.43738306 0.7350436
000160 59 f3 97 be 74 be a2 3e 2b de a2 bd 9e ef 1f 3f
       -0.29677847 0.3178593 -0.079525314 0.62475
000170 98 ab ba 3f 2c b2 3e bd 3c a9 ac 3c 71 1b 86 3e
       1.4583616 -0.046556637 0.021076791 0.2619281
000180 77 f9 13 bd 11 ac 93 bd 1d 6d 40 3d b6 1b 1d 3e
       -0.03612658 -0.072105534 0.04697906 0.15342602
000190 59 ae db be 07 6a 3e bf 8e d0 e2 3e 28 97 75 bc
       -0.42906454 -0.74380535 0.4429974 -0.014989652
0001a0 74 83 ab 3e 16 26 27 3e 31 13 c1 3e d5 25 b0 bd
       0.33498728 0.16323122 0.37709954 -0.08600966
0001b0 d8 11 d0 bd 73 0b 04 bf 75 23 a0 3e d0 68 c4 3d
       -0.101596534 -0.5157997 0.31277052 0.09590304
0001c0 4f 50 ad 3d 9e 6d 11 3f b4 3e 1b 3f 5f 72 d4 3e
       0.08462583 0.5680789 0.6064255 0.41493508
0001d0 de 67 c9 3e 2c 50 da 3e eb ed 30 bf b8 95 9b 3d
       0.39337057 0.4263929 -0.69113034 0.07596916
0001e0 62 93 b1 3e 82 08 85 3e fe 73 09 3f 51 80 1c bd
       0.34682757 0.25983053 0.53692615 -0.03820831
0001f0 cc 5e b0 bc e0 da 02 3f 92 ea 0b 3f ac 38 65 bd
       -0.021529578 0.51115227 0.546548 -0.05596225
000200 5f 43 bb 3e f7 79 cc 3e 97 db 04 bc e9 1b 46 3f
       0.36574838 0.39936802 -0.008108995 0.7738634
000210 06 be 84 3e ce 41 f3 3d 23 f4 5b 3b 70 05 14 be
       0.25926226 0.118777856 0.0033562265 -0.14455199
000220 47 22 50 bd a7 38 b1 3e b2 29 82 3e 1d 79 0e 3e
       -0.05081394 0.34613535 0.25422436 0.13913389
000230 85 00 a6 bd 14 b9 51 3e 30 7a d2 3d 03 da c3 3e
       -0.08105568 0.20480758 0.10277212 0.38252267
000240 9f 2c 1d 3f 9f 32 ea 3e a4 27 c9 ba 11 1a 28 be
       0.6139621 0.45741746 -0.0015346897 -0.16416194
000250 32 65 34 3f 7c 86 fa 3e 4d 56 f3 3e 40 ae 3c 3f
       0.7046691 0.48930728 0.4752678 0.73703384
000260 a2 c2 2b bd 94 e3 11 be 82 f9 5d bd bb 60 8f 3b
       -0.041933663 -0.1424697 -0.054193027 0.004375545
000270 10 4a 4a bf 35 84 9a 3d e1 5b 33 bc 7b 61 9b 3e
       -0.7901926 0.07544748 -0.010947199 0.3034781
000280 33 7d c6 bd ce e6 81 bc 7d be 90 3d 54 a9 d4 be
       -0.096918486 -0.015857127 0.07067583 -0.41535437
000290 51 f4 0c 3f ad b1 f3 3d 76 87 32 3d 14 d6 2b 3d
       0.550603 0.11899123 0.043586217 0.041952208
0002a0 c0 74 89 3e 25 50 f8 3c d8 75 ab 3e 92 aa 0f be
       0.26846886 0.030311653 0.33488345 -0.14029911
0002b0 57 72 5c bc 40 65 fd be a9 c4 4a be 70 6e 34 3d
       -0.013454995 -0.4949131 -0.19801582 0.044050634
0002c0 d2 bf a1 be 94 92 07 3e d5 5c 34 3f 00 1c ca 3e
       -0.3159166 0.13239509 0.7045415 0.39474487
0002d0 32 34 4b 3f e7 20 28 be fd 78 8a 3d 60 f9 01 3e
       0.7937652 -0.16418801 0.06761358 0.12692785
0002e0 e0 34 05 3f a2 7b 7d 3e b0 ff b5 be e1 a7 81 bd
       0.52033806 0.24754193 -0.35546637 -0.063308485
0002f0 bf fd ac bd 68 e3 57 bf 2b fb a0 be 24 4a 80 3f
       -0.08446836 -0.8433137 -0.31441626 1.0022626
000300 64 c3 0d bc 74 1b ea be a6 04 bd 3c c5 a2 e9 3d
       -0.008652542 -0.4572407 0.023073506 0.11407999
000310 cf 76 da be d7 88 cb 3e db 9b bb 3d 87 bb 01 3e
       -0.4266877 0.39752838 0.091605864 0.12669192
000320 1d 62 2f bd c3 f8 c5 be 1d 57 1e 3f 5b 33 6f 3c
       -0.042818177 -0.38666353 0.61851674 0.014599646
000330 9e f1 d3 bd c4 f1 43 3e dc 57 db bd 13 8c 79 3e
       -0.10348819 0.19135195 -0.10710117 0.2436984
000340 2c 13 a3 3e 27 0f 99 3e 3b fc b4 bb 1e 2a f3 bb
       0.31850564 0.29894373 -0.0055232323 -0.0074207922
000350 e6 e2 f7 bd e7 f6 41 3f fc de 15 3f de 05 1e be
       -0.12103824 0.7576737 0.5854337 -0.15431926
000360 a9 9a 15 3e ed 08 11 3f 89 0d 6b 3d d2 a6 59 3f
       0.1460978 0.56654245 0.057385955 0.8502017
000370 99 0c 1f 3e 2b 36 f7 bd 7f 63 57 bd 2e 80 69 3f
       0.1553215 -0.120708786 -0.05258512 0.9121121
000380 46 e1 9a bd a4 e0 7f bd a7 9f f2 3c 39 ea 73 3f
       -0.07562499 -0.062470093 0.029617144 0.9527927
000390 39 d1 e8 3e 17 b9 c3 bc 38 83 d4 bd 03 0e 39 3d
       0.45472124 -0.023891969 -0.103765905 0.04517938
0003a0 92 a0 d8 3e e8 fb 81 3d b3 03 89 3e ba da 78 3f
       0.42310005 0.063468754 0.26760635 0.9720875
0003b0 f8 f0 37 3d fe ac 0a be 4c ee 76 3f 01 33 7c bd
       0.04490754 -0.13542554 0.9645736 -0.06157208
0003c0 81 18 9c be 23 c0 66 be 2d 8f e1 3f 60 a5 1c 3f
       -0.30487445 -0.22534232 1.7621819 0.6118984
0003d0 a0 b5 56 3e 8d 97 41 3e 2c b1 c0 3e 8d e2 22 3e
       0.20967722 0.18905468 0.3763517 0.15906735
0003e0 35 b9 08 3e e7 f5 52 be 1e ab 30 3e 34 9b 1f 3d
       0.13351901 -0.20601617 0.17252776 0.038966373
0003f0 cd 52 4c 3d ff bc 56 bf 5b 11 01 3f 11 1c 85 3f
       0.049883652 -0.83882135 0.5041711 1.039919

net.4.bias f4 [4]
000000 75 61 f1 3e 7e 97 d5 3e 3e 09 0a 3f 77 59 3d be
       0.47144666 0.41717142 0.5392035 -0.1849116
