rl_agents/checkpoint_dqn_seed_42_ep_2000.pth (torch, 22121 bytes, 6 tensors)

net.0.weight f4 [64, 3]
0	0x3f37d169	0.7180391
1	0x3f53b2be	0.82694614
2	0xbf020d08	-0.50801134
3	0x3f3cb354	0.73711133
4	0xbdae835f	-0.08521151
5	0x3e002950	0.1251576
6	0xbeafddd5	-0.34348932
7	0x3f058ea6	0.5217079
8	0x3f403a4f	0.7508897
9	0xbf3eaa2f	-0.7447843
10	0x3f651b9f	0.8949527
11	0x3ec86cfc	0.39145648
12	0x3f3e739e	0.7439517
13	0x3d048ac0	0.032358885
14	0x3f05193c	0.5199163
15	0xbee3b819	-0.44476393
16	0x3ef89c44	0.4855672
17	0x3e90561d	0.281907
18	0xbd51a468	-0.05118218
19	0x3f2eaf25	0.68236
20	0xbfa543a1	-1.2911264
21	0x3cea678f	0.028613834
22	0x3e1121a6	0.14172992
23	0x3e980c37	0.2969682
24	0xbf12018e	-0.5703362
25	0xbf07e77b	-0.53087586
26	0xbf054e86	-0.5207294
27	0xbf2e47de	-0.6807841
28	0x3d2cda2f	0.042200264
29	0xbf74a3f6	-0.95562685
30	0x3f010065	0.50391227
31	0xbf66ca2b	-0.90152234
32	0x3e83ed45	0.2576696
33	0x3c82ef19	0.015983151
34	0x3afa3dc3	0.0019091893
35	0xbce4c9aa	-0.027928192
36	0xbdb60fbd	-0.088897206
37	0x3fa6e255	1.3037821
38	0xbd49c0a9	-0.049256
39	0xbe3a7362	-0.18208078
40	0x3e1ed8fc	0.1551246
41	0xbe2052b6	-0.15656552
42	0x3ea489a4	0.3213626
43	0x3f4ce4a1	0.8003636
44	0x3f0a7cbc	0.5409658
45	0xbf531d14	-0.82466245
46	0x3e5384f3	0.20656185
47	0xbc1e96fd	-0.009679553
48	0x3d5633fc	0.05229567
49	0xbf8573f2	-1.0426009
50	0xbedf9348	-0.43667054
51	0xbf07aea8	-0.5300088
52	0xbee7e49a	-0.45291597
53	0x3dff04d3	0.12452092
54	0x3e41178c	0.18856639
55	0x3e1190c0	0.14215374
56	0xbe552b9c	-0.20817417
57	0x3db10a8b	0.08644589
58	0x3fc2b21f	1.5210608
59	0xc00b90f5	-2.1807225
60	0x3e3baeb3	0.18328361
61	0xbf2f47e2	-0.6846906
62	0x3ed0c827	0.40777704
63	0xbf0f457e	-0.5596541
64	0x3f445c76	0.76703584
65	0xbf040be3	-0.5158064
66	0x3f9d5c36	1.2293766
67	0xbefeda67	-0.49776003
68	0xbd4d3b4b	-0.050105374
69	0xbf65c4e6	-0.8975357
70	0x3f4bd6d4	0.79624677
71	0x3d007b2a	0.03136746
72	0x3fc29ee7	1.5204743
73	0xbf529649	-0.82260567
74	0xbf2bd7b1	-0.67125994
75	0xbf7ff658	-0.99985266
76	0xbf15c1b6	-0.58498704
77	0x3e35cfd1	0.17755057
78	0x3dcefab4	0.101064116
79	0x3f9355cd	1.1510559
80	0xbf314035	-0.692386
81	0xbf27945f	-0.6546077
82	0x3ed9b97f	0.42524335
83	0xbf87ca9e	-1.0608709
84	0x3f2649d4	0.649564
85	0xbd48cc30	-0.049022853
86	0x3f34f3d5	0.7068456
87	0xbef0e91e	-0.47052854
88	0xbeca8a63	-0.39558706
89	0xbd91edec	-0.07125458
90	0x3f246d18	0.64228964
91	0xbca41b08	-0.02003242
92	0x3f2fcced	0.68672067
93	0x3f893db9	1.0721961
94	0xbf08c1fc	-0.53420997
95	0xbee00b42	-0.4375859
96	0x3f9b72e5	1.2144438
97	0x3db6db7c	0.08928582
98	0xbf30b639	-0.6902805
99	0xbf2a7073	-0.66577834
100	0xbeeb4d07	-0.45957205
101	0xbd7cbe1d	-0.061704744
102	0xbcca5cbf	-0.024702428
103	0xbe100850	-0.14065671
104	0xbe2a9eba	-0.16662112
105	0xbf26d648	-0.6517072
106	0xbf3b9ac4	-0.7328303
107	0xbe3f7e44	-0.1870051
108	0xbef9ebb8	-0.48812652
109	0xbecb1949	-0.3966773
110	0x3f79d9f2	0.97598183
111	0x3ddf5408	0.109046996
112	0x3e362fa4	0.17791611
113	0xbf09da30	-0.5384855
114	0xbfb42938	-1.4075079
115	0xbeb3fe16	-0.3515479
116	0x3f0aa596	0.54158914
117	0xbed56b5e	-0.41683477
118	0xbeca8442	-0.3955403
119	0xbf422b5f	-0.7584743
120	0x3ea2ea07	0.31819174
121	0xbda5e5bf	-0.08100461
122	0xbebc47dd	-0.36773577
123	0xbe81ce1d	-0.25352564
124	0xbe97563e	-0.29557985
125	0xbefd195a	-0.49433404
126	0xbde9b893	-0.11412158
127	0xbecf74a3	-0.40518674
128	0x3e74098e	0.2383177
129	0xbf26fab7	-0.6522631
130	0x3f1f0926	0.62123334
131	0x3d3299f4	0.043603852
132	0xbf65894d	-0.8966263
133	0x3e7e6050	0.24841428
134	0xbea6ccd3	-0.32578143
135	0xbde35952	-0.11101021
136	0xbf9e2230	-1.2354183
137	0xbfcfc18b	-1.623094
138	0x3f06df9e	0.5268496
139	0xbe27e8df	-0.16397427
140	0x3f09ff05	0.53904754
141	0xbf43b4b5	-0.7644761
142	0x3f89d3d8	1.0767775
143	0xbf376bf8	-0.7164912
144	0xbdce5b10	-0.100759625
145	0x3adc76d0	0.0016820077
146	0xbe599bdd	-0.21250863
147	0x3fa2d532	1.2721312
148	0x3f23cd9d	0.63985616
149	0xbeb23011	-0.34802297
150	0x3f6cb172	0.9245826
151	0xbdb8477e	-0.08998011
152	0x3d9f53ee	0.0777968
153	0xbe5b5c81	-0.21422006
154	0x3f894a61	1.0725824
155	0xbf751790	-0.9573908
156	0x3ece6944	0.40314686
157	0x3d8df647	0.06931739
158	0x3e8ac2b5	0.27101675
159	0xbee24d35	-0.4419953
160	0x3e9dbeee	0.3080973
161	0x3e3446e8	0.17605174
162	0x3da6a585	0.08137039
163	0xbf8b2239	-1.0869819
164	0x3ebbb53b	0.36661705
165	0xbe3adbe1	-0.1824794
166	0xbf059d02	-0.521927
167	0x3eb519d7	0.35371277
168	0x3efd989b	0.4953049
169	0xbf45d6df	-0.7728099
170	0xbf23f6d8	-0.6404853
171	0xbd82709d	-0.063691355
172	0x3f0da4d9	0.5532966
173	0xbe41603b	-0.18884365
174	0xbe5cf49d	-0.21577688
175	0xbf37200b	-0.7153327
176	0xbfba0887	-1.4533852
177	0x3f6a4f94	0.91527677
178	0x3f896f83	1.0737156
179	0xbe984492	-0.29739815
180	0x3e4a4815	0.1975406
181	0x3f554ec4	0.8332331
182	0x3ea43953	0.32074985
183	0x3d96a025	0.07354764
184	0x3f1a2139	0.60206944
185	0x3f2fea93	0.68717307
186	0x3eeffe3e	0.4687366
187	0xbed4024b	-0.41408
188	0xbe85d20c	-0.26136816
189	0x3d7cfdc0	0.061765432
190	0xbdd0e0d0	-0.101991296
191	0xbe302e22	-0.17205098

net.0.bias f4 [64]
0	0x3f61773d	0.8807257
1	0x3e82e54d	0.25565568
2	0xbf1bae65	-0.6081298
3	0xbd3fd3f8	-0.04683301
4	0xbeb9a0e2	-0.36255556
5	0x3e1f5349	0.15559115
6	0x3eece0ba	0.46265203
7	0xbf00afed	-0.5026844
8	0xbf1799f2	-0.59219277
9	0xbd2ff5a1	-0.04295886
10	0xbb8fda73	-0.004390055
11	0xbc9a15d9	-0.018809246
12	0xbd8a0009	-0.06738288
13	0xbeb23890	-0.3480878
14	0xbf34530a	-0.7043921
15	0xbf2b19e4	-0.6683638
16	0x3d3565b1	0.044286434
17	0xbe42b1c5	-0.19013126
18	0x3e37a0f1	0.17932488
19	0x3f0d92e9	0.5530229
20	0xbf37b55e	-0.7176112
21	0xbeae907c	-0.34094608
22	0x3eaf3258	0.34218097
23	0x3f28d1c4	0.65945077
24	0x3ec7801c	0.38964927
25	0xbca4fe34	-0.020140745
26	0x3eac19df	0.33613488
27	0xbd8b1e36	-0.06792872
28	0xbf602804	-0.8756106
29	0x3e8cf3d6	0.27529782
30	0xbf524398	-0.8213439
31	0x3e8781a9	0.2646611
32	0x3e37d1d7	0.17951141
33	0x3eb620f3	0.35572013
34	0x3f1a879c	0.60363173
35	0x3ee85b15	0.4538199
36	0xbf21d7f7	-0.6322016
37	0xbf11df12	-0.56981003
38	0xbf1b06c8	-0.6055722
39	0x3fa0a154	1.2549233
40	0x3f4e906a	0.8068911
41	0x3f4e9423	0.8069479
42	0xbe984450	-0.29739618
43	0x3ee057c5	0.43816963
44	0x3e080219	0.1328205
45	0x3e55279c	0.20815891
46	0xbf396cd9	-0.72431713
47	0xbef9d222	-0.4879313
48	0xbdd787c7	-0.10523944
49	0xbe686af1	-0.22697045
50	0xbebc7dd2	-0.36814743
51	0x3d3952c6	0.045244955
52	0xbe4931ee	-0.19647953
53	0xbf94c3bc	-1.1622233
54	0xbf0ccdfa	-0.55001795
55	0xbed3dde4	-0.41380227
56	0x3d29a68f	0.04141861
57	0x3f1fd2de	0.6243113
58	0x3ef8c451	0.48587278
59	0x3ed6a09f	0.4191942
60	0xbeea31dd	-0.45741168
61	0xbf7e719f	-0.9939212
62	0x3efef6c9	0.49797657
63	0xbf0cb4e0	-0.54963493

net.2.weight f4 [64, 64]
0	0xbb2e88f9	-0.0026631935
1	0xbd0f404e	-0.034973435
2	0x3e2e6359	0.17030086
3	0x3d1e3461	0.03862417
4	0x3e7f1044	0.24908549
5	0x3d1641c3	0.03668381
6	0x3f649b98	0.8929992
7	0xbc35e718	-0.01110246
8	0xbe591ced	-0.2120244
9	0xbed6933a	-0.419092
10	0xbd5c1ec7	-0.05374029
11	0xbd17107d	-0.03688096
12	0xbe734a1c	-0.23758739
13	0xbdd5c18c	-0.10437307
14	0x3eb4e561	0.35331252
15	0xbf44368d	-0.7664574
16	0xbd651f1f	-0.055937883
17	0xbf02dbbc	-0.5111654
18	0x3d164b21	0.036692742
19	0x3e93a27b	0.288349
20	0xbdc8f628	-0.098125756
21	0xbf609ab4	-0.8773606
22	0xbdb4a224	-0.08819988
23	0xbeee2a13	-0.46516475
24	0xbf06ebce	-0.5270356
25	0xc005d72f	-2.0912588
26	0xbe822ae9	-0.25423363
27	0x3efd0a17	0.4942176
28	0x3e926eab	0.28600058
29	0xbf1feb58	-0.6246848
30	0x3e4a2f19	0.19744529
31	0xbef66a5a	-0.48128015
32	0x3ede2dcf	0.43394324
33	0xbf5bd709	-0.8587499
34	0xbf195b09	-0.59904534
35	0xbe474ee3	-0.19463687
36	0xbe114c96	-0.14189371
37	0xbdf91ffe	-0.12164305
38	0xbf803259	-1.0015365
39	0x3c06396f	0.008192404
40	0xbf17c284	-0.5928118
41	0x3de4e0b5	0.11175672
42	0xbf267ebb	-0.65037125
43	0xbe738ab3	-0.23783378
44	0xbf17c52d	-0.5928524
45	0xbf87717f	-1.0581511
46	0x3dec554e	0.11539708
47	0xbf72b0dc	-0.94801116
48	0xbec4f41c	-0.3846749
49	0x3f16f98b	0.5897452
50	0x3cd7e64e	0.026354935
51	0x3f93e9d0	1.1555729
52	0x3dc5f578	0.0966596
53	0xbfba54e1	-1.4557153
54	0xbe0e5df8	-0.13903034
55	0xbdb7e53b	-0.08979269
56	0xbedd672b	-0.43242773
57	0xbe9a4204	-0.3012849
58	0xbf556e2b	-0.8337123
59	0x3dff9792	0.124800816
60	0x3ecb6286	0.39723605
61	0x3ef1b346	0.47207087
62	0xbec49ccc	-0.38400877
63	0x3cd48928	0.025944307
64	0xbdb1edd2	-0.08687939
65	0xbd6b9051	-0.057510678
66	0x3d9728ce	0.0738083
67	0x3d399694	0.045309618
68	0xbda1fe76	-0.07909863
69	0xbdf3af32	-0.1189865
70	0xbdd56164	-0.104189664
71	0xbe11861b	-0.14211313
72	0xbdc58a22	-0.09645487
73	0xbd4b6a08	-0.049661666
74	0x3d577277	0.052599397
75	0x3b10e21a	0.0022107423
76	0xbdc2b70a	-0.09507568
77	0xbdcd5e8c	-0.10027799
78	0x3d7eb514	0.06218441
79	0xbdbe6c62	-0.09298016
80	0xbd41233d	-0.047152746
81	0x3c1abdbc	0.00944465
82	0xbdd80f3d	-0.105497815
83	0xbd04aa61	-0.03238905
84	0xbc324460	-0.01088056
85	0xbcf242e8	-0.029572919
86	0xbdc2d7e4	-0.09513834
87	0xbe05549a	-0.13020554
88	0xbe07fe79	-0.13280667
89	0xbdf08c8d	-0.11745558
90	0x3dd0f547	0.10203033
91	0xbda20df2	-0.07912816
92	0xbdabe942	-0.083941
93	0xbca5c46d	-0.020235265
94	0x3d0d1ccc	0.03445129
95	0x3d167396	0.036731325
96	0x3d819ddc	0.063289374
97	0x3c9c3d57	0.019072218
98	0xbe32a7cc	-0.17446822
99	0xbd21963b	-0.03944991
100	0x3d694b9c	0.056956872
101	0xbc3d4990	-0.011553183
102	0xbd96db00	-0.0736599
103	0x3d8c8dbc	0.06862971
104	0xbdc73660	-0.09727168
105	0xbdf94036	-0.121704504
106	0xbe069e5a	-0.13146344
107	0xbc5803db	-0.013184513
108	0x3d15fd50	0.03661853
109	0xbcb8ccd4	-0.022558607
110	0x3cca7ee8	0.024718717
111	0xbde786a8	-0.113049805
112	0xbe0ac065	-0.13549955
113	0x3b104180	0.0022011697
114	0x3de96df6	0.113979265
115	0x3d5aadc4	0.053388372
116	0xbd950d4e	-0.07277928
117	0xbc84ec88	-0.016226068
118	0xbdfdc0e6	-0.12390308
119	0xbda1eb1e	-0.07906173
120	0xbc157c35	-0.009123852
121	0x3d49ea47	0.04929569
122	0x3d59346a	0.0530285
123	0xbdeb0900	-0.11476326
124	0x3dab2a5e	0.0835769
125	0xbdb48e06	-0.08816151
126	0x3c768db6	0.015048435
127	0x3dd8a388	0.10578066
128	0xbd89b365	-0.0672367
129	0x3e233c2b	0.15940921
130	0xbd91b340	-0.07114267
131	0x3f2af394	0.6677792
132	0x3e802f1a	0.25035936
133	0x3e7f39c9	0.24924387
134	0xbf16279e	-0.586542
135	0x3abbacf3	0.0014318511
136	0xbe5f93b6	-0.21833691
137	0xbd68880f	-0.05677038
138	0x3d05882c	0.032600567
139	0x3b9c65c8	0.0047728755
140	0x3c957e6a	0.018248755
141	0x3c5d8350	0.013520077
142	0x3f134af9	0.57536274
143	0xbf8d5d16	-1.1044033
144	0xbe65f6c8	-0.22457421
145	0xbd61e353	-0.055148434
146	0x3ba06472	0.0048947865
147	0xbf0f7051	-0.56030756
148	0x3e48d68f	0.19613098
149	0xbe28bd36	-0.16478428
150	0xbdb5fb79	-0.08885855
151	0xbd3b4fc6	-0.045730375
152	0xbe5da7e3	-0.21646075
153	0xbf025e99	-0.50925595
154	0xbef631f4	-0.48084986
155	0xbed59f78	-0.41723228
156	0x3eae5eb3	0.34056625
157	0xbe3b3a34	-0.18283921
158	0x3e79e4bc	0.24403661
159	0xbca1aa31	-0.019734474
160	0x3f106474	0.5640328
161	0xbe982bfc	-0.29721057
162	0xbeb1a3e5	-0.34695354
163	0xbe5c2507	-0.214985
164	0x3e02061e	0.12697646
165	0xbd3b44fc	-0.045720086
166	0xc021e39c	-2.5295172
167	0x3f50b4da	0.8152596
168	0xbe88d5a7	-0.26725504
169	0x3ead2904	0.33820355
170	0x3e0760ee	0.1322057
171	0x3e0e9574	0.139242
172	0xbf97457e	-1.1818082
173	0xbf31706c	-0.6931217
174	0x3e872ea6	0.26402777
175	0xbdc85ac6	-0.09782939
176	0xbdfc05c9	-0.12305791
177	0x3e52ad4f	0.20573924
178	0x3da2b9ae	0.07945572
179	0xbef950be	-0.48694414
180	0x3d1b3450	0.037891686
181	0x3d436eab	0.047712963
182	0x3e899f61	0.2687941
183	0x3e6c6301	0.23084642
184	0x3ebfd19b	0.37464604
185	0x3d91967d	0.071087815
186	0xbf2b3bc2	-0.6688806
187	0xbe1bf850	-0.15231442
188	0x3f32651e	0.6968554
189	0x3efb47e9	0.490783
190	0xbed9a124	-0.42505753
191	0x3dcd63aa	0.10028775
192	0x3cac6c32	0.021047685
193	0xbe0ffd61	-0.140615
194	0xbd298ccc	-0.04139404
195	0xbe1eb78b	-0.15499704
196	0xbe170c3f	-0.14750765
197	0xbbf8a835	-0.007588411
198	0x3ac7a356	0.0015231173
199	0x3c5608af	0.013063594
200	0xbd0b592c	-0.034020588
201	0x3dab31e5	0.08359126
202	0xbcdf9b14	-0.027295627
203	0xbdf37e86	-0.11889367
204	0xbd1ef520	-0.03880799
205	0x3cf5e8a0	0.03001815
206	0x3d334c74	0.043774083
207	0xbdf5ff5a	-0.12011595
208	0x3aea6e22	0.0017885605
209	0xbddf224b	-0.10895213
210	0xbe390f08	-0.1807214
211	0xbe059377	-0.13044535
212	0x3db5dea4	0.08880356
213	0x3d99dc04	0.07512668
214	0x3d88d393	0.066809796
215	0x3d2a93f4	0.041645005
216	0x3d49b289	0.04924253
217	0xbd467e5e	-0.048460357
218	0xbdcdd800	-0.10050964
219	0x3cfbb4a9	0.030725794
220	0xbddff057	-0.10934513
221	0xbe251577	-0.1612147
222	0xbd57dd8c	-0.052701518
223	0xbc9adabe	-0.018903133
224	0x3c9fac49	0.019491332
225	0xbe007b02	-0.12546924
226	0xbe1a14ab	-0.15046947
227	0xbd75d9b0	-0.060022056
228	0xbd96e518	-0.07367915
229	0xbda6abf6	-0.08138268
230	0x3d8570c4	0.06515649
231	0xbdc88714	-0.09791389
232	0x3d8d65d0	0.06904185
233	0x3d3719ff	0.044702526
234	0x3cc4aa7b	0.024007073
235	0x3c38f2ef	0.011288389
236	0xbb410ed4	-0.00294583
237	0xbcf42826	-0.0298043
238	0xbd2749e5	-0.040841956
239	0xbcf5ddab	-0.030012926
240	0x3adf344a	0.0017029133
241	0x3dad0479	0.08448119
242	0xbd9eddc1	-0.0775714
243	0xbdad336e	-0.08457075
244	0xbd992ecd	-0.0747963
245	0xbdbcaa38	-0.09212154
246	0xbcc352a6	-0.02384312
247	0x3d4646f0	0.048407495
248	0x3d575378	0.052569836
249	0x3cd2339e	0.025659379
250	0xbdfd7183	-0.12375166
251	0xbe05b246	-0.13056287
252	0xbce0fc08	-0.027463928
253	0xbd605757	-0.054770794
254	0xbd0d3ab8	-0.034479827
255	0xbdeb002e	-0.11474644

net.2.bias f4 [64]
0	0xbe908296	-0.2822463
1	0x3bf4548c	0.007456368
2	0xbdf63c36	-0.12023203
3	0xbe2b96f5	-0.16756804
4	0x3e512d26	0.20427379
5	0x3b859219	0.004076254
6	0x3e002b13	0.12516432
7	0xbcd4a3e0	-0.025957048
8	0xbe02e9c5	-0.12784488
9	0x3e95d771	0.2926593
10	0xbd0e0b8c	-0.03467898
11	0x3e765096	0.24054179
12	0x3de65423	0.112465166
13	0xbdbb39f9	-0.09141917
14	0x3d3790fc	0.044816002
15	0x3b387503	0.0028145916
16	0x3dc6cbbd	0.09706829
17	0xbdb86fd6	-0.09005706
18	0xbdea8dcb	-0.11452826
19	0x3d6dc5f1	0.0580501
20	0x3e869e90	0.2629285
21	0xbd8f7c0f	-0.07006084
22	0xbdc5164f	-0.09623396
23	0x3ed93a34	0.42427218
24	0xbf04a01f	-0.51806825
25	0xbe196645	-0.14980419
26	0xbe182aaf	-0.14860032
27	0xbdca4664	-0.09876707
28	0x3ef64d67	0.48105928
29	0x3e69ef67	0.22845231
30	0x3cc9d1a8	0.024636105
31	0x3e29d0d9	0.16583575
32	0xbe30f826	-0.17282161
33	0xbe063597	-0.1310638
34	0xbeb28161	-0.34864333
35	0x3dae524d	0.085117914
36	0xbcec2130	-0.028824419
37	0x3d7108fb	0.058846455
38	0xbe2dd0af	-0.16974138
39	0xbe00e839	-0.12588586
40	0x3ed6fbc1	0.41988948
41	0x3c33bb2b	0.010969917
42	0xbdc0267d	-0.09382341
43	0x3c1873ac	0.009304922
44	0x3e1eea4a	0.15519062
45	0x3da28c71	0.07936943
46	0x3eca98ce	0.39569706
47	0x3e113716	0.1418117
48	0xbe28f1ba	-0.16498461
49	0x3f1bf26b	0.60916775
50	0x3d2bc9f5	0.041940648
51	0x3f0e77d3	0.5565159
52	0x3e20077a	0.15627852
53	0x3e9d5d2c	0.30735147
54	0x3eca2be1	0.39486602
55	0x3e45ada8	0.19304526
56	0x3ee22ffe	0.4417724
57	0xbde6ae6b	-0.11263736
58	0xbe17a333	-0.1480835
59	0x3eb516f0	0.35369062
60	0xbc343589	-0.010999092
61	0xbc6bdbc9	-0.014395663
62	0xbc58a835	-0.013223697
63	0x3da79d30	0.08184278

net.4.weight f4 [4, 64]
0	0x3ed24902	0.41071326
1	0xbdb59d48	-0.0886789
2	0xbebfb662	-0.37443835
3	0xbc3cf74e	-0.011533571
4	0xbf09c482	-0.5381547
5	0xbdb5dfa6	-0.08880548
6	0xbe67bddd	-0.22631021
7	0x3d7093a2	0.058734544
8	0x3cbf2fdb	0.023338249
9	0x3f178535	0.5918763
10	0xbba85740	-0.005137354
11	0x3ef9de3b	0.4880236
12	0x3e9721f8	0.29518104
13	0xbf14dd8e	-0.58150566
14	0x3e8fada8	0.28062177
15	0x3eafc526	0.343301
16	0x3f10ebab	0.566096
17	0xbc814102	-0.015778068
18	0xbddc740a	-0.1076432
19	0x3f12f209	0.57400566
20	0x3f20034b	0.62505025
21	0xbf119e5f	-0.5688228
22	0x3d9c8aeb	0.07643684
23	0xbeaab86d	-0.3334383
24	0xbf1b3e14	-0.606416
25	0x3d892cb0	0.066979766
26	0xbc4b5068	-0.012409307
27	0xba9aae80	-0.0011801273
28	0x3eb24570	0.34818602
29	0x3ef0eac8	0.47054124
30	0x3ec24f4e	0.3795113
31	0x3ed2beb3	0.41161117
32	0xbe629972	-0.22128847
33	0xbd9bcac0	-0.07607031
34	0xbeab7d92	-0.3349424
35	0x3ead3754	0.33831275
36	0x3e6639c6	0.22482976
37	0xbdadf567	-0.084940724
38	0xbda7b64e	-0.08189069
39	0xbdd6c13b	-0.104860745
40	0xbe25139c	-0.16120762
41	0xbdc47e4b	-0.09594401
42	0x3d4110e4	0.04713525
43	0x3dcc6fbf	0.099822514
44	0x3f16f7c9	0.5897184
45	0xbd2aa8ba	-0.041664816
46	0xbe35f070	-0.17767501
47	0xbe14618d	-0.14490338
48	0xbd50223f	-0.05081391
49	0x3f46e825	0.77697974
50	0xbf0cdab0	-0.5502119
51	0x3f915c2c	1.1356254
52	0x3eb2c9b1	0.34919503
53	0x3e1910c1	0.14947797
54	0x3f2325d7	0.63729614
55	0x3e5ff346	0.21870145
56	0x3e45972b	0.19295947
57	0x3e1943a9	0.14967217
58	0xbc3503fd	-0.011048314
59	0x3f189dcb	0.5961577
60	0xbcb51ed2	-0.022109423
61	0xbddeaa12	-0.10872282
62	0x3c6bda8c	0.014395367
63	0x3f42a157	0.76027435
64	0xbf3bc9cb	-0.73354787
65	0xbe011aef	-0.1260793
66	0x3f026dc7	0.50948757
67	0x3d8281f9	0.063724466
68	0xbf3ce143	-0.7378122
69	0xbcd6307e	-0.02614617
70	0x3ec81deb	0.39085326
71	0x3e9a59cb	0.30146632
72	0x3b3b24ff	0.0028555987
73	0x3f49f89e	0.78894985
74	0xbb224080	-0.0024757683
75	0x3ea85cfc	0.3288344
76	0xbe0131f1	-0.12616707
77	0x3e85cadc	0.26131332
78	0xbd8a74ad	-0.067605354
79	0x3da0f768	0.07859689
80	0xbec659ec	-0.3874048
81	0x3d22c270	0.03973621
82	0xbb585755	-0.0033011038
83	0x3f893bf4	1.0721421
84	0x3e3c7ae4	0.18406254
85	0x3f2bdc93	0.67133445
86	0x3ed6d416	0.41958684
87	0xbe478a78	-0.19486415
88	0x3ea27b66	0.3173477
89	0xbccfe31a	-0.025376845
90	0xbdd75ab2	-0.10515346
91	0x3c751e10	0.014960781
92	0xbf033dd2	-0.51266205
93	0x3ece07ae	0.40240234
94	0x3e1d4e29	0.15361847
95	0x3e028f65	0.12750013
96	0x3d0425b3	0.032262515
97	0x3d8f02ac	0.069829315
98	0x3dbe1b2d	0.09282527
99	0x3faacf74	1.334456
100	0xbe0fae8d	-0.1403143
101	0xbdf208dd	-0.11818097
102	0x3f40feec	0.7538898
103	0x3dd9ef73	0.106413744
104	0x3df82d40	0.12118006
105	0x3e940617	0.28910896
106	0xbdb05fdc	-0.08612034
107	0xbd5a7d8d	-0.05334239
108	0x3fba8c33	1.4574035
109	0xbdd7ffca	-0.10546835
110	0xbdd01ed2	-0.101621285
111	0xbf5d4f15	-0.86448795
112	0xbd29276f	-0.041297372
113	0xbbf058fd	-0.007334827
114	0x3e6ff2bc	0.2343244
115	0x3ee6dc5a	0.4508999
116	0x3e223872	0.15841845
117	0x3e91b48d	0.28458062
118	0x3e99aabf	0.3001308
119	0x3e98fd66	0.29880828
120	0x3f3c3196	0.7351316
121	0xbe8441f2	-0.25831562
122	0xbd80307c	-0.06259248
123	0x3dcdf804	0.10057071
124	0x3cf85518	0.030314013
125	0x3dcde644	0.10053685
126	0xbc053354	-0.008129913
127	0xbe9ce26a	-0.3064149
128	0x3ebc6693	0.36797008
129	0xbb560b7c	-0.0032660654
130	0x3f21adca	0.63155806
131	0xbd340a33	-0.04395504
132	0x3e683cfd	0.22679515
133	0xbcb55f92	-0.022140298
134	0x3d05cc74	0.032665685
135	0xbeadef58	-0.33971667
136	0xbd8064d8	-0.062692344
137	0x3f202dc0	0.6256981
138	0x3cd53800	0.02602768
139	0xbf916eec	-1.1361976
140	0x3f11dedc	0.5698068
141	0xbbe57d41	-0.007003457
142	0xbfd4ac43	-1.661507
143	0x3f44aa6e	0.76822555
144	0xbeaa269d	-0.33232585
145	0x3cd59cd7	0.026075764
146	0x3d099e40	0.033598185
147	0x3e717bcf	0.23582385
148	0x3ebadd24	0.36496842
149	0xbd001d72	-0.03127808
150	0xbf30b1ef	-0.69021505
151	0x3f4c47f8	0.79797316
152	0x3f91c41b	1.1387972
153	0xbd3b3570	-0.04570526
154	0x3de4d90a	0.111742094
155	0xbd8b1d2e	-0.06792675
156	0x3ec57981	0.38569263
157	0x3e2cf14e	0.16888925
158	0x3ee81cc7	0.45334455
159	0xbf23faef	-0.6405477
160	0xbca38081	-0.019958736
161	0xbc80914d	-0.015694285
162	0x3eb731eb	0.35780272
163	0x3f570146	0.8398632
164	0x3cc88e0b	0.024481794
165	0x3d2e1205	0.042497654
166	0x3e53e056	0.20691046
167	0xbc56e130	-0.013115212
168	0x3f396726	0.7242302
169	0x3f0fc0c5	0.5615352
170	0xbd4f2075	-0.050568063
171	0x3b36fd1d	0.0027921863
172	0xbda073e9	-0.07834608
173	0xbd67dbaf	-0.05660599
174	0x3f44c31e	0.76860225
175	0x3e8cfb64	0.27535546
176	0xbdc82bca	-0.09773977
177	0xbe18ced7	-0.14922653
178	0x3dba6c45	0.09102682
179	0x3e27509b	0.16339342
180	0x3ecbbf6d	0.39794484
181	0xbdb06cac	-0.086144775
182	0x3da3cc67	0.07997971
183	0xbe590f0a	-0.21197143
184	0x3eb6ce08	0.35704064
185	0x3e073b74	0.13206273
186	0xbc55a09f	-0.013038783
187	0x3f1e954a	0.6194655
188	0xbca20b49	-0.019780772
189	0x3cea0c53	0.02857033
190	0x3c4870a4	0.012233887
191	0x3d4e7b70	0.050410688
192	0x3e3f7e61	0.18700553
193	0xbda3bca7	-0.07994967
194	0x3f086193	0.53273886
195	0xbdc1d810	-0.09465039
196	0x3eeac89c	0.45856178
197	0x3d2b0698	0.041754335
198	0x3e50d003	0.2039185
199	0xbd6a6f79	-0.057235215
200	0xbd8ea730	-0.06965482
201	0xbce5301d	-0.027977044
202	0xbc41d79d	-0.011831191
203	0xbecfd76f	-0.4059405
204	0xbe79edbc	-0.24407095
205	0xbf32579e	-0.69664943
206	0xbc8b1c6c	-0.016981326
207	0xbe57a890	-0.21060395
208	0xbda42b6a	-0.08016093
209	0x3de9120d	0.11380396
210	0x3d778164	0.06042613
211	0x3df205ed	0.118175365
212	0x3e92c582	0.28666312
213	0x3e9c0200	0.30470276
214	0x3e0fcb38	0.14042366
215	0x3fa521c3	1.2900928
216	0x3f8036f1	1.0016767
217	0x3cb2e814	0.02183918
218	0xbd84f5a1	-0.064921625
219	0x3d9d594e	0.07683049
220	0x3ca96c40	0.0206815
221	0x3eebd716	0.46062535
222	0xbebc9102	-0.36829382
223	0x3ca3d7bc	0.020000331
224	0xbf49a43c	-0.78766227
225	0x3d85d778	0.06535238
226	0x3ecd76cd	0.401297
227	0xbdd035b3	-0.10166492
228	0x3f09f7a1	0.53893477
229	0x3d4c66f0	0.049902856
230	0xbf8ae736	-1.085181
231	0x3dbae52a	0.09125741
232	0x3e545182	0.20734218
233	0x3fe23fdb	1.7675737
234	0x3c2bf402	0.010495188
235	0xbda7de84	-0.08196738
236	0x3eca2869	0.39483956
237	0x3c33dda7	0.010978139
238	0x3ebf97fe	0.37420648
239	0x3f998d7c	1.1996303
240	0x3dd58f6b	0.104277454
241	0xbe09695b	-0.13419096
242	0xbe13f9b8	-0.14450729
243	0x3f8f4499	1.1192809
244	0xbdd65029	-0.10464508
245	0x3da4bc9b	0.08043786
246	0xbe2a1e4b	-0.16613118
247	0xbccfb111	-0.025352987
248	0x3e9815a5	0.29704013
249	0xbe94edde	-0.29087728
250	0x3d31b1d9	0.0433825
251	0x3eab459e	0.3345155
252	0xbd43c0fc	-0.047791466
253	0xbd5bd8fd	-0.053673733
254	0x3ba7d1d3	0.0051214485
255	0x3f244c26	0.64178693

net.4.bias f4 [4]
0	0x3f536d56	0.8258871
1	0x3ebe3822	0.371522
2	0x3ee68126	0.45020407
3	0x3db506cd	0.08839188
