rl_agents/checkpoint_dqn_seed_123_ep_2000.pth (torch, 22133 bytes, 6 tensors)

net.0.weight f4 [64, 3]
-0.31421155 0.70400053 -1.5937904 0.3332255 -0.726696 0.18880928 -0.5734424 -1.0526012
-0.90165377 0.4800559 -0.06451473 0.577188 -0.97643155 -0.8215328 0.07047445 -0.29660454
-0.7303298 0.6643002 -0.1781598 0.06462498 -0.08733187 -0.17901647 -0.30689314 0.20534056
-0.96679133 0.3489153 -0.05184122 0.3475054 0.73047566 -1.363798 0.53399366 0.40292433
0.07820399 0.8852334 0.31508067 -0.1466855 -0.6678609 -0.31825298 -0.80348164 0.5861356
-0.13388443 -0.51078975 0.003808559 1.1747085 0.042173874 0.19830799 -0.5287384 0.34253144
0.564337 0.531858 0.043935824 -0.0043272246 0.01786167 -0.13834402 0.042015895 -1.0725546
-0.5205965 0.6965807 0.33216548 -1.4430679 0.13656463 0.55193466 -1.4849735 -1.1110953
-0.43826154 0.27916628 0.26158223 -0.7193434 -1.3207334 0.27971786 0.6216758 0.5111038
-0.6655681 -1.0907229 0.33539218 0.012966454 0.23667371 -0.5641586 0.040740523 0.44513893
0.32223842 -0.028183833 0.13121705 -0.3343997 -0.48967844 -0.66425145 -0.7395393 0.6513742
0.46439976 0.19641094 -0.58412564 0.8298124 0.053544816 0.83948684 -0.4318052 0.1621449
0.6045383 0.43200415 0.28899312 -0.121234775 0.43987 -0.45219934 0.012701152 -0.28733543
-0.13464686 -0.19717416 0.25703818 0.7363923 0.15182103 -0.12806122 0.0080192285 -0.4730887
0.7965438 -0.12992798 -0.35339838 0.5203801 -0.8717884 0.08110917 -0.21874873 0.37339133
-0.26527402 0.21213046 0.7510228 -0.13463588 0.8673897 -0.69108456 0.16357659 0.54027545
0.019445362 0.4808325 -0.7320736 0.2805029 -0.12938495 -0.9805262 -0.17479353 -0.79519117
0.5446526 0.2444765 0.05655992 -0.17515117 0.0027762055 0.25938115 -0.056886997 0.23729214
0.46711788 -0.20735228 -0.7735079 0.66189003 -0.4343312 -0.51554346 -1.0756379 -0.39848366
0.41158402 0.59341973 -0.011497663 0.51668555 -0.23679906 -0.22635831 -0.36090982 0.1518785
0.18935017 -0.2499419 -0.9995338 0.37203908 0.67395145 0.48658848 -0.23063575 0.7683921
0.19527982 0.30799943 -0.11449899 -0.72942257 0.1689276 0.10207467 -0.5484386 -0.38793516
-1.0116626 -0.56714016 0.61162424 0.31958288 -0.025325358 -0.08519174 -0.12600283 -0.58869
-0.5885401 -0.72725767 -0.13925235 0.28411317 0.31678128 -0.6419583 -0.93436146 -0.9088914
00000000: 56e0 a0be 6139 343f 5301 ccbf 889c aa3e
00000010: c008 3abf 3857 413e 1fcd 12bf a3bb 86bf
00000020: c8d2 66bf e3c9 f53e 4c20 84bd 98c2 133f
00000030: 6bf7 79bf f94f 52bf e954 903d 8ddc 97be
00000040: e5f6 3abf 940f 2a3f 866f 36be 1a5a 843d
00000050: 0ddb b2bd 1850 37be 1921 9dbe cc44 523e
00000060: a37f 77bf 07a5 b23e 7657 54bd 3aec b13e
00000070: 7400 3b3f ef90 aebf cfb3 083f 194c ce3e
00000080: 6a29 a03d a89e 623f 4152 a13e b934 16be
00000090: eff8 2abf 0ef2 a2be f9b0 4dbf fc0c 163f
000000a0: 0019 09be 1ec3 02bf 0499 793b d95c 963f
000000b0: 83be 2c3d 4011 4b3e 665b 07bf 4860 af3e
000000c0: 6478 103f d927 083f 0df6 333d 64cb 8dbb
000000d0: a352 923c 0eaa 0dbe dc18 2c3d 7849 89bf
000000e0: d045 05bf 1d53 323f 9811 aa3e 73b6 b8bf
000000f0: 99d7 0b3e 974b 0d3f 9d13 bebf 5f38 8ebf
00000100: d163 e0be e2ee 8e3e 1bee 853e e426 38bf
00000110: cb0d a9bf 2e37 8f3e 2526 1f3f b3d7 023f
00000120: ac62 2abf cf9c 8bbf 86b8 ab3e 4071 543c
00000130: 985a 723e b36c 10bf 89df 263d 40e9 e33e
00000140: 6ffc a43e c8e1 e6bc c35d 063e 7036 abbe
00000150: 22b7 fabe 620c 2abf 7352 3dbf 76c0 263f
00000160: cec5 ed3e f31f 493e 4289 15bf 966e 543f
00000170: cf51 5b3d 9ce8 563f 9215 ddbe 5009 263e
00000180: 06c3 1a3f a62f dd3e e8f6 933e f049 f8bd
00000190: a436 e13e ac86 e7be 7e18 503c a11d 93be
000001a0: dee0 09be 06e8 49be 829a 833e 3584 3c3f
000001b0: f976 1b3e 7b22 03be 1563 033c af38 f2be
000001c0: 4bea 4b3f d70b 05be a2f0 b4be a137 053f
000001d0: 862d 5fbf 911c a63d abff 5fbe 262d bf3e
000001e0: ffd1 87be ba38 593e 0843 403f fddd 09be
000001f0: 400d 5e3f ebea 30bf 9f80 273e 7e4f 0a3f
00000200: e14b 9f3c ad2f f63e 2d69 3bbf 139e 8f3e
00000210: 7d7d 04be c403 7bbf 13fd 32be a691 4bbf
00000220: 5a6e 0b3f 0c58 7a3e 60ab 673d d45a 33be
00000230: 00f1 353b 9bcd 843e 5702 69bd b6fc 723e
00000240: 132a ef3e 2854 54be 9d04 46bf a071 293f
00000250: a960 debe a8fa 03bf 81ae 89bf 0d06 ccbe
00000260: 24bb d23e 5bea 173f b260 3cbc 8145 043f
00000270: 747b 72be 79ca 67be 2cc9 b8be 0a86 1b3e
00000280: 03e5 413e c5f0 7fbe 72e1 7fbf e87b be3e
00000290: 1588 2c3f 2022 f93e c72b 6cbe 58b5 443f
000002a0: 6ff7 473e 1ab2 9d3e 727e eabd 70bb 3abf
000002b0: 5bfb 2c3e 860c d13d 7966 0cbf 709f c6be
000002c0: 297e 81bf 1930 11bf 6893 1c3f 5ea0 a33e
000002d0: 2077 cfbc 0279 aebd e306 01be 63b4 16bf
000002e0: 90aa 16bf 8f2d 3abf 2b98 0ebe 4877 913e
000002f0: 2831 a23e 6157 24bf 5032 6fbf 1bad 68bf

net.0.bias f4 [64]
0.031984564 0.15118115 -0.10221372 -0.90761304 0.57807434 -0.8027866 -0.2567383 -0.55264205
0.20994517 0.56051844 0.1573815 -0.31320894 -0.438503 0.3956704 -0.12606125 -0.6128703
-0.11311004 -0.024480022 0.028017318 0.22754253 0.43125454 -0.29716513 0.5820143 -0.7421405
0.2542706 -0.31319195 -0.31980065 -0.16100374 -0.5048023 -0.4332479 0.5344622 -0.06936465
0.13527521 -0.5703427 -0.32314524 -1.225162 -0.3065747 0.44064865 0.30935824 -0.77581096
-1.1709026 0.18929799 -0.19222726 -0.45920405 0.11264596 0.040816206 -0.5583829 -0.47595155
0.8986631 0.33640173 -0.62591463 -0.6383581 0.9734349 -0.09922649 -0.39842457 -1.1804969
0.7072626 0.3817817 1.407642 -0.4672196 -0.114811875 -0.71843433 -0.096290246 0.39811966
00000000: 3f02 033d 3bcf 1a3e 6d55 d1bd 5459 68bf
00000010: aefc 133f 6c83 4dbf 3473 83be f379 0dbf
00000020: defb 563e 237e 0f3f 9e28 213e ec5c a0be
00000030: 7783 e0be 5095 ca3e 3316 01be 11e5 1cbf
00000040: 3da6 e7bd 548a c8bc 9384 e53c e900 693e
00000050: 65cd dc3e 0726 98be e4fe 143f ebfc 3dbf
00000060: c22f 823e b25a a0be e9bc a3be 2ade 24be
00000070: b93a 01bf abd2 ddbe 84d2 083f 0e0f 8ebd
00000080: 9685 0a3e fb01 12bf 4b73 a5be 1cd2 9cbf
00000090: 5cf7 9cbe b39c e13e 3464 9e3e 8c9b 46bf
000000a0: 23e0 95bf 55d7 413e 39d7 44be cb1c ebbe
000000b0: edb2 e63d e52e 273d 2ff2 0ebf ecaf f3be
000000c0: c90e 663f d93c ac3e f13b 20bf 706b 23bf
000000d0: 0833 793f 4237 cbbd 4efe cbbe 861a 97bf
000000e0: 290f 353f e478 c33e 9d2d b43f 6837 efbe
000000f0: 7d22 ebbd 50eb 37bf d233 c5bd 57d6 cb3e

net.2.weight f4 [64, 64]
-0.8366143 0.13676395 0.5365922 0.112365305 -0.03853347 -0.018301137 -0.12267991 -0.33339027
0.34350437 -1.1061543 0.34109086 -0.674848 -0.10473115 -0.8700368 0.19494101 0.1991341
0.26517984 -0.017553093 -1.6721611 -0.63721675 -1.1230882 0.20207186 -0.5741418 0.060842745
0.10843924 -0.11171144 0.062036444 -0.09339956 -0.60953623 0.045779955 0.14391342 0.14464621
0.22538874 -0.051106915 0.10066326 -2.606741 0.06898436 0.4645595 -0.6760409 -0.38083452
-1.6614449 0.67389673 0.3245062 0.22240555 0.07666868 0.18238021 0.10886799 -0.15909176
-2.2711778 -0.26753873 0.019385163 -0.005737661 0.058693904 -0.19270876 0.044074662 0.03856092
0.3534345 0.45557415 -0.7195806 0.1006348 0.18026377 -0.48999667 0.12690036 0.15580428
-0.17388487 -0.5121228 0.20937565 -0.14165549 0.33483467 -0.19738229 -0.1521532 -0.17905764
-0.06924133 -0.016421607 0.06773346 -0.15771493 -0.4195015 0.35762373 0.33608264 -0.6575251
0.11904281 -0.07715991 0.28000453 0.17832924 0.10363902 0.13573867 0.18136156 -0.102534406
-0.025491232 0.05079025 -0.0049424483 0.10339451 -1.038131 0.26042515 0.4419766 -0.9686927
0.16468957 -0.059603095 0.008073919 0.029556762 -0.17585348 0.23280881 -0.024000667 -0.41063938
0.021154441 0.15554905 -0.03622501 -0.9860165 0.19673574 0.39685747 0.07023847 -0.05976285
0.37424752 0.15004379 0.050773747 -0.14278606 0.737499 0.17767544 0.11402441 -0.24480242
0.2554984 0.28161326 0.48703575 0.18749502 0.2964063 -0.9137051 0.1301115 0.45159918
0.39152062 0.21359782 0.6613898 0.025414823 0.1873456 0.13152112 0.18317866 -0.14728203
-0.7779914 -0.21908413 -0.2865222 0.11863277 -0.24070127 0.03517706 -0.548121 -0.014063876
-0.48550367 0.054727215 -0.093568966 -0.18412639 0.14576893 0.16730973 0.79336524 -0.8672998
0.29866892 0.09931289 -0.4304164 0.68801665 -0.1304761 -0.74106467 -0.7076829 -0.023951534
-0.21980797 0.054062173 0.0028126778 -0.477173 0.07058248 -0.69742835 0.4573213 -0.11910907
-0.40454426 0.14895254 -0.54854995 0.086575255 0.38008118 -0.33270034 -0.089318365 -0.014004035
0.05138803 -0.13253024 0.12408085 0.07825767 -0.06792447 -0.37234217 -0.060484566 -0.010037114
-0.24300846 0.09400029 0.07614824 -0.80827564 0.071599 0.094393626 -0.23447923 0.59982204
-0.31613052 0.0857721 0.47254136 0.29777756 -0.1744838 0.19511643 -0.27822977 0.120789535
-0.8132862 -0.20042022 -0.3028658 -0.9248891 -0.41509268 -0.11971138 0.3183444 0.1579379
-1.2688857 -0.24238534 -0.18983625 0.47028387 -1.0004452 -0.18371305 0.22289519 -0.19398916
-0.024313705 -0.11690925 -0.41626552 -0.5823398 -0.42923483 -1.4791893 -0.9899384 0.1714166
0.06221372 -0.12376249 -0.10406497 0.06997439 -0.42079738 -0.4490935 -1.2292384 0.3390969
0.28710902 -0.20438153 -0.7183628 0.06714664 0.14630938 -0.30947217 0.0021593273 0.2653363
-0.0018816671 0.08716593 -0.13872874 0.35247675 -0.81466395 -0.2423201 -0.09288964 0.4423357
-0.8235566 -0.467809 -0.47088084 -0.6890834 -0.028420612 0.2172626 0.09636151 0.3348497
00000000: 5b2c 56bf d90b 0c3e 1b5e 093f c81f e63d
00000010: 46d5 1dbd 44ec 95bc 9b3f fbbd 21b2 aabe
00000020: cedf af3e 7796 8dbf 76a3 ae3e d7c2 2cbf
00000030: 497d d6bd bbba 5ebf 9e9e 473e cfe9 4b3e
00000040: a7c5 873e 81cb 8fbc 6009 d6bf a320 23bf
00000050: 5bc1 8fbf edeb 4e3e f5fa 12bf 3e36 793d
00000060: 6415 de3d f8c8 e4bd ed19 7e3d 4548 bfbd
00000070: 910a 1cbf c383 3b3d 0a5e 133e 231e 143e
00000080: 4ecc 663e 7c55 51bd 8a28 ce3d d8d4 26c0
00000090: ac47 8d3d beda ed3e 0411 2dbf befc c2be
000000a0: 3aaa d4bf 7f84 2c3f ad25 a63e 48be 633e
000000b0: 7804 9d3d e1c1 3a3e 2ef6 de3d f3e8 22be
000000c0: fa5a 11c0 d6fa 88be a2cd 9e3c fd02 bcbb
000000d0: 0569 703d 7255 45be a287 343d 0ef2 1d3d
000000e0: 5ef5 b43e 0441 e93e 6f36 38bf 9e19 ce3d
000000f0: 1197 383e d8e0 fabe 2bf2 013e 288b 1f3e
00000100: e00e 32be 7b1a 03bf 9266 563e 230e 11be
00000110: 736f ab3e 951e 4abe 0cce 1bbe e35a 37be
00000120: 66ce 8dbd 9b86 86bc d7b7 8a3d 0680 21be
00000130: e7c8 d6be 751a b73e 0613 ac3e 9153 28bf
00000140: b7cc f33d 0406 9ebd c15c 8f3e f19b 363e
00000150: b240 d43d 14ff 0a3e d8b6 393e 8ffd d1bd
00000160: fdd2 d0bc 7009 503d 43f4 a1bb 80c0 d33d
00000170: 7ae1 84bf 7256 853e c24a e23e 3ffc 77bf
00000180: 62a4 283e 6022 74bd 7948 043c 0621 f23c
00000190: ef12 34be 6f65 6e3e 0c9d c4bc 533f d2be
000001a0: 144c ad3c 4048 1f3e ad60 14bd 946b 7cbf
000001b0: 1875 493e e730 cb3e 30d9 8f3d e4c9 74bd
000001c0: 5f9d bf3e 14a5 193e 22f8 4f3d 8236 12be
000001d0: bccc 3c3f 8df0 353e a185 e93d 7cad 7abe
000001e0: b0d0 823e 9d2f 903e c05c f93e b2fe 3f3e
000001f0: 91c2 973e 94e8 69bf f33b 053e 0238 e73e
00000200: 6475 c83e 63b9 5a3e d850 293f bf32 d03c
00000210: 86d7 3f3e 79ad 063e 3093 3b3e 1ad1 16be
00000220: 722a 47bf 9757 60be 0ab3 92be bdf5 f23d
00000230: 657a 76be d215 103d a851 0cbf 2c6c 66bc
00000240: f093 f8be a529 603d 16a1 bfbd a18b 3cbe
00000250: 7344 153e 3e53 2b3e fc19 4b3f 5c07 5ebf
00000260: 22eb 983e 8e64 cb3d 8a5f dcbe dc21 303f
00000270: 879b 05be 6ab6 3dbf b52a 35bf 0236 c4bc
00000280: 5715 61be 4c70 5d3d e754 383b 0550 f4be
00000290: 8c8d 903d aa8a 32bf 0426 ea3e 75ef f3bd
000002a0: 6d20 cfbe 0487 183e c56d 0cbf 5e4e b13d
000002b0: 009a c23e b357 aabe 8cec b6bd 2e71 65bc
000002c0: 417c 523d 02b6 07be 1a1e fe3d 8f45 a03d
000002d0: fc1b 8bbd a2a3 bebe aabe 77bd b572 24bc
000002e0: 36d7 78be 3983 c03d 9cf3 9b3d 27eb 4ebf
000002f0: 7fa2 923d 7251 c13d 531b 70be f08d 193f
00000300: dcdb a1be 48a9 af3d f1f0 f13e 4d76 983e
00000310: e2ab 32be 9acc 473e 2274 8ebe 8160 f73d
00000320: 8633 50bf f53a 4dbe 3a11 9bbe 88c5 6cbf
00000330: 0787 d4be 3d2b f5bd 0afe a23e 79ba 213e
00000340: d96a a2bf dd33 78be 6f64 42be 0cc9 f03e
00000350: 970e 80bf 461f 3cbe a33e 643e 18a5 46be
00000360: 892d c7bc 1e6e efbd c120 d5be 3914 15bf
00000370: abc4 dbbe 1356 bdbf 9a6c 7dbf d587 2f3e
00000380: d0d3 7e3d 3077 fdbd 0420 d5bd bc4e 8f3d
00000390: c172 d7be 95ef e5be af57 9dbf 1c9e ad3e
000003a0: f4ff 923e 6449 51be a0e6 37bf 2d84 893d
000003b0: 20d2 153e 2373 9ebe 8083 0d3b 29da 873e
000003c0: 45a2 f6ba 0d84 b23d e80e 0ebe d577 b43e
000003d0: d18d 50bf c322 78be ec3c bebd d379 e23e
000003e0: 9bd4 52bf a984 efbe 4b17 f1be c567 30bf
000003f0: 58d2 e8bc 167a 5e3e 2f59 c53d 6b71 ab3e

net.2.bias f4 [64]
0.58454144 0.39591584 0.027194675 -0.14257804 0.38355255 0.06494308 0.1785135 -0.01821291
0.29728913 -0.06241995 0.35571304 0.13874093 0.034769095 0.15391758 0.11628473 0.29860663
-0.14913544 0.28426793 0.396162 -0.05070572 -0.09990473 0.49705857 0.3180194 0.3248477
-0.14875855 -0.07502935 0.75064534 0.46141446 0.29716083 0.10501626 0.13748632 0.074713945
-0.30818695 0.4832371 0.06259634 -0.041336205 -0.16152774 0.20947587 0.4443755 0.1370371
-0.006782837 -0.1546956 -0.023717994 -0.1785276 0.34606424 0.5057236 0.3761311 -0.16430812
0.08265905 0.036335085 0.35136154 0.09836164 -0.07699616 0.025278533 0.13078915 -0.13628905
-0.5298349 0.23891 -0.008667105 0.34458002 -0.12257581 0.6854524 0.06920122 0.026184017
00000000: 82a4 153f 7bb5 ca3e 5ec7 de3c faff 11be
00000010: 0061 c43e e100 853d 3ecc 363e 3e33 95bc
00000020: 4836 983e 10ac 7fbd 0520 b63e 1a12 0e3e
00000030: 0a6a 0e3d 929c 1d3e b026 ee3d f8e2 983e
00000040: f6b6 18be 918b 913e bfd5 ca3e cdb0 4fbd
00000050: da9a ccbd 767e fe3e 70d3 a23e 7052 a63e
00000060: 2954 18be fda8 99bd 4b2a 403f 843e ec3e
00000070: 7725 983e c412 d73d 37c9 0c3e a003 993d
00000080: aeca 9dbe da6a f73e 8332 803d 2750 29bd
00000090: 8767 25be d880 563e 2f85 e33e 7453 0c3e
000000a0: 9042 debb 8668 1ebe 3d4c c2bc f0cf 36be
000000b0: 552f b13e 1a77 013f 4194 c03e 6340 28be
000000c0: 2649 a93d 19d4 143d a9e5 b33e d471 c93d
000000d0: 2ab0 9dbd ed14 cf3c 97ed 053e 5b8f 0bbe
000000e0: 43a3 07bf d3a4 743e 7900 0ebc cb6c b03e
000000f0: 0709 fbbd cf79 2f3f 5fb9 8d3d dd7f d63c

net.4.weight f4 [4, 64]
1.4755739 0.02834241 0.43578762 0.10256576 -0.37778392 0.023515703 0.48487982 0.10142918
0.18598571 0.044861257 0.39564654 -0.17818047 0.065157935 -0.3314101 -0.07149887 -0.027322356
-0.107740626 0.6287992 0.13161775 0.058493134 0.010671878 0.62227035 0.20418684 0.005336446
0.044511884 0.022688763 0.99268466 0.44681197 0.3718821 -0.35210302 0.08806309 0.2081746
-0.11694314 0.55422014 -0.12608816 0.055023547 -0.1002148 -1.102641 -0.65638477 0.15642257
-0.11697152 -0.2090662 0.065778315 -0.20799862 -0.11477603 -0.0060813637 0.24306828 -0.025922973
-0.03220717 -0.72101676 1.0902404 0.026140941 -0.1607656 -0.054685146 0.00022686641 -0.088141166
-0.37673151 -0.3907395 0.01475123 0.2999704 0.0027495858 0.31647995 -0.12152608 0.05899752
0.18593624 0.46274227 0.26563996 1.278975 -0.8341681 -0.051820174 -0.07053834 -0.059575893
-0.3184802 0.1091735 0.5751578 0.10027665 0.028490879 0.017988812 -0.26700297 0.619353
-0.05244845 0.24625637 0.4450981 0.064209685 0.04570083 -0.053756326 -0.8849939 0.16202696
0.0012591882 1.1824999 0.17283699 -0.3358825 0.42352828 -0.026562987 0.40245235 -0.5026137
0.7831329 0.20501421 -0.044887103 0.021840708 -0.08412873 0.9834767 0.11710578 0.02606428
-0.26316148 0.27748927 0.015495955 0.16202119 0.6647158 0.44087192 0.07349285 0.12075352
-0.19155297 0.37383157 0.23851575 -0.11807084 -0.117410846 -0.18350893 0.37572765 -0.046203345
0.24704546 0.21667805 0.023872815 -0.07758664 -0.02155423 0.28110614 0.032304004 0.00049943
-0.48586756 0.2084925 -0.06369378 0.24057978 0.3659426 -0.06075122 0.42907384 -0.10454982
-0.41631642 0.03100261 -0.026063364 0.3099722 -0.0035441334 0.6565961 -0.21011399 0.601108
-0.102382556 -0.14356807 0.20522207 -0.06741438 0.021229422 0.12614943 -1.9383687 0.15265462
-0.04596098 -0.69302434 0.03242917 -0.32564276 -0.2739238 0.4876822 0.2817361 0.1153595
0.22802137 -0.3197421 0.3608344 0.020192679 0.10504037 -0.6089087 0.39894515 -0.022785462
0.1765452 0.08031992 0.0021112715 0.4606716 0.34860373 0.51144266 0.05850866 0.10691589
0.025202705 -0.65395844 0.6451293 0.27773649 0.09944236 -0.0032305943 0.32488015 -0.014807007
-1.2246051 -1.4610157 -0.057871394 0.9562728 0.012653811 0.5762926 -0.002212745 0.026936572
-1.2487282 -0.047654618 -0.0043577477 -0.38578913 0.24394554 -0.04319821 0.22233011 0.044475332
0.6709104 0.033714697 -0.07034026 0.4499584 -0.097497955 0.2738822 -1.0440776 -0.037060466
-0.025330544 0.01621 0.15783136 -0.0068754186 0.012956578 0.23979901 -0.17857511 -0.13550931
-0.037164316 0.014930902 0.51625353 0.85706323 -0.41507903 0.16555029 0.1844471 -0.014383936
0.09141749 0.79010063 0.100473925 -0.00021884104 0.0032103027 -0.7222022 1.0853003 -0.07432605
0.45081756 -0.80631864 0.016223112 0.2787365 0.3635381 0.1981086 0.1292376 0.005384549
0.03401264 0.43872347 0.05022609 -1.8461672 0.3120969 0.14841014 0.31552315 0.03418949
-0.5292093 -1.3588221 -0.06797119 0.7249641 0.08694817 0.6958432 -0.0108965915 0.028627107
00000000: 9bdf bc3f 582e e83c 8e1f df3e ff0d d23d
00000010: e56c c1be 01a4 c03c 2b42 f83e 1aba cf3d
00000020: 0a73 3e3e 70c0 373d 2f92 ca3e f174 36be
00000030: 8671 853d 96ae a9be 006e 92bd 22d3 dfbc
00000040: 1ea7 dcbd fcf8 203f cec6 063e 7f96 6f3d
00000050: 1ad9 2e3c 1c4d 1f3f 5b16 513e 5bdd ae3b
00000060: 1852 363d c9dd b93c 9520 7e3f 8ac4 e43e
00000070: 5567 be3e d946 b4be 6c5a b43d b92b 553e
00000080: e37f efbd 5fe1 0d3f 411d 01be 5f60 613d
00000090: 6b3d cdbd 5723 8dbf d508 28bf 3d2d 203e
000000a0: c48e efbd 7315 56be c8b6 863d 97fd 54be
000000b0: b20f ebbd 2d46 c7bb e4e6 783e 6a5c d4bc
000000c0: aaeb 03bd 8e94 38bf ff8c 8b3f 8725 d63c
000000d0: bd9f 24be 88fd 5fbd fde2 6d39 5b83 b4bd
000000e0: f4e2 c0be 020f c8be 25af 713c b895 993e
000000f0: 6532 343b a909 a23e aae2 f8bd 62a7 713d
00000100: 1266 3e3e 8eec ec3e f601 883e 74b5 a33f
00000110: 0a8c 55bf 6441 54bd 6876 90bd da05 74bd
00000120: d60f a3be 5b96 df3d 8b3d 133f d85d cd3d
00000130: b465 e93c 465d 933c 9db4 88be eb8d 1e3f
00000140: 30d4 56bd a12a 7c3e e6e3 e33e 5e80 833d
00000150: cb30 3b3d 982f 5cbd f68e 62bf 65ea 253e
00000160: 580b a53a 285c 973f 2efc 303e cbf8 abbe
00000170: b3d8 d83e 9f9a d9bc 3c0e ce3e 4bab 00bf
00000180: 667b 483f 3fef 513e 8adb 37bd 49eb b23c
00000190: af4b acbd 21c5 7b3f 28d5 ef3d c284 d53c
000001a0: 1abd 86be 1313 8e3e bfe2 7d3c e2e8 253e
000001b0: d12a 2a3f f7b9 e13e 6b83 963d 9f4d f73d
000001c0: 7626 44be da66 bf3e 793d 743e 20cf f1bd
000001d0: 1975 f0bd c4e9 3bbe 605f c03e b83f 3dbd
000001e0: 7cf9 7c3e dae0 5d3e ec90 c33c bfe5 9ebd
000001f0: 7f92 b0bc 25ed 8f3e 3451 043d 2eec 023a
00000200: a2c3 f8be 0f7f 553e e271 82bd 8c5a 763e
00000210: d45c bb3e 45d6 78bd 91af db3e 371e d6bd
00000220: 6d27 d5be 30f9 fd3c d682 d5bc adb4 9e3e
00000230: b144 68bb af16 283f 1f28 57be 37e2 193f
00000240: f2ad d1bd 8203 13be bc25 523e 8d10 8abd
00000250: 53e9 ad3c 512d 013e 771c f8bf 7e51 1c3e
00000260: 9541 3cbd 0b6a 31bf 73d4 043d a6ba a6be
00000270: be3f 8cbe 7bb1 f93e b73f 903e 9a41 ec3d
00000280: 6f7e 693e 3db5 a3be 49bf b83e 1e6b a53c
00000290: 681f d73d 71e1 1bbf 8a42 cc3e 94a8 babc
000002a0: 44c8 343e c57e a43d 425d 0a3b 26dd eb3e
000002b0: 307c b23e e8ed 023f c7a6 6f3d b8f6 da3d
000002c0: e775 ce3c d269 27bf 3227 253f 7a33 8e3e
000002d0: 70a8 cb3d 61b8 53bb b156 a63e 1799 72bc
000002e0: dcbf 9cbf 9002 bbbf 8e0a 6dbd 4bce 743f
000002f0: ee51 4f3c e987 133f b303 11bb 16aa dc3c
00000300: 53d6 9fbf 7d31 43bd 70cb 8ebb 2786 c5be
00000310: dccc 793e 9bf0 30bd 81aa 633e c42b 363d
00000320: c9c0 2b3f 6c18 0a3d 8e0e 90bd f360 e63e
00000330: 02ad c7bd 4a3a 8c3e 56a4 85bf b7cc 17bd
00000340: 0082 cfbc d5ca 843c 8b9e 213e 314b e1bb
00000350: d447 543c df8d 753e 65dc 36be f4c2 0abe
00000360: 9c39 18bd bea0 743c 3129 043f 7f68 5b3f
00000370: 3d85 d4be 0486 293e b3df 3c3e 9aaa 6bbc
00000380: 1839 bb3d 0944 4a3f 46c5 cd3d b278 65b9
00000390: f163 523b 3ee2 38bf 1feb 8a3f 4238 98bd
000003a0: 8fd1 e63e e66a 4ebf 55e6 843c 8db6 8e3e
000003b0: aa21 ba3e fbdc 4a3e dd56 043e df70 b03b
000003c0: d750 0b3d 5da0 e03e dfb9 4d3d 354f ecbf
000003d0: 2acb 9f3e d4f8 173e 408c a13e 470a 0c3d
000003e0: 437a 07bf e2ed adbf 7b34 8bbd 3f97 393f
000003f0: e211 b23d c822 323f 9e87 32bc 6583 ea3c

net.4.bias f4 [4]
0.4364269 0.3622623 0.4719584 0.05903596
00000000: 5973 df3e 727a b93e 88a4 f13e b1cf 713d
