rl_agents/checkpoint_dqn_seed_123_ep_1000.pth (torch, 22133 bytes, 6 tensors)

net.0.weight f4 [64, 3]
000000 60 10 5d be a2 3d 23 3f 65 15 9a bf c8 02 b5 3e
       -0.21588278 0.6376592 -1.2037779 0.35353684
000010 11 f2 47 bf 92 12 5d 3e c3 5a 0f bf 3e 59 70 bf
       -0.7810374 0.21589115 -0.55997866 -0.9388617
000020 92 1a 74 bf a4 5a dd 3e e8 75 a8 bd 13 69 0d 3f
       -0.95353043 0.43233216 -0.08225614 0.55238456
000030 51 c0 62 bf f2 9e 3f bf 31 2b 41 3d 25 f2 ac be
       -0.885747 -0.74851906 0.04716033 -0.33778492
000040 ba a1 4b bf 82 23 2a 3f 8e 7e 64 be 56 7b bb 3e
       -0.7954365 0.6646043 -0.22313902 0.36617535
000050 4f af 9b bb 6a 48 08 be 89 fd a8 bd cd 66 4e 3e
       -0.004751123 -0.13308874 -0.08251483 0.20156403
000060 aa d5 75 bf c5 bb 9f 3e f0 1c 36 3c ac 88 ca 3e
       -0.9602915 0.31197944 0.011115298 0.39557397
000070 1c b0 0a 3f 46 ef b5 bf 56 db 1b 3f f5 d7 e9 3e
       0.5417497 -1.4213645 0.60881555 0.45672575
000080 18 d0 51 3e e1 98 48 3f 40 aa d0 3e c0 0a 7e be
       0.20489538 0.78358275 0.4075489 -0.24808788
000090 8f ee 38 bf 00 d9 73 be c7 b5 44 bf 01 18 02 3f
       -0.7223901 -0.23813248 -0.7683987 0.5081788
0000a0 79 e6 5d be 6f 01 e0 be 93 a9 f8 bd 09 a7 83 3f
       -0.2166995 -0.43751094 -0.12141719 1.028535
0000b0 a9 84 ed bc 0a 03 51 3e cb e3 07 bf 87 ed b3 3e
       -0.028993921 0.20411316 -0.5308196 0.35142156
0000c0 6c 47 22 3f 01 7c 08 3f 69 19 e8 3d 64 cb 8d bb
       0.6339023 0.53314215 0.113329716 -0.0043272246
0000d0 a3 52 92 3c 0e aa 0d be b5 43 b2 bd e7 22 6b bf
       0.01786167 -0.13834402 -0.0870432 -0.9185013
0000e0 bb 54 4c bf 4a ca 21 3f dd 58 82 3e 77 ef 94 bf
       -0.7981679 0.63199294 0.25458422 -1.1635579
0000f0 2a e7 75 3e 86 98 31 3f a0 99 b7 bf 83 fe 5b bf
       0.24013963 0.6937336 -1.4343758 -0.8593523
000100 5f ef f5 be 04 12 52 3e c0 0a 52 3e 22 d7 43 bf
       -0.48034188 0.20514685 0.20511913 -0.7650014
000110 6a 1f 8e bf 4e 78 90 3e b8 d8 28 3f 47 35 eb 3e
       -1.1103337 0.28216785 0.65955687 0.45939085
000120 5c c8 2d bf 2f fa 89 bf 64 c2 a4 3e 40 71 54 3c
       -0.6788385 -1.0779475 0.32179558 0.012966454
000130 98 5a 72 3e b3 6c 10 bf 96 78 d2 3b 64 cc e2 3e
       0.23667371 -0.5641586 0.0064230664 0.44296563
000140 24 34 9f 3e 77 eb 75 3e 00 5a cb 3e 6a 9c d9 bd
       0.31094468 0.24015604 0.39717102 -0.10625537
000150 07 75 f7 be 91 fa e8 be 45 4b 1d bf 37 0f 1f 3f
       -0.48331472 -0.45503667 -0.6144298 0.6213259
000160 ca 71 03 3f ee 78 95 3e 13 9c 26 bf 82 bf 4d 3f
       0.51345503 0.29193825 -0.650819 0.8037034
000170 44 32 3a bc 41 38 54 3f 65 89 cb be 40 89 6a 3e
       -0.011364523 0.82898337 -0.3975326 0.22903919
000180 31 0a 3b 3f bf b8 08 3f 2c 0a a2 3e f0 49 f8 bd
       0.73062426 0.534069 0.31648386 -0.121234775
000190 a4 36 e1 3e ac 86 e7 be 7e 18 50 3c a1 1d 93 be
       0.43987 -0.45219934 0.012701152 -0.28733543
0001a0 de e0 09 be d3 63 84 be 4f b9 8e 3e f4 73 30 3f
       -0.13464686 -0.2585741 0.27875754 0.6892693
0001b0 72 72 64 3e bc bb 45 be 6b 79 e5 3b ef fc 20 bf
       0.22309282 -0.19309896 0.0070029995 -0.62885946
0001c0 99 64 1c 3f d5 88 b5 bd f7 28 ce bd 62 a3 e1 3e
       0.61091 -0.08863989 -0.10066407 0.44069964
0001d0 41 41 6c bf a4 7c bb 3d 12 a6 4f be 65 50 aa 3e
       -0.9228707 0.09154633 -0.20278195 0.3326446
0001e0 e8 95 b7 be a6 63 9e 3e 4f 5a 32 3f 00 ee 93 be
       -0.35856557 0.309354 0.6966905 -0.28892517
0001f0 93 bf 5a 3f f0 eb 07 bf 61 a4 82 3e 10 40 f0 3e
       0.8544857 -0.5309439 0.25516036 0.46923876
000200 c1 26 40 3e c0 d2 2a 3f 60 67 48 bf c7 6a 4e 3e
       0.18764783 0.6672783 -0.7828274 0.2015792
000210 b0 22 02 3e ca 92 81 bf 17 1e ec bd 93 08 69 bf
       0.12708545 -1.0122921 -0.11529177 -0.9102871
000220 12 7a 04 3f 28 b9 31 3e 60 ab 67 3d d4 5a 33 be
       0.51748765 0.17355788 0.05655992 -0.17515117
000230 00 f1 35 3b e2 7c 81 be 71 9c 55 3d 8c 3a 1a 3e
       0.0027762055 -0.2529059 0.052151147 0.15061396
000240 61 b5 0c 3f 5f ad 44 3d f3 f2 33 bf 64 0e 25 3f
       0.5496426 0.048016902 -0.70292586 0.64475083
000250 17 9f 02 bf 1b 10 fb be 0a 63 5f bf 20 72 ec be
       -0.51024 -0.49035725 -0.87260497 -0.4618082
000260 43 c1 a6 3e 22 8d 32 3f 66 c4 ad 3e 8a 71 0b 3f
       0.32569322 0.697466 0.33938903 0.5447012
000270 53 f3 4f be 9e d7 5a be a7 49 bf be d3 9e 82 3e
       -0.20307665 -0.21371314 -0.3736088 0.25511798
000280 59 a9 c0 3c cc 27 06 bc e7 53 81 bf e8 a9 f5 3e
       0.023518251 -0.008188199 -1.010373 0.4798119
000290 95 4a 2a 3f a3 bc 0b 3f 13 dd d7 bd 2b d4 42 3f
       0.66520053 0.5458471 -0.105402134 0.7610499
0002a0 6c ab a2 3e 2a 01 b9 3e 76 21 06 be bb 27 55 bf
       0.3177141 0.361337 -0.13098702 -0.8326375
0002b0 dc 7b 64 3c ad fd f2 3d e8 85 1b bf dd 0b a1 be
       0.013945546 0.11864791 -0.607512 -0.31454363
0002c0 d8 11 6e bf 61 f8 31 bf bd dc 0b 3f b9 03 99 3e
       -0.9299598 -0.6951962 0.54633695 0.29885653
0002d0 5a 99 5c 3c 01 52 e7 bd 58 e5 68 bd b8 17 1c bf
       0.013464296 -0.11294938 -0.056859344 -0.6097369
0002e0 3d f3 0e bf 27 35 29 bf b5 31 af be 7a 38 d3 3e
       -0.558399 -0.6609673 -0.3421761 0.41254026
0002f0 b3 96 a3 3e 85 99 08 bf 47 5a 5d bf b7 9a ac bf
       0.31950912 -0.5335925 -0.8646588 -1.3484715

net.0.bias f4 [64]
000000 43 04 a4 3e e4 dc 53 3e 05 17 1d be 02 20 31 bf
       0.320345 0.20689732 -0.15340813 -0.69189465
000010 ec 68 0d 3f fc ae 34 bf ac 6a bc 3d fb 86 af be
       0.55238223 -0.70579505 0.092000335 -0.3428267
000020 25 57 84 3e 2f de c8 3e 27 c3 46 3e f4 ba 87 be
       0.25847736 0.39232013 0.19410382 -0.2650982
000030 cf 97 c4 be 52 23 af 3e 95 ce 90 bd 21 70 f6 be
       -0.3839707 0.34206635 -0.070706524 -0.48132423
000040 cf 4a 39 be 54 8a c8 bc 4b ba 3d 3d 8e c9 52 3e
       -0.18094943 -0.024480022 0.04632024 0.205847
000050 20 d2 23 3f 1e fc 7f be 3a d5 15 3f ff 2c 24 bf
       0.639925 -0.24998519 0.5852848 -0.6413116
000060 49 7e 84 3e b2 5a a0 be ac c1 be be 81 c6 2b 3e
       0.25877598 -0.31319195 -0.37257135 0.16774942
000070 2d 70 fb be 76 3d 06 bf af 4a e6 3e 87 99 ad bd
       -0.4910902 -0.5243753 0.44978854 -0.08476549
000080 3a 63 fe 3d fb 01 12 bf 4b 73 a5 be 59 7c 91 bf
       0.1242127 -0.5703427 -0.32314524 -1.1366073
000090 26 03 69 be 42 47 c8 3e 28 99 ba 3e a5 2b 13 bf
       -0.22755107 0.39116865 0.36444974 -0.5748847
0000a0 fd 30 85 bf 9d 14 55 3e d4 6b 57 be 50 5e 05 bf
       -1.0405575 0.20808645 -0.21037227 -0.52097034
0000b0 1b 72 b2 3e 80 24 aa 3d 2f f2 0e bf 82 cb 91 bd
       0.3485268 0.08307743 -0.5583829 -0.07118894
0000c0 b8 53 4d 3f f1 bc 5b 3e a1 68 15 bf 49 65 d0 be
       0.8020587 0.21458794 -0.58362776 -0.40702274
0000d0 26 46 6c 3f 2b a8 44 3e 9e ca a4 be 16 bf 7d bf
       0.9229454 0.19204776 -0.32185835 -0.991197
0000e0 c3 f1 33 3f 7d d2 d9 3e d5 c7 94 3f 4b c9 b8 be
       0.70290774 0.42543402 1.1623484 -0.36091074
0000f0 34 c1 22 3e c5 0f 1f bf 47 b1 83 bc ea 29 c2 3e
       0.15894014 -0.6213344 -0.016075743 0.37922603

net.2.weight f4 [64, 64]
000000 d0 8e 29 bf 39 d6 6f 3d 9a 8b ac 3e 7c 27 36 3d
       -0.6623354 0.058553908 0.33700258 0.04447125
000010 02 2b 9a bc ef 69 a7 bd 7b f3 10 bd 94 11 82 be
       -0.018819336 -0.08174502 -0.03538845 -0.25404036
000020 39 17 cb 3e 17 d1 77 bf 22 27 53 3e 93 f5 a3 be
       0.39666155 -0.9680342 0.20620397 -0.32023296
000030 dc d3 f3 3d c9 ac 31 bf 55 9a 11 3d 9d f3 46 3e
       0.11905643 -0.69404274 0.035547573 0.19428869
000040 26 8e 03 3e 81 cb 8f bc 09 fe bd bf a3 20 23 bf
       0.12847194 -0.017553093 -1.484315 -0.63721675
000050 ef ee 72 bf 4f 5b 40 3e 1e 09 35 be 28 5d 99 bd
       -0.94895834 0.18784831 -0.17679259 -0.07488471
000060 51 a0 b3 3d f8 c8 e4 bd eb d6 63 bd ed 30 37 bd
       0.08770812 -0.11171144 -0.055624884 -0.044724394
000070 3b 0d 8f be d5 e7 bf bc ef 23 2d 3d ec ff 81 3d
       -0.27939782 -0.023425976 0.042270597 0.06347641
000080 7c 3e 91 3d 7c 55 51 bd 8a 28 ce 3d b0 dd 19 c0
       0.07091996 -0.051106915 0.10066326 -2.4041557
000090 2c 99 3b bc 52 6e c2 3e 08 ba af be fa 79 52 be
       -0.011450093 0.37974793 -0.34321618 -0.20554343
0000a0 c4 a4 b3 bf 7b bf 05 3f c9 f5 38 3e fd aa fb 3d
       -1.4034657 0.522453 0.1806251 0.12288473
0000b0 42 96 51 3d 1f e3 17 3e 2e f6 de 3d 27 08 68 3d
       0.051168688 0.14832734 0.10886799 0.0566484
0000c0 fc 71 d5 bf d8 1f 79 be 91 7b 95 bc 1a 8e bb bd
       -1.667541 -0.24328554 -0.018247398 -0.09157963
0000d0 3b bd 07 3e 9b 47 db 3d e6 7c b4 bd b0 d7 02 bd
       0.1325578 0.10707017 -0.08812885 -0.031943977
0000e0 d2 17 52 3e 6b b7 d0 3e ec 44 93 be 39 0c b9 bc
       0.20516899 0.40764937 -0.2876352 -0.022588836
0000f0 74 96 c1 3d 90 56 80 be 3d 29 11 bd f6 fa b1 3d
       0.09452525 -0.25066042 -0.03543972 0.08690445
000100 34 4d ba 3c 93 b1 93 be 9e 51 8b 3d 20 a6 f7 3b
       0.022741891 -0.28846416 0.068026766 0.0075576454
000110 46 e3 aa 3e 12 a7 49 be 8a 95 f5 3d f3 65 69 bc
       0.3337652 -0.19692639 0.11991413 -0.014245498
000120 9a a5 cc bd dc b4 be bd 4d 87 11 bc 64 cd 85 be
       -0.099925235 -0.0931184 -0.008882356 -0.26133263
000130 b6 f2 63 bd 46 f2 a9 3e 37 b1 bf 3e ef b1 0e 3e
       -0.05565139 0.33192652 0.37439892 0.13935064
000140 aa a1 f8 b9 04 06 9e bd 6e 96 98 3e 0c 04 b8 bc
       -0.00047422695 -0.07715991 0.2980227 -0.022462867
000150 03 3b 20 bd de e3 db 3d 3a 01 8a 3e 0a 0c 9e bd
       -0.039118778 0.107368216 0.2695406 -0.0771714
000160 94 b7 92 bd 70 09 50 3d a3 62 19 3d 81 24 78 3e
       -0.07163921 0.05079025 0.037447583 0.24232675
000170 42 68 ea be b9 37 8c 3e 90 a3 c8 3e dd c6 16 bf
       -0.45782667 0.27386263 0.39187288 -0.5889719
000180 71 62 cc 3d 60 22 74 bd 79 48 04 3c 66 d8 de 3c
       0.09979714 -0.059603095 0.008073919 0.027202796
000190 e7 22 41 be bb 31 70 3e e4 f2 7d 3e bc 15 2b 3e
       -0.1886097 0.2345647 0.24799687 0.1670751
0001a0 4a 91 a5 3c f1 0c 1e 3e 97 25 c0 3c f1 a3 7d be
       0.02021088 0.15434624 0.023455424 -0.2476957
0001b0 71 fb aa 3e ff f3 b3 3e 30 d9 8f 3d 3c b3 c6 3d
       0.3339496 0.35147092 0.07023847 0.09702155
0001c0 27 8c a0 3e 2f 8a 23 3e 8e 1a 0c 3d a1 43 9b bd
       0.31356928 0.15970682 0.034205012 -0.075812586
0001d0 2f a2 2d 3f cb 11 2e 3d a2 0b ad 3d f6 54 97 bd
       0.678256 0.042497437 0.084494844 -0.07389252
0001e0 69 de 31 3e 43 89 6c 3e 35 9a ed 3e 83 71 47 3e
       0.17369999 0.23099236 0.46406713 0.19476895
0001f0 bb 46 bf 3d 0a 43 d9 be 5b c4 21 3e 21 fe d0 3e
       0.09339663 -0.4243396 0.1579756 0.40818885
000200 42 44 fe bd 6f 0c 8e 3e 25 24 0d 3f 35 ce f0 3d
       -0.12415363 0.2774386 0.5513328 0.11758081
000210 9e 1a 6e 3e 8e 4a 8d 3e c6 50 21 bd df 91 fa 3c
       0.23252341 0.27595943 -0.039383672 0.030587135
000220 9a ce 19 bf ac a8 92 bc 84 6f 5f 3d 5d 1c e9 3e
       -0.60080874 -0.017902695 0.05454971 0.45529452
000230 88 7b d2 be b9 11 14 3d 1d 4a 27 be c1 10 ed 3d
       -0.41109872 0.036149714 -0.16336866 0.11575461
000240 93 97 8f bc a5 29 60 3d e6 cc 13 be 00 c9 cc bd
       -0.01752833 0.054727215 -0.14433631 -0.09999275
000250 10 bf b0 3d 84 6a 90 3e 05 e8 3e 3f bb 87 2b be
       0.08630192 0.28206265 0.74572784 -0.16750996
000260 04 3a b8 3e 8e 64 cb 3d 20 80 89 bd 61 f9 1a 3f
       0.35981762 0.09931289 -0.06713891 0.6053677
000270 fb 7e 6a be d6 8c 4e be b8 de d2 be f2 cf e5 3c
       -0.22900002 -0.20170912 -0.41185546 0.028053258
000280 e8 37 31 3d 4c 70 5d 3d e7 54 38 3b 93 a0 8a be
       0.043266207 0.054062173 0.0028126778 -0.27075633
000290 ab bc 27 3d 92 63 29 bf 86 76 83 3e 82 1d b7 3c
       0.040951412 -0.6616756 0.25676364 0.022352938
0002a0 43 3f 48 be bb 22 32 be a9 13 bc bd ed fd 0b 3e
       -0.19555382 -0.17396061 -0.091834374 0.13671084
0002b0 37 20 c9 3e f3 c4 5a bd 8c ec b6 bd 0d f8 80 3d
       0.3928239 -0.05341048 -0.089318365 0.06297312
0002c0 d6 9e e3 3c 2e 1f 0a be b5 d0 89 3e 4a 74 6a 3e
       0.0277857 -0.13488457 0.26917043 0.22895923
0002d0 68 86 a3 bd c0 ed 20 bc 47 d3 d4 3d a6 5c ae 3d
       -0.0798462 -0.009822309 0.103918605 0.08513765
0002e0 47 a3 d7 3c 32 12 7a 3e b8 dc 1c 3d a5 4d 25 be
       0.026322974 0.24421003 0.03829643 -0.161429
0002f0 8c 8b c7 3d 1b ce 47 3d b1 a3 bd 3d 3f 79 f3 3e
       0.09743413 0.048780542 0.09259737 0.4755344
000300 dc db a1 be 4e 48 9a 3d 7e 64 14 3f ce 16 58 bb
       -0.31613052 0.07533322 0.5796584 -0.0032972577
000310 4d 34 03 3e e2 dc 7c 3e 78 7f a7 bd f3 7c d2 3d
       0.1281292 0.24693635 -0.081786096 0.102777384
000320 9b 86 01 be 3d 1f 8b bd f7 12 e0 be f3 a8 fa be
       -0.12649004 -0.067930676 -0.4376447 -0.48957023
000330 f2 6b 8e be 8a e0 2d be 8e 97 65 3e 4b a2 e4 3c
       -0.2781673 -0.16980186 0.22421095 0.027909419
000340 ee 73 4d bf dd 33 78 be fc f3 ad 3c 11 1f 0c 3d
       -0.8025502 -0.24238534 0.021234505 0.034209315
000350 27 8d 5a bf 5d b7 3c 3e fd 4e cc 3e 7b 3a 85 be
       -0.8537163 0.18429323 0.39904013 -0.2602118
000360 82 80 19 3e 1e 6e ef bd 2c de 8f be c0 3d 02 bf
       0.14990428 -0.11690925 -0.2809919 -0.50875473
000370 ce cb 90 be 51 95 7e bf 80 bb 5b be 77 a4 a8 3c
       -0.2828049 -0.9944659 -0.21458244 0.020586235
000380 c5 b2 28 be 30 77 fd bd 04 20 d5 bd 1a f7 0e be
       -0.16474445 -0.12376249 -0.10406497 -0.1396145
000390 5b 7b c4 be 82 1a 2c be d4 ab 7f bf eb ad 15 3e
       -0.38375363 -0.16806987 -0.99871564 0.14617126
0003a0 a5 88 21 3e 38 c1 9c 3d 0f 61 70 bf 40 ff 88 bd
       0.15774782 0.07654041 -0.938981 -0.0668931
0003b0 4f 65 a2 3e 59 7c 0f bd 80 83 0d 3b 2b 19 45 bd
       0.31717917 -0.035030697 0.0021593273 -0.048119705
0003c0 e7 0a 00 3e c4 3a ad be 05 5b 36 3e 9e f4 5c 3d
       0.12504159 -0.33833897 0.17808159 0.053944223
0003d0 b9 ab 7d be 83 9e 3a be a5 39 8f 3d 2e 4c 34 3e
       -0.24772538 -0.1822453 0.06993417 0.17607185
0003e0 f0 d0 1c bf 0b 35 14 3c 74 76 37 be a3 a2 88 3d
       -0.61256313 0.00904585 -0.1791628 0.066716455
0003f0 a0 f5 27 3d aa 6e b0 3e c5 42 e6 3d 64 33 e0 3e
       0.04100573 0.3445943 0.11243204 0.43789208

net.2.bias f4 [64]
000000 5b f2 e5 3e 76 5b 6a 3e 37 fb cf 3d 8b 6c 90 3b
       0.44911465 0.22886452 0.10155337 0.0044074706
000010 97 3f 5e 3e e1 00 85 3d 60 aa eb 3b 3e 33 95 bc
       0.21703945 0.06494308 0.007191941 -0.01821291
000020 16 06 aa 3e 10 ac 7f bd 92 61 c2 3e c2 1f 52 3b
       0.33207768 -0.06241995 0.37965065 0.0032062386
000030 69 47 6a 3d 96 89 6e 3d 94 1f f1 3d 31 f3 7e 3e
       0.05719701 0.05823668 0.11773601 0.24897458
000040 f6 b6 18 be 3c 1a b3 3e 9f cc 5b 3e 03 34 9b bc
       -0.14913544 0.34980953 0.21464776 -0.0189457
000050 da 9a cc bd 10 1e ae 3e 08 d9 8f 3d 70 34 97 3e
       -0.09990473 0.3400731 0.07023817 0.29532194
000060 29 54 18 be 8f 0d 60 bc 49 30 0a 3f db 37 bf 3e
       -0.14875855 -0.013675108 0.5397993 0.37347302
000070 90 7f ce 3e 3b f3 8c bd 37 db 5c 3d ab 5c e5 bd
       0.40331697 -0.0688233 0.053919997 -0.11199316
000080 f6 30 72 be 44 ca bd 3e 26 c1 81 3d 03 89 b0 bb
       -0.2365149 0.3706838 0.06335668 -0.005387427
000090 87 67 25 be a1 75 34 3e 4d c4 8f 3e b2 2d 06 3e
       -0.16152774 0.17622997 0.28079453 0.13103369
0000a0 e8 1a 97 bd 78 a1 16 be 3d 4c c2 bc b0 08 7e be
       -0.07378179 -0.14710033 -0.023717994 -0.24808002
0000b0 4a 71 b1 3d 78 15 b4 3e a4 e2 b7 3e 41 df 06 be
       0.08664186 0.3517263 0.359151 -0.13171102
0000c0 26 49 a9 3d f4 62 25 3d 77 10 b4 3e c1 66 2f bd
       0.08265905 0.040377572 0.35168812 -0.042822603
0000d0 6a 41 95 bd ed 14 cf 3c 1b 74 c3 bc 5b 8f 0b be
       -0.07287867 0.025278533 -0.023859074 -0.13628905
0000e0 d0 16 9e be 40 6e 78 3d 56 28 bd 3c 97 cc 85 3e
       -0.3087678 0.060652018 0.023090523 0.26132652
0000f0 07 09 fb bd 2a 1f d9 3e 5f b9 8d 3d dd 7f d6 3c
       -0.12257581 0.4240659 0.06920122 0.026184017

net.4.weight f4 [4, 64]
000000 3d 4a bd 3f b0 d9 65 bc c9 92 f7 3e 17 4b bf 3e
       1.4788281 -0.0140289515 0.48354176 0.37361977
000010 13 22 d3 be 01 a4 c0 3c 66 f1 f7 3e 1a ba cf 3d
       -0.41236934 0.023515703 0.4842636 0.10142918
000020 7b 1c 95 bd 70 c0 37 3d 00 01 81 3e 41 b8 2d be
       -0.07280823 0.044861257 0.25196075 -0.16964819
000030 86 71 85 3d 70 2d 91 be 05 16 37 be 89 a3 45 be
       0.065157935 -0.2835498 -0.17879494 -0.19300665
000040 1e a7 dc bd 78 84 19 3f b9 40 9a 3d 7f 96 6f 3d
       -0.107740626 0.59967756 0.07531876 0.058493134
000050 1a d9 2e 3c 63 ce 23 3f a5 1b 76 3d 68 34 a3 bd
       0.010671878 0.63986796 0.060084958 -0.0796898
000060 18 52 36 3d ce 17 08 be 92 db 42 3f be 95 b5 3d
       0.044511884 -0.13290331 0.7611629 0.08866452
000070 8f dd 83 3e e5 73 86 be ea bc 78 3d 9c 55 ae 3c
       0.25754973 -0.26260296 0.060727037 0.021281056
000080 18 fe d0 ba 0c 9a a5 3e 6a 6f 9d be 85 7d b6 3d
       -0.0015944866 0.3234409 -0.30749065 0.0891066
000090 6b 3d cd bd dd 2e 84 bf c7 76 ee be b4 62 42 3d
       -0.1002148 -1.0326802 -0.46574995 0.047457412
0000a0 be 5f b8 bd b2 10 92 be c8 b6 86 3d 62 4f 86 be
       -0.090026364 -0.28528363 0.065778315 -0.2623244
0000b0 9d e2 38 be 40 3d f0 3d 44 a4 b4 3e f4 bd 49 bb
       -0.18055196 0.117304325 0.35281575 -0.0030783387
0000c0 aa eb 03 bd e9 25 2f bf c6 7f 86 3f aa 21 c4 bd
       -0.03220717 -0.6841722 1.0507743 -0.095767334
0000d0 5f 88 df bd 88 fd 5f bd 76 d2 20 3c 5b 83 b4 bd
       -0.109146826 -0.054685146 0.009815803 -0.088141166
0000e0 1a ea dc be e9 b4 c7 be 21 3f 85 bc 77 67 96 3e
       -0.43147355 -0.3900521 -0.016265454 0.29375812
0000f0 65 32 34 3b 98 51 b4 3e aa e2 f8 bd 62 a7 71 3d
       0.0027495858 0.352185 -0.12152608 0.05899752
000100 df a1 1c 3e 22 f0 b1 3e ad 43 1a 3e 09 fd ba 3d
       0.15296124 0.3475352 0.15064879 0.09130294
000110 01 88 3d bf 64 41 54 bd 79 8a 0c be da 05 74 bd
       -0.7403565 -0.051820174 -0.13724698 -0.059575893
000120 e5 fc db be 5b 96 df 3d dd 9d 15 3f e2 9d 04 bc
       -0.4296638 0.1091735 0.58444005 -0.008094283
000130 ac f7 26 bb c3 d2 a8 be eb 8e 41 be 31 8e 1d 3e
       -0.0025477214 -0.32973298 -0.18902175 0.15386273
000140 30 d4 56 bd 15 68 d6 3d 71 54 e1 3e 5e 80 83 3d
       -0.05244845 0.10469071 0.44009736 0.064209685
000150 cb 30 3b 3d b9 0f fc bc 3a f3 5a 3e 0f 20 1a 3e
       0.04570083 -0.030769216 0.21381846 0.15051292
000160 58 0b a5 3a e9 d6 6f 3f 1c db 11 3e 9b 64 a2 be
       0.0012591882 0.936873 0.1424374 -0.3171738
000170 9d 99 d8 3e 32 fa 07 be 13 93 b7 3e db e2 6d be
       0.42304698 -0.13279036 0.35854396 -0.2323107
000180 6d 67 61 be f9 a9 80 3e e4 ec 06 bd b5 96 22 bc
       -0.2201211 0.2512968 -0.03294076 -0.009923627
000190 af 4b ac bd 5b 2d 54 3e 63 a1 a5 be fc b1 7a 3e
       -0.08412873 0.20720427 -0.3234969 0.24481958
0001a0 9c 54 44 be 1a c5 10 3e bf e2 7d 3c eb 2d e6 3d
       -0.19172901 0.14137688 0.015495955 0.11239227
0001b0 46 8f 11 3f 1b 3e 9f 3e 5e 25 1d 3e 02 ac cc 3d
       0.5685924 0.3110207 0.15346286 0.099937454
0001c0 76 26 44 be 77 2e ed be 5b 59 71 3e 50 08 f7 bd
       -0.19155297 -0.46324512 0.23569243 -0.12062132
0001d0 4a c2 b5 bd c4 e9 3b be ca 95 a8 3e b8 3f 3d bd
       -0.08874948 -0.18350893 0.3292678 -0.046203345
0001e0 ca 5d 77 3e 71 39 c5 3d ec 90 c3 3c 40 e1 87 be
       0.24156871 0.09630097 0.023872815 -0.2653904
0001f0 7f 92 b0 bc 32 e5 1d 3e 34 51 04 3d 2e ec 02 3a
       -0.02155423 0.15419462 0.032304004 0.00049943
000200 5d 63 a5 be fa 16 70 3e 6e 46 d0 bc 08 06 80 bd
       -0.3230237 0.23446265 -0.025424208 -0.0625115
000210 3d 1a d5 3e 45 d6 78 bd bb 0e fe 3e 37 1e d6 bd
       0.4162158 -0.06075122 0.49620613 -0.10454982
000220 e6 21 76 bf 30 f9 fd 3c de 88 21 bd 87 f6 48 3e
       -0.96145475 0.03100261 -0.039437167 0.19625293
000230 5b e6 b6 3c ae 7c 64 3e 4e b4 81 bc bd 0f 12 3f
       0.022326639 0.22313187 -0.015833046 0.57055265
000240 f2 ad d1 bd 2c 0b 2e bd 81 a9 cc 3c 8d 10 8a bd
       -0.102382556 -0.042491123 0.02498317 -0.06741438
000250 53 e9 ad 3c 21 a7 78 3e c8 27 bb be 5c d3 89 3e
       0.021229422 0.24282505 -0.36553788 0.26919067
000260 95 41 3c bd e1 79 14 bf c4 ba 6e 3d c8 f3 79 bf
       -0.04596098 -0.5799847 0.058283582 -0.97637606
000270 52 55 1f bf 32 24 7b 3e 36 0b 91 3e 52 c8 13 3c
       -0.62239563 0.24525526 0.28328866 0.009019928
000280 49 a6 45 3e 93 31 e5 be f2 8a ae bc 34 f2 40 3c
       0.19301714 -0.44764385 -0.021306489 0.011776496
000290 68 1f d7 3d bd 2d 37 bf 84 d6 af 3e bb 44 2b 3c
       0.10504037 -0.71554166 0.3434335 0.010453398
0002a0 23 93 2b 3e ec 30 5b 3d 42 5d 0a 3b 31 25 e8 3e
       0.16755347 0.053513452 0.0021112715 0.45340875
0002b0 bc 59 20 3e 98 15 ff 3e d8 f5 84 3d b8 f6 da 3d
       0.15659231 0.49821162 0.064922035 0.10691589
0002c0 e7 75 ce 3c 00 67 53 bf f7 7f da 3e 76 11 03 3e
       0.025202705 -0.8257904 0.42675754 0.1279963
0002d0 81 45 49 3e 61 b8 53 bb 10 bf 90 3e 17 99 72 bc
       0.1965542 -0.0032305943 0.2827077 -0.014807007
0002e0 c4 2c 82 bf b4 c3 23 be 8e 0a 6d bd 6e 0d 71 3f
       -1.0169911 -0.15992624 -0.057871394 0.9416112
0002f0 ee 51 4f 3c 20 df ff 3e b3 03 11 bb 16 aa dc 3c
       0.012653811 0.49974918 -0.002212745 0.026936572
000300 c1 79 9b bf d6 42 e4 bd 2e 67 0d 3d 7d 30 5b 3e
       -1.2146531 -0.111455604 0.034522228 0.21405216
000310 2b 57 bb 3e 9b f0 30 bd 4f a3 80 3e c4 2b 36 3d
       0.3658994 -0.04319821 0.25124595 0.044475332
000320 8c 80 3d 3f 6c 18 0a 3d 30 e1 11 be f0 41 c3 3e
       0.7402427 0.033714697 -0.14246058 0.38136244
000330 02 ad c7 bd c0 7f 84 3e f6 4b 84 bf 20 4e 83 bd
       -0.097497955 0.25878716 -1.0335681 -0.064113855
000340 00 82 cf bc 98 7e c2 bc f8 e4 9f 3d 3d b7 15 bd
       -0.025330544 -0.023742005 0.07807344 -0.036551703
000350 d4 47 54 3c 8e 34 58 3e 78 af 91 3d 2e 5e b8 3d
       0.012956578 0.21113798 0.07113546 0.09002338
000360 9c 39 18 bd c0 f4 1e 3d fe 42 df 3e 8e 08 51 3f
       -0.037164316 0.03880763 0.43605798 0.8165368
000370 00 0b 18 bf 5c f4 45 3e 62 7f af 3d 9b f3 f1 3d
       -0.59391785 0.19331497 0.08569218 0.11814042
000380 95 86 89 3e 17 7b 3d 3f 79 a0 9a 3e 94 eb 94 bc
       0.2686049 0.74015945 0.30200556 -0.018178739
000390 f1 63 52 3b 01 82 76 bf 54 fc 6e 3f 89 5b a0 bd
       0.0032103027 -0.9629212 0.9335377 -0.07829959
0003a0 cf 95 bb 3e 87 b1 0a bf 55 e6 84 3c 01 70 3b 3e
       0.36637732 -0.54177135 0.016223112 0.18304445
0003b0 39 57 73 3e a5 d2 b4 3e cd 94 5b 3e 5c 03 2e bd
       0.23763742 0.3531696 0.21443482 -0.042483672
0003c0 d7 50 0b 3d ef ca 06 3e ce 81 be 3d 08 3b 01 bf
       0.03401264 0.1316335 0.09302102 -0.504807
0003d0 10 4d 86 3e d4 f8 17 3e cc 29 80 3e 47 0a 0c 3d
       0.2623067 0.14841014 0.25031888 0.03418949
0003e0 ea 61 a6 be 08 4b 64 bf 7b 34 8b bd e8 13 74 3f
       -0.32496578 -0.8917699 -0.06797119 0.95342875
0003f0 e2 11 b2 3d ac 9b 34 3f 9e 87 32 bc 65 83 ea 3c
       0.08694817 0.70550036 -0.0108965915 0.028627107

net.4.bias f4 [4]
000000 f3 1b 6c 3e 0f ae eb 3d a1 6f 9d 3e 4a 27 4e bd
       0.23057537 0.115078084 0.3074923 -0.050330438
