rl_agents/dqn_model_seed_123.pth (torch, 21913 bytes, 6 tensors)

net.0.weight f4 [64, 3]
-0.34423143 0.755193 -1.7035536 0.3602047 -0.7488468 0.13831434 -0.42442128 -1.1195769
-0.8502364 0.54444766 -0.19306073 0.6234546 -0.975349 -0.9523161 0.10217423 -0.024481947
-0.7416974 0.75953615 -0.1781598 0.06462498 -0.08733187 -0.09412557 -0.2918421 0.0809479
-1.1330494 0.35096362 0.07676925 0.77669084 0.49151677 -1.3636439 0.4894932 0.4132899
-0.09905869 0.72968704 0.3706316 -0.37799907 -0.9905682 0.26424235 -0.83395463 0.71512616
-0.38260064 -0.4215588 -0.050885167 1.2727418 -0.04442141 0.24582602 -0.52680814 0.45232317
0.5970246 0.5010006 -0.01730997 -0.0043272246 0.01786167 -0.13834402 -0.16058299 -0.9121284
-0.92580515 1.059648 0.47797427 -1.2305647 -0.008968568 0.5914674 -1.5997041 -1.1655834
-0.4386608 0.14825685 0.36259013 -0.7845065 -1.2884172 0.2435932 0.59854126 0.5378924
-0.68017006 -1.1205645 0.25852874 0.012966454 0.23667371 -0.5641586 0.0077116136 0.35155803
0.41588748 -0.028183833 0.13121705 -0.3343997 -0.5952953 -0.6064631 -0.7395393 0.85306925
0.1625829 0.22794062 -0.7336943 0.8150004 0.072890714 0.8448399 -0.45097932 0.07962494
0.5295836 0.5444451 0.20379736 -0.121234775 0.43987 -0.45219934 0.012701152 -0.28733543
-0.13464686 -0.3024072 0.35018104 0.80273336 0.15182103 -0.12806122 0.0080192285 -0.4767308
0.75873536 -0.17571059 -0.4140686 0.5533766 -1.238943 0.18122552 -0.10003563 0.46674973
-0.2492152 0.1983883 0.76937723 0.0464272 0.9958875 -0.6425058 -0.009128803 0.37453285
-0.01938987 0.46799836 -0.83105725 0.28186202 -0.19267611 -1.0777807 -0.12256015 -0.8575501
0.63424736 0.21013801 0.05655992 -0.17515117 0.0027762055 0.13218918 0.06258651 0.1347618
0.5487185 -0.11177657 -0.7790547 0.7488901 -0.39841694 -0.36152878 -1.1779028 -0.39595976
0.2158704 0.51145446 0.01119602 0.3134549 -0.26986971 -0.045814022 -0.30746928 0.067081094
0.10208906 -0.25047353 -0.96599585 0.40018573 0.6547731 0.41352603 -0.42819282 0.78107584
0.13252011 0.31208014 -0.14761302 -0.6455236 0.2067882 0.008796948 -0.35372674 -0.2624083
-1.0486697 -0.7219737 0.44724274 0.3371998 -0.025325358 -0.08519174 -0.12600283 -0.6751475
-0.71975964 -0.7354733 -0.011888576 0.083725035 0.28670418 -0.5402483 -0.9762177 -0.9653404
00000000: 1a3f b0be 5454 413f 0b0e dabf c06c b83e
00000010: 6db4 3fbf 46a2 0d3e bf4d d9be 4c4e 8fbf
00000020: 18a9 59bf ec60 0b3f b6b1 45be b89a 1f3f
00000030: 79b0 79bf fdca 73bf b940 d13d 5d8e c8bc
00000040: e1df 3dbf f670 423f 866f 36be 1a5a 843d
00000050: 0ddb b2bd e8c4 c0bd 546c 95be 03c8 a53d
00000060: c307 91bf 81b1 b33e 3239 9d3d 36d5 463f
00000070: 16a8 fb3e e28b aebf da9e fa3e bc9a d33e
00000080: 48df cabd c5cc 3a3f 6dc3 bd3e 1889 c1be
00000090: e195 7dbf c64a 873e 0d7e 55bf 8212 373f
000000a0: 3be4 c3be 8ed6 d7be f76c 50bd 34e9 a23f
000000b0: 39f3 35bd d1b9 7b3e e6dc 06bf e796 e73e
000000c0: 9bd6 183f 9341 003f a3cd 8dbc 64cb 8dbb
000000d0: a352 923c 0eaa 0dbe de6f 24be 3f81 69bf
000000e0: 9101 6dbf 8ca2 873f 0bb9 f43e 2583 9dbf
000000f0: e7f0 12bc 686a 173f 1bc3 ccbf d631 95bf
00000100: 2698 e0be a5d0 173e 6aa5 b93e 6bd5 48bf
00000110: dbea a4bf 7f70 793e 003a 193f 51b3 093f
00000120: a01f 2ebf a86e 8fbf e15d 843e 4071 543c
00000130: 985a 723e b36c 10bf b4b1 fc3b 6aff b33e
00000140: 34ef d43e c8e1 e6bc c35d 063e 7036 abbe
00000150: 4665 18bf 2a41 1bbf 7352 3dbf bf62 5a3f
00000160: 227c 263e 4469 693e 64d3 3bbf dea3 503f
00000170: ba47 953d 6d47 583f c3e6 e6be 6712 a33d
00000180: ca92 073f c160 0b3f 41b0 503e f049 f8bd
00000190: a436 e13e ac86 e7be 7e18 503c a11d 93be
000001a0: dee0 09be 1ed5 9abe ee4a b33e ef7f 4d3f
000001b0: f976 1b3e 7b22 03be 1563 033c 0f16 f4be
000001c0: 7b3c 423f 7aed 33be cd00 d4be 17aa 0d3f
000001d0: af95 9ebf 2f93 393e 7bdf ccbd d2f9 ee3e
000001e0: 4532 7fbe 4d26 4b3e e8f5 443f 732a 3e3d
000001f0: 7cf2 7e3f 437b 24bf fa90 15bc c5c2 bf3e
00000200: 81d7 9ebc 7b9d ef3e 2bc0 54bf 3850 903e
00000210: e34c 45be b8f4 89bf d100 fbbd 6788 5bbf
00000220: 095e 223f 6b2e 573e 60ab 673d d45a 33be
00000230: 00f1 353b 9a5c 073e 5b2d 803d fffe 093e
00000240: d178 0c3f 1deb e4bd 2170 47bf 43b7 3f3f
00000250: 4efd cbbe 4d1a b9be 85c5 96bf 3dbb cabe
00000260: 210d 5d3e aeee 023f 836f 373c 297d a03e
00000270: 5d2c 8abe 7ca7 3bbd 9d6c 9dbe d061 893d
00000280: 1214 d13d 113e 80be 814b 77bf 25e5 cc3e
00000290: 369f 273f afb9 d33e 173c dbbe 96f4 473f
000002a0: 5ab3 073e f8c8 9f3e de27 17be 0941 25bf
000002b0: 49c0 533e 1321 103c ac1b b5be 615a 86be
000002c0: cf3a 86bf 45d3 38bf 00fd e43e 74a5 ac3e
000002d0: 2077 cfbc 0279 aebd e306 01be 77d6 2cbf
000002e0: 2b42 38bf fa47 3cbf 4dc8 42bc 0878 ab3d
000002f0: e4ca 923e b64d 0abf 67e9 79bf 8c20 77bf

net.0.bias f4 [64]
0.39682025 0.15893413 -0.13468051 -0.90473115 0.6057862 -0.79613495 -0.2567383 -0.66624737
0.100564145 0.34093675 0.17848964 -0.5298034 -0.2204058 0.46838382 -0.12638374 -0.63516617
-0.12840363 -0.024480022 -0.1711463 0.35374138 0.19814135 -0.31881776 0.6038845 -0.8632202
0.27124768 -0.31319195 -0.45719066 -0.16100374 -0.61214066 -0.41122642 0.5075055 -0.15800317
0.10173364 -0.5703427 -0.32314524 -1.3020139 -0.3065747 0.4016118 0.10333271 -0.7636348
-1.2909395 0.27370003 -0.3868309 -0.3989018 0.23459034 -0.0014139484 -0.5583829 -0.62427217
0.80264574 0.3094661 -0.660105 -0.84070265 0.9101829 -0.18058021 -0.42520905 -1.2500775
0.57442904 0.207997 1.4597133 -0.57614684 -0.114811875 -0.680652 -0.31667066 0.39465398
00000000: 062c cb3e a1bf 223e b0e9 09be 769c 67bf
00000010: ce14 1b3f 80cf 4bbf 3473 83be 308f 2abf
00000020: 93f4 cd3d 438f ae3e fdc5 363e 32a1 07bf
00000030: 0fb2 61be 01d0 ef3e bd6a 01be 409a 22bf
00000040: 3e7c 03be 548a c8bc fa40 2fbe 971d b53e
00000050: 91e5 4a3e 153c a3be 2d98 1a3f 00fc 5cbf
00000060: fae0 8a3e b25a a0be e514 eabe 2ade 24be
00000070: 40b5 1cbf 458c d2be e1eb 013f 95cb 21be
00000080: ba59 d03d fb01 12bf 4b73 a5be 64a8 a6bf
00000090: 5cf7 9cbe 10a0 cd3e 1aa0 d33d 927d 43bf
000000a0: 813d a5bf 6922 8c3e b30e c6be db3c ccbe
000000b0: 7338 703e 3c54 b9ba 2ff2 0ebf 4dd0 1fbf
000000c0: 317a 4d3f 5772 9e3e a4fc 28bf 4a38 57bf
000000d0: bf01 693f 05ea 38be 00b5 d9be 8a02 a0bf
000000e0: c80d 133f 2afd 543e e3d7 ba3f 5c7e 13bf
000000f0: 7d22 ebbd 363f 2ebf a822 a2be 1610 ca3e

net.2.weight f4 [64, 64]
-0.638334 0.21816663 0.43717796 0.19914955 0.03763049 0.07046832 -0.12267991 -0.1173234
0.2403915 -1.3691176 0.42321262 -0.8708448 0.092055626 -1.1765238 -0.13834938 0.26828593
0.13847399 -0.017553093 -1.818259 -0.777846 -0.9928998 0.16505511 -0.5048553 -0.4030433
0.16582115 -0.11171144 -0.30365512 -0.09339956 -0.6424558 -0.0106842555 -0.011111588 0.19467673
0.1227444 -0.051106915 0.10066326 -3.1463583 0.06898436 0.31577644 -0.46749958 -0.22283876
-1.964199 0.63934845 0.0912916 0.3529219 0.06614366 0.02056805 0.10886799 -0.15025812
-2.1637235 -0.41569495 -0.060597554 -0.16761422 0.11730446 -0.19271421 -0.030560523 0.15979996
0.24780616 0.30308747 -0.7537378 -0.17166816 0.18026377 -0.5357629 -0.031527065 0.014797965
-0.27088898 -0.93546987 0.3235463 0.011020082 0.23672478 -0.10043056 -0.1521532 -0.088981785
-0.14317375 -0.3510201 0.08330337 0.09618306 -0.18599339 0.06548783 0.33267996 -0.7427622
0.2009679 -0.07715991 0.28865916 -0.16914168 -0.20659511 0.11316649 0.14212902 -0.023082523
-0.13974321 0.05079025 0.04209305 0.10339451 -0.7798958 0.42053443 0.39350954 -1.261881
0.20286976 -0.059603095 0.008073919 0.10950078 -0.17585348 0.15249088 -0.15620081 -0.40110838
0.103810735 0.085901804 -0.09976427 -1.5852078 0.022140313 0.3391855 0.07023847 -0.0736143
0.1640987 -0.16136467 0.042907424 -0.0043263747 0.48797 0.136266 0.12136726 -0.21054855
0.08821068 0.17190483 0.24341099 0.1540873 0.2964063 -0.66845495 0.09952712 0.44148898
0.77113026 0.24652115 0.68348336 0.064194776 0.27790937 0.16803458 0.18317866 -0.020792635
-1.0324652 -0.5205133 -0.54868186 -0.08362915 -0.22976018 -0.13870126 -0.548121 0.05083393
0.032591693 0.054727215 0.008969298 -0.50407404 0.88353324 0.122601606 0.77528167 -0.8578675
0.39283416 0.09931289 -0.25210226 0.68801665 0.062898174 -0.9023513 -0.9928029 -0.06868032
-0.32106915 0.054062173 0.0028126778 -0.47619152 0.07058248 -0.7535272 0.8946703 -0.09245221
-0.41372102 0.8966496 -0.54854995 0.08597686 0.42209855 -0.42563438 -0.089318365 -0.020556709
-0.0038961396 -0.2595348 0.08537203 -0.017338514 -0.038211726 -0.37234217 -0.03258371 0.07814051
-0.28842148 0.018908983 0.10252554 -0.5851591 0.071599 0.19540143 -0.15840629 0.6175529
-0.31613052 0.10911121 0.4091241 0.14726168 0.24176992 0.26750594 -0.27822977 0.24088109
-0.6988749 -0.2034983 -0.542573 -0.9248891 -0.41509268 -0.672294 0.29349092 0.14122306
-1.2975209 -0.24238534 -0.27317634 0.46721572 -1.0004452 0.38987663 -0.4949171 -0.69723874
0.21117601 -0.11690925 -0.67861396 -0.5823398 -0.42923483 -1.7038193 -1.4201291 0.065284915
-0.17429425 -0.12376249 -0.10406497 -0.12809016 -0.42079738 -0.40391314 -1.2292384 0.1371547
0.059090745 -0.20438153 -0.7183628 0.038898863 0.30474347 -0.6178202 0.0021593273 0.27981806
-0.6557447 1.0171636 0.47931033 0.12794419 -0.123548135 -0.2423201 0.53649074 0.33379573
-0.25087872 -0.032556348 -0.8250887 -1.0954655 -0.028420612 0.2172626 0.07278145 0.80893695
00000000: db69 23bf 1367 5f3e cad5 df3e dced 4b3e
00000010: 6e22 1a3d b251 903d 9b3f fbbd 4047 f0bd
00000020: 3029 763e 3f3f afbf 53af d83e afef 5ebf
00000030: a987 bc3d 5598 96bf 76ab 0dbe c65c 893e
00000040: 20cc 0d3e 81cb 8fbc b6bc e8bf ea20 47bf
00000050: ae2e 7ebf 3504 293e 323e 01bf b15b cebe
00000060: 05cd 293e f8c8 e4bd af78 9bbe 4548 bfbd
00000070: fc77 24bf 040d 2fbc 610d 36bc 5659 473e
00000080: 6a61 fb3d 7c55 51bd 8a28 ce3d ef5d 49c0
00000090: ac47 8d3d 73ad a13e 1b5c efbe d82f 64be
000000a0: df6a fbbf 57ac 233f 17f7 ba3d 2eb2 b43e
000000b0: 5476 873d 547e a83c 2ef6 de3d 44dd 19be
000000c0: 727a 0ac0 f8d5 d4be 2435 78bd 10a3 2bbe
000000d0: 523d f03d e056 45be 105a fabc 9aa2 233e
000000e0: e6c0 7d3e 482e 9b3e f6f4 40bf c7c9 2fbe
000000f0: 1197 383e c227 09bf 8622 01bd 2a73 723c
00000100: f6b1 8abe f47a 6fbf dca7 a53e 938d 343c
00000110: fb67 723e 8aae cdbd 0cce 1bbe 153c b6bd
00000120: 249c 12be e8b8 b3be f59a aa3d a0fb c43d
00000130: 0d75 3ebe 7c1e 863d 0755 aa3e aa25 3ebf
00000140: 87ca 4d3e 0406 9ebd 22cb 933e 7a33 2dbe
00000150: ab8d 53be d5c3 e73d 458a 113e 8f17 bdbc
00000160: d818 0fbe 7009 503d c369 2c3d 80c0 d33d
00000170: 40a7 47bf 4a50 d73e 157a c93e 5185 a1bf
00000180: 17bd 4f3e 6022 74bd 7948 043c f241 e03d
00000190: ef12 34be 9226 1c3e 1bf3 1fbe 145e cdbe
000001a0: b99a d43d 49ed af3d 3651 ccbd 17e8 cabf
000001b0: 9a5f b53c b9a9 ad3e 30d9 8f3d 18c3 96bd
000001c0: 7d09 283e c83c 25be b2bf 2f3d 43c4 8dbb
000001d0: 34d7 f93e 5089 0b3e 668f f83d 0a9a 57be
000001e0: cda7 b43d d207 303e bb40 793e 10c9 1d3e
000001f0: 91c2 973e dd1f 2bbf e0d4 cb3d d80a e23e
00000200: cb68 453f 0a70 7c3e c4f8 2e3f 8d78 833d
00000210: 234a 8e3e 4211 2c3e 3093 3b3e 5155 aabc
00000220: d227 84bf 5c40 05bf 6a76 0cbf c345 abbd
00000230: 4146 6bbe b407 0ebe a851 0cbf 3d37 503d
00000240: de7e 053d a529 603d f6f3 123c ff0a 01bf
00000250: 3c2f 623f 8d16 fb3d dc78 463f 349d 5bbf
00000260: 8f21 c93e 8e64 cb3d 8c13 81be dc21 303f
00000270: c2d0 803d 7f00 67bf 5528 7ebf 45a8 8cbd
00000280: 2d63 a4be 4c70 5d3d e754 383b 60cf f3be
00000290: 8c8d 903d 29e7 40bf 1d09 653f 9657 bdbd
000002a0: 3ed3 d3be d48a 653f c56d 0cbf a314 b03d
000002b0: 4d1d d83e c0ec d9be 8cec b6bd 8b66 a8bc
000002c0: 6056 7fbb bfe1 84be 88d7 ae3d 8009 8ebc
000002d0: e683 1cbd a2a3 bebe 7f76 05bd 2208 a03d
000002e0: fbab 93be 03e7 9a3c e9f8 d13d fdcc 15bf
000002f0: 7fa2 923d 5017 483e 4235 22be f217 1e3f
00000300: dcdb a1be b375 df3d b778 d13e c4cb 163e
00000310: 8992 773e 8af6 883e 2274 8ebe 88a9 763e
00000320: 77e9 32bf dc61 50be 10e6 0abf 88c5 6cbf
00000330: 0787 d4be 761b 2cbf 7144 963e c79c 103e
00000340: 2a15 a6bf dd33 78be c5dd 8bbe e636 ef3e
00000350: 970e 80bf e99d c73e c665 fdbe 3d7e 32bf
00000360: 863e 583e 1e6e efbd a5b9 2dbf 3914 15bf
00000370: abc4 dbbe c016 dabf cac6 b5bf 19b4 853d
00000380: 317a 32be 3077 fdbd 0420 d5bd 112a 03be
00000390: c172 d7be b4cd cebe af57 9dbf 4872 0c3e
000003a0: 2309 723d 6449 51be a0e6 37bf 6a54 1f3d
000003b0: 5607 9c3e 7729 1ebf 8083 0d3b 5044 8f3e
000003c0: e2de 27bf 6b32 823f 2a68 f53e cd03 033e
000003d0: ce06 fdbd c322 78be 7557 093f 46e7 aa3e
000003e0: 2d73 80be ce59 05bd 0339 53bf 3738 8cbf
000003f0: 58d2 e8bc 167a 5e3e 710e 953d 7e16 4f3f

net.2.bias f4 [64]
0.6607995 0.29443753 0.12979639 -0.03751597 0.40046957 0.06494308 0.21840912 -0.01821291
0.4982103 -0.06241995 0.42196006 0.106464274 0.034769095 -0.06089477 0.27444792 0.27930686
-0.14913544 0.40133074 0.42449284 -0.05070572 -0.09990473 0.56882286 0.13014092 0.24202684
-0.14875855 -0.14410967 0.86592764 0.43646142 0.45496997 -0.11268743 0.2863143 -0.07047971
-0.51533103 0.7422306 0.061529376 -0.041336205 -0.16152774 0.27366236 0.42626694 0.14407445
0.1574578 -0.28028896 -0.023717994 -0.3018639 0.3958528 0.5188955 0.36702046 -0.16430812
0.05093873 3.0815994e-05 0.29514712 0.167689 0.02141156 0.025278533 0.19544783 -0.13628905
-0.559921 0.19297919 -0.008667105 0.24575725 -0.12257581 0.7142873 0.06920122 0.026184017
00000000: 282a 293f 84c0 963e 58e9 043e 59aa 19bd
00000010: 590a cd3e e100 853d a4a6 5f3e 3e33 95bc
00000020: 6c15 ff3e 10ac 7fbd 260b d83e f109 da3d
00000030: 0a6a 0e3d cb6c 79bd 7084 8c3e 4f01 8f3e
00000040: f6b6 18be 397b cd3e 2057 d93e cdb0 4fbd
00000050: da9a ccbd 609e 113f a943 053e e2d5 773e
00000060: 2954 18be 7c91 13be 6fad 5d3f df77 df3e
00000070: d3f1 e83e abc8 e6bd ca97 923e ab57 90bd
00000080: bcec 03bf d302 3e3f 3a06 7c3d 2750 29bd
00000090: 8767 25be 791d 8c3e a93f da3e 4188 133e
000000a0: 9e3c 213e 0982 8fbe 3d4c c2bc e88d 9abe
000000b0: 38ad ca3e 56d6 043f 1bea bb3e 6340 28be
000000c0: 21a5 503d 6c40 0138 861d 973e aab6 2b3e
000000d0: 4c67 af3c ed14 cf3c 7a23 483e 5b8f 0bbe
000000e0: fc56 0fbf 569c 453e 7900 0ebc caa7 7b3e
000000f0: 0709 fbbd 88db 363f 5fb9 8d3d dd7f d63c

net.4.weight f4 [4, 64]
1.2779751 0.11081186 0.40398067 -0.01682915 -0.5187495 0.023515703 0.5153791 0.10142918
0.44582525 0.044861257 0.43412074 -0.008438889 0.065157935 -0.22252102 -1.391963 -0.1148475
-0.107740626 0.6351374 0.54706013 0.058493134 0.010671878 0.58236563 -0.5295133 0.62208754
0.044511884 0.06886559 1.043821 0.73595583 -0.045370575 -0.50430244 0.38943493 0.2149354
0.014846372 -0.0074090827 0.8818771 0.055023547 -0.1002148 -1.1544418 -0.34404403 0.10926915
-0.12353377 -0.18839094 0.065778315 0.40087283 -0.058827877 -0.07547724 0.13296036 -0.025922973
-0.03220717 -0.43622005 1.3495165 0.18279162 -0.23042078 -0.054685146 -0.102596715 -0.088141166
-0.36625966 -0.9223366 0.01475123 0.37400588 0.0027495858 0.34437168 -0.12152608 0.05899752
0.06012642 0.31681332 0.42061394 1.6067744 -0.91172826 -0.051820174 -0.19284254 -0.059575893
-0.42087486 0.1091735 0.5879723 -0.001084049 0.028490879 -0.087140664 -0.006555342 0.41207033
-0.05244845 0.3489903 0.44492686 0.064209685 0.04570083 -0.088195555 -0.8574277 -0.055585764
0.0012591882 1.2912495 0.322654 0.4426302 0.5097368 -0.07210519 0.46363056 -0.58767897
2.207753 0.2569114 0.469612 0.021840708 -0.08412873 0.95928144 0.20638911 0.51725525
-0.3216697 0.0717543 0.015495955 0.10344409 0.7452797 0.42268148 0.36223248 0.12075352
-0.19155297 0.4827498 0.47073817 -0.28162748 3.4543482e-05 -0.18350893 0.3822504 -0.046203345
0.20860201 0.4935631 0.023872815 -0.10380651 -0.02155423 0.21806417 0.032304004 0.00049943
-0.23315714 0.18679173 -0.068083994 0.67329746 0.27764088 -0.06075122 0.46377283 -0.10454982
-1.0368505 0.03100261 -0.23881184 0.25259984 -0.0035441334 0.54061276 0.55923957 0.6832527
-0.102382556 0.12632574 0.020092128 -0.06741438 0.021229422 0.07300996 -1.9090714 0.04816753
-0.04596098 -0.31656843 0.21037507 0.5332724 -0.11852116 0.54253024 0.28911108 0.5276945
0.357692 -0.8537581 0.12455566 0.020192679 0.10504037 -0.42634806 0.40743887 1.0911033
0.256532 0.05210552 0.0021112715 0.5306893 0.20430101 0.46012384 -0.21590656 0.10691589
-0.002043408 -0.63755846 0.9179537 0.29944143 0.17179064 -0.0032305943 0.28833854 -0.014807007
-1.3159674 -1.6501973 -0.057871394 0.9909174 0.012653811 0.5442126 -0.002212745 0.026936572
-1.6149527 -0.2682814 -0.009152026 -0.7376446 0.38291338 -0.04319821 0.3315549 0.044475332
0.712129 0.033714697 -0.09782463 0.4890521 -0.097497955 0.29115227 -0.9127017 0.018618228
-0.025330544 -0.026269542 0.059590578 -0.0068754186 0.012956578 0.34182993 -0.08361793 -0.25448355
-0.037164316 0.08709564 0.53215086 0.8339104 -0.31784824 0.11373408 0.27574426 -0.13105005
-0.050022196 0.87294334 0.03961398 -0.00021884104 0.0032103027 -0.5404285 1.1255351 -0.095794655
0.49236664 -0.83942914 0.016223112 0.24792871 0.439292 0.16998783 0.17933442 0.005384549
0.03401264 0.44066006 0.17827816 -1.9022702 0.29472518 0.14841014 0.3741745 0.03418949
-0.37431145 -1.3194706 -0.06797119 0.36794707 0.08694817 0.6637881 -0.0108965915 0.028627107
00000000: b094 a33f 54f1 e23d 8ed6 ce3e 49dd 89bc
00000010: c4cc 04bf 01a4 c03c e2ef 033f 1aba cf3d
00000020: 3543 e43e 70c0 373d 1345 de3e 4443 0abc
00000030: 8671 853d 8ddc 63be d82b b2bf 2b35 ebbd
00000040: 1ea7 dcbd 5d98 223f 220c 0c3f 7f96 6f3d
00000050: 1ad9 2e3c ea15 153f 2f8e 07bf 2141 1f3f
00000060: 1852 363d 6709 8d3d ed9b 853f 9a67 3c3f
00000070: 7fd6 39bd f719 01bf 0464 c73e 0718 5c3e
00000080: 333e 733c e4c7 f2bb b3c2 613f 5f60 613d
00000090: 6b3d cdbd c0c4 93bf 8a26 b0be 81c8 df3d
000000a0: 46ff fcbd 8ee9 40be c8b6 863d 343f cd3e
000000b0: 80f5 70bd d093 9abd c326 083e 6a5c d4bc
000000c0: aaeb 03bd 3c58 dfbe f5bc ac3f ba2d 3b3e
000000d0: 6df3 6bbe 88fd 5fbd 3a1e d2bd 5b83 b4bd
000000e0: 6386 bbbe 401e 6cbf 25af 713c b37d bf3e
000000f0: 6532 343b 7c51 b03e aae2 f8bd 62a7 713d
00000100: 1f47 763d 5b35 a23e b65a d73e c9aa cd3f
00000110: 0667 69bf 6441 54bd 8478 45be da05 74bd
00000120: e97c d7be 5b96 df3d 5a85 163f a616 8eba
00000130: b465 e93c ce76 b2bd 32ce d6bb e2fa d23e
00000140: 30d4 56bd dbae b23e 74cd e33e 5e80 833d
00000150: cb30 3b3d df9f b4bd 6280 5bbf e6ad 63bd
00000160: 580b a53a aa47 a53f e832 a53e 6da0 e23e
00000170: 1c7e 023f e3ab 93bd fc60 ed3e 2172 16bf
00000180: d34b 0d40 e489 833e fc70 f03e 49eb b23c
00000190: af4b acbd 7893 753f ab57 533e d76a 043f
000001a0: e4b1 a4be ebf3 923d bfe2 7d3c 7fda d33d
000001b0: a7ca 3e3f b569 d83e 8976 b93e 9f4d f73d
000001c0: 7626 44be fb2a f73e 9804 f13e 7a31 90be
000001d0: c8e2 1038 c4e9 3bbe 53b6 c33e b83f 3dbd
000001e0: c49b 553e 4db4 fc3e ec90 c33c 8298 d4bd
000001f0: 7f92 b0bc 374c 5f3e 3451 043d 2eec 023a
00000200: bfc0 6ebe 5546 3f3e 9f6f 8bbd 395d 2c3f
00000210: f226 8e3e 45d6 78bd a273 ed3e 371e d6bd
00000220: 84b7 84bf 30f9 fd3c 178b 74be c454 813e
00000230: b144 68bb 9965 0a3f 532a 0f3f a6e9 2e3f
00000240: f2ad d1bd 895b 013e 3f98 a43c 8d10 8abd
00000250: 53e9 ad3c 3f86 953d 745c f4bf 514b 453d
00000260: 9541 3cbd 4215 a2be 906c 573e 8a84 083f
00000270: 39bb f2bd 43e3 0a3f 5e06 943e fd16 073f
00000280: 6823 b73e e48f 5abf 0a17 ff3d 1e6b a53c
00000290: 681f d73d 4b4a dabe d49b d03e 46a9 8b3f
000002a0: 2a58 833e 996c 553d 425d 0a3b 41db 073f
000002b0: 4934 513e 5a95 eb3e 9c16 5dbe b8f6 da3d
000002c0: b3ea 05bb 0837 23bf 04ff 6a3f 6350 993e
000002d0: e3e9 2f3e 61b8 53bb 1ca1 933e 1799 72bc
000002e0: 9f71 a8bf aa39 d3bf 8e0a 6dbd c3ac 7d3f
000002f0: ee51 4f3c 8451 0b3f b303 11bb 16aa dc3c
00000300: c5b6 cebf 2e5c 89be 61f2 15bc 47d6 3cbf
00000310: 390d c43e 9bf0 30bd 90c1 a93e c42b 363d
00000320: 164e 363f 6c18 0a3d 4858 c8bd 0965 fa3e
00000330: 02ad c7bd e911 953e d2a6 69bf 4185 983c
00000340: 0082 cfbc 3933 d7bc 4015 743d 314b e1bb
00000350: d447 543c 5504 af3e e13f abbd ab4b 82be
00000360: 9c39 18bd 335f b23d 0a3b 083f 277b 553f
00000370: 01bd a2be 6aed e83d 5a2e 8d3e fc31 06be
00000380: 13e4 4cbd 3779 5f3f 4542 223d b278 65b9
00000390: f163 523b 8659 0abf 8911 903f fd2f c4bd
000003a0: 7b17 fc3e d4e4 56bf 55e6 843c 06e1 7d3e
000003b0: e2ea e03e 4a11 2e3e 71a3 373e df70 b03b
000003c0: d750 0b3d 329e e13e 8d8e 363e 977d f3bf
000003d0: 38e6 963e d4f8 173e cd93 bf3e 470a 0c3d
000003e0: c0a5 bfbe 6ae4 a8bf 7b34 8bbd 8f63 bc3e
000003f0: e211 b23d 04ee 293f 9e87 32bc 6583 ea3c

net.4.bias f4 [4]
0.48198104 0.43124983 0.46182272 0.20028651
00000000: 38c6 f63e c7cc dc3e 0774 ec3e e817 4d3e
