rl_agents/dqn_model_seed_999.pth (torch, 21913 bytes, 6 tensors)

net.0.weight f4 [64, 3]
0	0x3e51f878	0.2050494
1	0x3e350618	0.17678106
2	0xbf064a71	-0.5245734
3	0x3f1b59b1	0.60683733
4	0x3db2db68	0.08733255
5	0x3f6d4370	0.92681026
6	0x3f0897ad	0.5335644
7	0xbf710e32	-0.94162285
8	0xbec70420	-0.38870335
9	0x3eef6a74	0.46760905
10	0xbf9f0a7c	-1.2425075
11	0xbd08881e	-0.033332936
12	0x3de54c9b	0.11196252
13	0x3f36c3ca	0.713925
14	0x3f67f079	0.9060131
15	0xbf40f0bb	-0.75367326
16	0x3f7ccfd1	0.987546
17	0xbecfbe5c	-0.4057492
18	0x3e7f9f38	0.24963081
19	0xbf6ebe3e	-0.93259037
20	0xbf4fd3b5	-0.81182414
21	0x3e914d57	0.28379318
22	0x3f1fa57b	0.6236188
23	0x3dfb9190	0.12283623
24	0x3f9cbf4d	1.224588
25	0x3da100bd	0.07861469
26	0x3de87ae9	0.11351568
27	0xbf7b260d	-0.98104936
28	0xbf2c609d	-0.6733492
29	0x3e0ad3f5	0.13557418
30	0xbc9786f6	-0.018496972
31	0xbf3b964d	-0.73276216
32	0x3e5dc3e6	0.2165676
33	0xbd234a10	-0.039865553
34	0x3e82bbbc	0.25533855
35	0xbe1ef2de	-0.15522334
36	0x3c4342ee	0.011917813
37	0x3ed68bbd	0.41903487
38	0xbe998f27	-0.2999203
39	0xba4e786e	-0.0007876222
40	0x3c833744	0.016017564
41	0x3d74b3fe	0.059741966
42	0xbf1d69ad	-0.61489373
43	0x3f65c7f3	0.89758223
44	0x3ed468f4	0.41486323
45	0x3edb0e9a	0.42784578
46	0x3eaaf542	0.33390242
47	0xbea51471	-0.32242158
48	0xbc9d28e7	-0.019184543
49	0x3ed278a6	0.41107672
50	0x3d0060d8	0.031342357
51	0x3f1397ef	0.5765371
52	0xbf5ae074	-0.8549874
53	0xbeb9631f	-0.36208436
54	0x3e5050cf	0.20343326
55	0x3eb0ccb6	0.34531182
56	0x3f16d200	0.58914185
57	0x3e2a0053	0.16601686
58	0xbf2ed6c7	-0.68296474
59	0xbead3136	-0.33826607
60	0xbf30e6e0	-0.6910229
61	0xbf541bc3	-0.8285486
62	0xbf22d0d6	-0.6359991
63	0x3f4b806b	0.79492825
64	0xbe8e5f60	-0.2780714
65	0xbf11a779	-0.5689617
66	0xbe9cf649	-0.3065665
67	0x3f1e14c9	0.61750466
68	0xbd113edf	-0.03546035
69	0xbe46763b	-0.19381039
70	0xbd9f8326	-0.077886865
71	0x3eeacfc1	0.4586163
72	0xbd959d68	-0.073054135
73	0x3f5c63b8	0.8608966
74	0x3ef913a5	0.486478
75	0x3e975584	0.2955743
76	0xbe900cdf	-0.2813482
77	0xbedc9dbe	-0.43089098
78	0xbefe404e	-0.49658436
79	0x3f27a967	0.6549286
80	0xbf8e2249	-1.1104213
81	0xbf38c467	-0.72174686
82	0x3f855c28	1.0418749
83	0xbe748019	-0.2387699
84	0xbe84fc73	-0.25973853
85	0x3e97e5f9	0.29667643
86	0xbd6f4d18	-0.05842313
87	0x3f4039b5	0.75088054
88	0xbd66399b	-0.05620728
89	0xbec9929e	-0.39369673
90	0x3ec93dab	0.3930486
91	0xbe5d0821	-0.21585132
92	0x3f0fa49e	0.5611056
93	0xbd99fdc5	-0.07519106
94	0xbec6eb3e	-0.3885135
95	0xbf5c05b2	-0.8594619
96	0x3e08fa03	0.13376622
97	0xbf43b3da	-0.76446307
98	0xbfc22851	-1.5168554
99	0xbf60e4f8	-0.8784938
100	0x3e17c3b1	0.14820744
101	0xbdd656f7	-0.10465806
102	0x3e9ff7d3	0.31243762
103	0x3d171d35	0.03689309
104	0x3eab177b	0.33416352
105	0xbee9c413	-0.45657405
106	0xbc5d827b	-0.0135198785
107	0xbf53d8ad	-0.82752496
108	0xbfc136e0	-1.5094872
109	0xbdd6dcae	-0.1049131
110	0xbe3e07f1	-0.18557717
111	0xbc09b180	-0.008404136
112	0x3ef61a1c	0.48066795
113	0xbef2e2f6	-0.47438782
114	0xbf2cc790	-0.6749201
115	0xbf30b5d4	-0.6902745
116	0x3d0eb533	0.034840774
117	0x3f8e3234	1.1109071
118	0xbf21e687	-0.6324238
119	0xbec5adbd	-0.38609114
120	0xbf0fc20f	-0.56155485
121	0xbdf936bb	-0.12168642
122	0x3e0d50f0	0.13800406
123	0xbe87cede	-0.26525015
124	0xbe1f1fe6	-0.15539512
125	0xbf18179f	-0.5941104
126	0xbf4be32c	-0.7964351
127	0x3ee43b7e	0.4457664
128	0xbf927916	-1.1443202
129	0x3e187a24	0.14890343
130	0x3f61815b	0.88088006
131	0xbfb464f8	-1.4093313
132	0x3f3b1b98	0.7308898
133	0x3f3bc028	0.7334008
134	0xbd3b2608	-0.045690566
135	0xbf84fa23	-1.0388836
136	0xbf230663	-0.6368162
137	0xbf1c5953	-0.610738
138	0x3d2e3aa9	0.04253641
139	0xbf54f20f	-0.8318185
140	0x3ee22913	0.44171962
141	0x3f45346c	0.77033114
142	0x3e8d5d15	0.27610078
143	0xbeb46d0a	-0.3523944
144	0x3f2d938d	0.6780327
145	0xbf460e24	-0.77365327
146	0x3ef4532f	0.47719714
147	0x3f2843ac	0.6572826
148	0xbe68577c	-0.22689623
149	0x3ea71c3c	0.3263873
150	0x3dfe985e	0.124314055
151	0x3f22ba1f	0.6356525
152	0xbd7648c0	-0.060127974
153	0x3ea4b66c	0.32170427
154	0x3e73691e	0.23770568
155	0xbf09af8c	-0.5378349
156	0xbf7a1669	-0.97690445
157	0xbe8cf098	-0.27527308
158	0x3e82d282	0.2555123
159	0xbf94a610	-1.1613178
160	0x3e6f39f0	0.23361945
161	0xbe272ac1	-0.16324903
162	0xbf34ca57	-0.70621246
163	0xbe240af5	-0.16019805
164	0xbecb6a8a	-0.3972972
165	0xbf3ed0b7	-0.74537224
166	0x3f66485b	0.89954156
167	0x3efadd74	0.4899708
168	0xbea0c63c	-0.3140124
169	0xbe3389df	-0.17533062
170	0x3f2400ea	0.64063895
171	0x3f928d16	1.1449306
172	0xbea01fe2	-0.31274325
173	0x3f0610c7	0.5236935
174	0xbc3cc186	-0.011520749
175	0xbd3838a4	-0.04497589
176	0x3d704b90	0.058665812
177	0x3e280014	0.1640628
178	0xbe60e3a1	-0.21961834
179	0x3d64b077	0.055832352
180	0xbf43e1ea	-0.7651659
181	0x3f74d674	0.9563973
182	0xbda96ff0	-0.082733035
183	0x3f028a38	0.50992155
184	0xbeca275f	-0.39483163
185	0xbe711cdf	-0.2354617
186	0x3f2eb907	0.6825108
187	0x3f455537	0.7708315
188	0xbdbc5f2e	-0.091978416
189	0xbdd5aff1	-0.10433949
190	0x3fa133e9	1.2593967
191	0xbe36e633	-0.17861252

net.0.bias f4 [64]
0	0xbef57c75	-0.47946516
1	0xbfae074e	-1.3595979
2	0x3f157cc7	0.5839352
3	0xbf0cfa72	-0.5506965
4	0xbf234345	-0.6377452
5	0x3f307d54	0.68941236
6	0x3e626576	0.22109017
7	0x3d00d6cb	0.031454843
8	0xbee3abd2	-0.44467026
9	0x3e2cd4d6	0.16878065
10	0xbf3c39de	-0.735258
11	0xbead2324	-0.33815873
12	0x3f77f6ca	0.96860945
13	0xbe4e0f3a	-0.20122996
14	0xbf54ed87	-0.8317494
15	0x3f0afad5	0.5428899
16	0xbe78dfd8	-0.2430414
17	0x3f122773	0.57091445
18	0xbf90d2da	-1.1314347
19	0xbf1a65d0	-0.60311604
20	0xbe1ef697	-0.15523754
21	0x3f4a1431	0.7893706
22	0x3ead4fc4	0.3384992
23	0xbed4f1d7	-0.4159076
24	0xbec36f94	-0.38171065
25	0x3f619ebe	0.88132846
26	0x3f843b57	1.0330609
27	0x3f3f4217	0.7471022
28	0xbe943d9b	-0.2895325
29	0x3ec90cd3	0.39267597
30	0xbf0c964c	-0.54916835
31	0x3e710064	0.23535305
32	0x3eb68f4d	0.35656205
33	0x3db37fad	0.087645866
34	0xbf68ad80	-0.9088974
35	0xbef34fb3	-0.47521743
36	0x3e80aa5d	0.25129977
37	0xbf0b5330	-0.5442381
38	0x3f00e16a	0.50343955
39	0xbe9adb1b	-0.3024529
40	0xbd88af34	-0.06674042
41	0x3ed67af8	0.41890693
42	0x3f2a7361	0.66582304
43	0xbddef174	-0.10885897
44	0x3f07af7f	0.5300216
45	0x3d96f60d	0.07371149
46	0xbf6915d3	-0.91048926
47	0x3e658cbd	0.22416969
48	0xbf757843	-0.9588663
49	0xbf344170	-0.7041235
50	0xbe81090f	-0.25202224
51	0x3f1f94c8	0.623364
52	0xbebe884b	-0.37213358
53	0x3e353859	0.17697276
54	0xbe3f4215	-0.18677552
55	0xbf54b76e	-0.8309239
56	0xbf00a03a	-0.50244486
57	0xbf612f07	-0.87962383
58	0xbe81ebaf	-0.25375125
59	0xbf15c315	-0.58500797
60	0xbf3d9556	-0.74055994
61	0x3f2a62ca	0.6655699
62	0x3f1c9e64	0.61179185
63	0xbc9365fc	-0.017992966

net.2.weight f4 [64, 64]
0	0x3dbf92e6	0.093541905
1	0xbe81a650	-0.253222
2	0xbe1d021f	-0.1533284
3	0xbf43f7ee	-0.76550186
4	0xbc929b10	-0.017896205
5	0xbf0a677d	-0.5406416
6	0xbd8a00f2	-0.067384616
7	0xbd4c1f90	-0.049834788
8	0xbcb38a73	-0.021916604
9	0xbe72aeea	-0.23699537
10	0xbf1e7f26	-0.61912763
11	0xbdc85218	-0.09781283
12	0xbd0baeb3	-0.034102153
13	0xbe2fd51e	-0.17171142
14	0x3cebb57c	0.028773062
15	0x3e022cb9	0.12712373
16	0xbea8bb94	-0.3295561
17	0x3c17a710	0.009256139
18	0xbd5f532b	-0.054522675
19	0xbefed6bf	-0.49773213
20	0xbeb64832	-0.35601956
21	0x3cd97b35	0.026548008
22	0xbeebb7d5	-0.4603869
23	0xbe480d9e	-0.19536445
24	0xbdd590c9	-0.10428006
25	0xbe16bafd	-0.14719768
26	0x3e59eb8d	0.21281262
27	0xbee594de	-0.4484014
28	0xbe9cb9ab	-0.30610403
29	0x3deb8b8a	0.11501224
30	0xbeaea408	-0.3410952
31	0xbde8fad9	-0.113759704
32	0x3dd656d9	0.104657836
33	0xbe9d6db8	-0.3074777
34	0xbcdb19dc	-0.02674573
35	0xbe248959	-0.16068019
36	0xbe1e72c6	-0.1547347
37	0x3db74cda	0.08950205
38	0xbf013176	-0.50466096
39	0x3e4beec1	0.19915296
40	0xbd8915e7	-0.06693631
41	0xbc63f8ec	-0.013914328
42	0xbf1d57c5	-0.6146205
43	0xbf4460d3	-0.7671024
44	0xbd38f59c	-0.045156106
45	0x3db195e3	0.08671167
46	0xbece74a1	-0.40323356
47	0x3e921a04	0.28535473
48	0xbf0f4512	-0.5596477
49	0xbea1bcae	-0.31589264
50	0xbb39c16e	-0.0028344053
51	0xbdb6e17b	-0.08929726
52	0xbef92b08	-0.48665643
53	0xbe880e85	-0.26573578
54	0xbdc2ce58	-0.09512013
55	0xbd963044	-0.07333425
56	0xbdc3c98e	-0.09559928
57	0xbe530baf	-0.20609926
58	0x3d81b37e	0.063330635
59	0xbdecd268	-0.11563569
60	0xbe2f6e9a	-0.17132035
61	0xbd84c1ec	-0.064823
62	0xbdd21662	-0.102581754
63	0xbecab28c	-0.39589345
64	0x3d75cb34	0.060008243
65	0xbf15894c	-0.58412623
66	0x3eeab764	0.4584304
67	0x3ebbd4e8	0.36685872
68	0xbebe8c1e	-0.37216276
69	0xbfd61066	-1.6723754
70	0x3f4bfad3	0.796796
71	0xbea7dd70	-0.3278613
72	0xbe2f8061	-0.17138816
73	0xbdc68454	-0.09693208
74	0x3daba85d	0.08381722
75	0xbd14ba10	-0.036310256
76	0xbd04227a	-0.032259442
77	0xbe4b36f4	-0.19845182
78	0xbbf0529b	-0.007334066
79	0x3d474d0f	0.048657473
80	0xbfba70b0	-1.456564
81	0x3eefdafb	0.46846756
82	0xbd18b408	-0.037281066
83	0x3eeece28	0.4664166
84	0x3e9b4974	0.30329478
85	0x3dbe0f86	0.092803046
86	0xc004c1c6	-2.074327
87	0xbf895825	-1.0730025
88	0xbf7709bd	-0.96499234
89	0x3d80613e	0.062685475
90	0xbebdf56f	-0.37101313
91	0xbfd2c86e	-1.6467416
92	0xbfadd15d	-1.3579518
93	0x3e45d930	0.19321132
94	0xbe2905ee	-0.16506168
95	0x3f2806a0	0.6563511
96	0x3f4445a1	0.76668745
97	0xbf84acd6	-1.0365245
98	0xbf26efb6	-0.6520952
99	0xbf9f4de9	-1.2445651
100	0xbe8e99a7	-0.27851602
101	0xbdbbf500	-0.091775894
102	0x3e41a840	0.18911839
103	0x3d3a3f03	0.04547025
104	0xbeee59a2	-0.4655276
105	0x3f1bc14e	0.60841835
106	0xbe0f4d09	-0.1399423
107	0xbd8f843d	-0.07007644
108	0xbeab1ba3	-0.33419523
109	0x3e9d9787	0.3077967
110	0xbe178103	-0.14795308
111	0xbe9291bb	-0.2862681
112	0xbeb42a91	-0.35188726
113	0xbe0fb416	-0.14033541
114	0xbf282766	-0.6568512
115	0x3e8e3ae0	0.27779293
116	0xbf449130	-0.7678404
117	0xbf715a22	-0.94278157
118	0xbe4e55cd	-0.20149918
119	0xbdc9bed1	-0.098508485
120	0xbf47835d	-0.7793482
121	0xbea9ad5f	-0.33140084
122	0xbe45b282	-0.19306377
123	0xbe68dcb9	-0.22740449
124	0xbc9d4780	-0.019199133
125	0x3e1b5aad	0.15171309
126	0xbe96b9f7	-0.29438755
127	0xbf52b015	-0.8229993
128	0xbd229bd8	-0.039699405
129	0x3e7a20d7	0.2442659
130	0x3d964a83	0.07338431
131	0x3e88d5a9	0.2672551
132	0x3e5db07c	0.21649355
133	0x3d5c468c	0.053778216
134	0x3ef47fe9	0.47753838
135	0x3d1ab88e	0.03777366
136	0xbf4f2aa0	-0.80924416
137	0xbdc2d935	-0.09514085
138	0xbd52031c	-0.051272497
139	0x3caa35b0	0.020777553
140	0xbe1e87e3	-0.15481524
141	0x3ba00779	0.0048837033
142	0x3ddd4513	0.108041905
143	0xbebba032	-0.36645657
144	0xbe273f47	-0.16332732
145	0x3d726575	0.05917879
146	0x3c2e8d7d	0.010653851
147	0x3e80be4b	0.25145182
148	0x3f09a64a	0.5376936
149	0xbd14700d	-0.036239672
150	0x3c680eed	0.014163715
151	0xbc6a323d	-0.014294204
152	0x3e003d27	0.12523328
153	0x3e91f05f	0.285037
154	0x3f1c3093	0.6101162
155	0x3e4ef28f	0.20209716
156	0xbda91362	-0.0825565
157	0xbe3dc117	-0.18530689
158	0x3c29a5ba	0.010354454
159	0x3ec581d6	0.3857562
160	0x3ec945f6	0.39311188
161	0xbf06b45f	-0.52618974
162	0x3e3a4d9e	0.18193671
163	0x3f2fa8b3	0.6861679
164	0xbf826959	-1.01884
165	0xbdf9c526	-0.12195806
166	0xbd8c7de1	-0.06859947
167	0xbed8b37d	-0.4232444
168	0xbd1e6e85	-0.03867962
169	0xbe923408	-0.28555322
170	0xbe13e197	-0.14441524
171	0xbf70da2a	-0.9408289
172	0xbd81c8fc	-0.06337163
173	0x3eec8354	0.46193945
174	0x3e225bad	0.15855284
175	0x3dc9fa14	0.09862152
176	0xbddbbf3b	-0.10729834
177	0xbd64b23d	-0.055834044
178	0xbd4e892f	-0.050423797
179	0xbda5f8f2	-0.08104123
180	0x3de3a468	0.111153424
181	0xbf2c41db	-0.6728799
182	0x3e9a409e	0.30127424
183	0x3db14c45	0.086571254
184	0x3d3db589	0.046315704
185	0xbe8af116	-0.2713706
186	0xbd632d99	-0.055463407
187	0xbdb2c935	-0.087297834
188	0xbe860db5	-0.26182333
189	0x3e5c92a1	0.2154031
190	0xbdaaedf2	-0.08346166
191	0x3e9faae0	0.31185055
192	0xbc3bf150	-0.011471108
193	0x3d751ce0	0.05984199
194	0xbe505e54	-0.20348483
195	0xbe65d6f7	-0.22445284
196	0x3d0865cd	0.03330021
197	0xbe1c6683	-0.1527348
198	0xbe6b590f	-0.22983192
199	0xbe51dc70	-0.20494246
200	0xbf8b2984	-1.0872045
201	0xbf92694a	-1.1438382
202	0xbe56db0d	-0.20981999
203	0xbd45eb40	-0.048320055
204	0xbd688f2d	-0.056777168
205	0x3cd81d33	0.02638111
206	0x3c8967d1	0.016773136
207	0xbd14281e	-0.03617107
208	0xbd36cd0a	-0.044629134
209	0xbed2a26d	-0.41139546
210	0x3deae1ff	0.114688866
211	0xbe8e4431	-0.277864
212	0x3c960e4c	0.018317364
213	0xbf478e6d	-0.779517
214	0xbd52382c	-0.0513231
215	0x3d83ae5d	0.064297415
216	0x3d81adb1	0.06331957
217	0xbf49b454	-0.78790784
218	0xbe898e4b	-0.26866373
219	0xbda1ff27	-0.079099946
220	0x39fc6e26	0.00048147253
221	0xbef78ff6	-0.4835202
222	0xbdabd8d8	-0.08390969
223	0xbdbea2c9	-0.093083926
224	0xbdd58734	-0.104261786
225	0xbf8db05a	-1.1069443
226	0x3d425eb4	0.047453597
227	0xbeea6f06	-0.4578783
228	0xbfaf4602	-1.369324
229	0xbd7623c8	-0.060092717
230	0xbf28ae9f	-0.6589145
231	0x3e0fcdb3	0.14043312
232	0x3d1f7436	0.038929187
233	0x3e724789	0.23660101
234	0x3e53b2bc	0.2067365
235	0xbf773b5a	-0.9657494
236	0xbdbb82e0	-0.09155822
237	0xbe063368	-0.13105547
238	0x3d91fb51	0.07128013
239	0xbf3fd777	-0.7493815
240	0xbf694546	-0.9112133
241	0xbf56abdc	-0.83855987
242	0xbe109a4c	-0.1412136
243	0xbf410a54	-0.75406384
244	0xbe88a221	-0.26686195
245	0xbf939c32	-1.1532042
246	0x3e3296c1	0.1744032
247	0x3dd3ae3f	0.10335969
248	0xbdc6fd77	-0.09716313
249	0xbf76d8ec	-0.96424747
250	0xbc378d62	-0.011203142
251	0xbed817d5	-0.42205682
252	0xbf9be4c5	-1.217919
253	0xbf984890	-1.1897144
254	0x3cdea2bc	0.027177207
255	0xbd636c9d	-0.055523504

net.2.bias f4 [64]
0	0xbea35e10	-0.31907701
1	0xbb1b73ae	-0.0023720074
2	0x3e1698f0	0.14706779
3	0xbe148a41	-0.14505865
4	0xbe6c32a5	-0.23066194
5	0xbd887be9	-0.06664259
6	0xbdfbebb8	-0.12300819
7	0xbdc2077e	-0.09474085
8	0x3da301af	0.079593055
9	0x3f116ca1	0.5680638
10	0xbeae1b0a	-0.34005004
11	0xbf164158	-0.58693457
12	0xbcf7ff50	-0.03027311
13	0xbe8aa312	-0.27077538
14	0xbda8f870	-0.08250511
15	0x3f00b669	0.50278336
16	0x3f2aa6a1	0.66660506
17	0x3edc0469	0.42972115
18	0xbdf7962a	-0.120891884
19	0x3e18e40f	0.14930747
20	0x3f2f26ec	0.68418765
21	0x3ec080ee	0.37598366
22	0x3ed59aa8	0.41719556
23	0x3ede254e	0.43387836
24	0x3e748a8c	0.23880976
25	0x3c20e732	0.009820746
26	0xbe3517fe	-0.17684934
27	0xbe8b888f	-0.27252623
28	0xbdd07052	-0.101776734
29	0xbea3a85c	-0.31964386
30	0xbe214de4	-0.15752369
31	0x3ed7610e	0.42066234
32	0x3da97802	0.08274843
33	0x3d8ee251	0.0697676
34	0xbcfc3f01	-0.030791761
35	0xbe52ec57	-0.20597969
36	0x3cd64d13	0.026159799
37	0xbddfc5fa	-0.10926433
38	0x3f0bd379	0.54619557
39	0x3cd5b1c1	0.026085736
40	0x3f0b0b6c	0.54314303
41	0x3ec7d9af	0.39033267
42	0xbe0c376b	-0.13693015
43	0x3ecb5c21	0.39718726
44	0xbddced03	-0.10787394
45	0x3dc8867a	0.09791274
46	0xbdce6216	-0.10077302
47	0xbd4e6890	-0.050392687
48	0xbd669f93	-0.056304526
49	0xbccfb4f1	-0.025354834
50	0x3f2aa186	0.66652715
51	0x3ea71879	0.3263586
52	0xbefb2612	-0.49052483
53	0x3ee74e22	0.45176798
54	0x3e87d300	0.26528168
55	0x3d7edca1	0.062222127
56	0x3f489a58	0.7836051
57	0x3ec6235a	0.38698846
58	0xbe32dcc5	-0.1746703
59	0xbbf1bb40	-0.0073770583
60	0xbe1b6bde	-0.15177867
61	0xbcc2ca48	-0.023778096
62	0x3edc7bfa	0.43063337
63	0xbe11a80e	-0.14224264

net.4.weight f4 [4, 64]
0	0x3f476435	0.7788728
1	0x3e6559e7	0.22397576
2	0x3e470ae6	0.19437751
3	0xbf1c497e	-0.6104964
4	0xbf58f3bd	-0.84746915
5	0x3e17ae67	0.14812623
6	0xbc089a80	-0.008337617
7	0xbea82fb7	-0.32848904
8	0xbd3aac7c	-0.04557465
9	0xc021bc0e	-2.527103
10	0xbf30a40f	-0.69000334
11	0x3db664ec	0.08905968
12	0xbc10d57b	-0.00883996
13	0xbf7a55f5	-0.9778741
14	0xbda06dd0	-0.07833445
15	0x3f191ad3	0.59806556
16	0x3e92a879	0.2864416
17	0x3e83cda6	0.25742835
18	0x3da13a88	0.07872492
19	0x3d9caedc	0.07650539
20	0x3e319d2e	0.17345116
21	0x3d4dde4a	0.05026082
22	0xbf2911d4	-0.6604283
23	0x3f2fbdac	0.6864879
24	0x3e37ac08	0.17936718
25	0xbd3a9bdb	-0.04555879
26	0x3bbefda7	0.0058285776
27	0xbd9fbe22	-0.07799937
28	0x3ecf358b	0.40470538
29	0x3e528c63	0.20561366
30	0x3d82ceab	0.06387075
31	0x3ead975c	0.3390454
32	0x3d24bd47	0.04021957
33	0xbd22b546	-0.039723657
34	0x3d9a085f	0.07521128
35	0xbf92b0b0	-1.1460171
36	0x3e51c335	0.20484622
37	0xbd530737	-0.051520552
38	0x3e9aa5d0	0.3020463
39	0xbd91e50b	-0.071237646
40	0xbf22f6c0	-0.6365776
41	0x3f3ea714	0.7447369
42	0x3d31a29d	0.04336797
43	0x3f1bddf4	0.6088555
44	0xbf1cfc35	-0.6132234
45	0xbedad2cd	-0.42738953
46	0x3e8a4723	0.27007398
47	0x3ee9522c	0.45570505
48	0xbf485717	-0.7825789
49	0x3bdf242a	0.006809731
50	0x3ed7933e	0.42104524
51	0x3f2b34d3	0.6687748
52	0x3e3ce83a	0.18447962
53	0x3eaf6bd4	0.34261954
54	0x3ece7b40	0.40328407
55	0xbef9fe00	-0.488266
56	0x3ee9dfbb	0.45678505
57	0x3de7b922	0.11314608
58	0xbef0b48f	-0.47012755
59	0x3ced85a8	0.028994396
60	0xbd3b2ca1	-0.04569686
61	0x3f2ebac1	0.68253714
62	0x3f02322f	0.50857824
63	0x3f1a9da5	0.60396796
64	0xbd1e77dc	-0.038688526
65	0x3f1b3946	0.6063427
66	0x3e533b5f	0.20628117
67	0x3e4f201f	0.20227097
68	0x3e932b41	0.28743938
69	0xbf04f424	-0.5193503
70	0x3d1778ec	0.036980554
71	0xbf8c1ada	-1.0945694
72	0xbca14408	-0.01968576
73	0xbf653214	-0.8952954
74	0x3e063296	0.13105235
75	0x3f2b6a5d	0.6695917
76	0xbddf9c4c	-0.10918483
77	0xbd944229	-0.072391815
78	0x3d7b9764	0.061423674
79	0xbe9609a6	-0.29304236
80	0x3e81a604	0.25321972
81	0xbd50b713	-0.050955843
82	0xbde034a5	-0.10947541
83	0x3edc0b1d	0.4297723
84	0x3d984b3f	0.07436227
85	0xbea470ee	-0.3211741
86	0xbe867202	-0.26258856
87	0x3f48bd3a	0.78413737
88	0xbf951782	-1.1647799
89	0x3e9897eb	0.29803404
90	0xbda2de2b	-0.079525314
91	0x3f38f376	0.7224649
92	0x3f9a1ae8	1.2039461
93	0xbec84757	-0.39116928
94	0x3db50064	0.08837965
95	0x3ee73a20	0.45161533
96	0xbd13f977	-0.03612658
97	0xbd93ac11	-0.072105534
98	0x3d406d1d	0.04697906
99	0x3e1d1bb6	0.15342602
100	0xbf469aa4	-0.7757971
101	0xbf385514	-0.7200482
102	0x3f086505	0.53279144
103	0xbc759728	-0.014989652
104	0x3ed58ea4	0.4171039
105	0x3e3125e1	0.17299606
106	0x3f0acfea	0.542235
107	0xbe715a0d	-0.23569508
108	0xbda5f6c3	-0.08103707
109	0xbf06fd95	-0.52730685
110	0x3ea02375	0.31277052
111	0x3e41941c	0.18904155
112	0x3e6bacc0	0.23015118
113	0x3f116d9e	0.5680789
114	0x3f069825	0.52575904
115	0x3f500e4a	0.81271803
116	0x3f2a85d7	0.66610473
117	0x3ef406ed	0.47661534
118	0xbf6b4003	-0.9189455
119	0x3d44cb83	0.048045646
120	0x3e8b461f	0.27201936
121	0x3e14f0fb	0.14545052
122	0x3f792f5d	0.97337896
123	0xbd1c8051	-0.03820831
124	0x3d87c840	0.066299915
125	0xbe38725b	-0.18012373
126	0x3f05a4d5	0.5220464
127	0xbd5f0966	-0.054452322
128	0x3db57ef9	0.08862109
129	0x3f0fa6b1	0.56113726
130	0x3cd2f5ae	0.025751915
131	0x3f461be9	0.7738634
132	0x3f0c3ee7	0.5478348
133	0x3d28b80b	0.041191142
134	0x3b5bf423	0.0033562265
135	0xbe07ae39	-0.13250054
136	0xbd502247	-0.05081394
137	0x3e9e96ba	0.3097437
138	0x3e18d665	0.14925535
139	0x3e255314	0.16144973
140	0xbda60085	-0.08105568
141	0x3e35ef1a	0.17766991
142	0x3dd27a30	0.10277212
143	0x3ee3dd17	0.44504616
144	0x3f1043b3	0.563533
145	0x3ef190f3	0.471809
146	0xbac927a4	-0.0015346897
147	0xbde4faae	-0.11180626
148	0x3f3c616a	0.7358614
149	0x3db4fbe2	0.08837105
150	0x3f07ec5a	0.5309502
151	0x3f439210	0.7639475
152	0x3dcdd1b1	0.10049761
153	0x3e88480c	0.26617467
154	0xbd5df982	-0.054193027
155	0x3dacdd9c	0.08440706
156	0xbe90fa5a	-0.28316003
157	0x3e6d4ace	0.23173067
158	0x3d018663	0.0316223
159	0xbbb192e0	-0.00541912
160	0xbdc67d33	-0.096918486
161	0xbc81e6ce	-0.015857127
162	0x3d90be7d	0.07067583
163	0xbed4a954	-0.41535437
164	0x3f817dc7	1.0116509
165	0x3d31fe31	0.043455306
166	0x3d12d89e	0.035851113
167	0x3d2bd614	0.041952208
168	0x3e2b5862	0.16732934
169	0x3e2e1959	0.17001857
170	0x3e8f4094	0.27978957
171	0x3e8c6ef4	0.274284
172	0xbea3d1b6	-0.31995934
173	0xbf59558f	-0.8489618
174	0xbe4ac4a9	-0.19801582
175	0xbdb09054	-0.086212784
176	0xbdcd80b4	-0.10034314
177	0x3e079294	0.13239509
178	0x3f38414c	0.71974635
179	0x3eeeaade	0.46614736
180	0x3f184b82	0.59490216
181	0xbe631ddd	-0.2217936
182	0x3e36ba15	0.17844422
183	0x3e01f960	0.12692785
184	0x3f1dbf8f	0.6162042
185	0x3e4d759a	0.20064393
186	0xbe6bb34d	-0.23017617
187	0xbd81a7e1	-0.063308485
188	0xbddde014	-0.10833755
189	0xbf4748c2	-0.77845395
190	0xbe857704	-0.26067364
191	0x3fa2d1d4	1.2720284
192	0xbd2a1b05	-0.041529674
193	0xbef8da48	-0.48604035
194	0x3c64bc8c	0.013960969
195	0x3de9a2c5	0.11407999
196	0x3f1f03d2	0.62115204
197	0x3ea8f3e3	0.3299857
198	0x3dbb9bdb	0.091605864
199	0xbe467d07	-0.19383632
200	0xbd2f621d	-0.042818177
201	0xbef7528e	-0.48305172
202	0x3f3c9dfd	0.7367857
203	0x3d544e79	0.05183265
204	0xbdd3f19e	-0.10348819
205	0x3dc314b8	0.09525436
206	0xbddb57dc	-0.10710117
207	0x3e3368ce	0.17520449
208	0x3ec69639	0.38786486
209	0x3ee47d73	0.4462696
210	0xbbb4fc3b	-0.0055232323
211	0xbdf6e5de	-0.120555624
212	0xbe4dee6c	-0.20110482
213	0x3f492738	0.7857547
214	0x3f39ebbd	0.72625333
215	0xbb67d462	-0.0035374393
216	0x3dc240e9	0.09485037
217	0x3fabe69f	1.3429755
218	0x3d6b0d89	0.057385955
219	0x3f4b3ae3	0.7938673
220	0x3d93c332	0.07214965
221	0x3ed87306	0.42275256
222	0xbd56ba85	-0.052423973
223	0x3f655527	0.8958306
224	0xbd9ae146	-0.07562499
225	0xbd7fe0a4	-0.062470093
226	0x3cf29fa7	0.029617144
227	0x3f73ea39	0.9527927
228	0x3e87a865	0.26495662
229	0xbc8afc9a	-0.016966153
230	0xbde8dca0	-0.11370206
231	0x3d390e03	0.04517938
232	0x3e9afd0f	0.30271193
233	0x3dce0ea4	0.10061386
234	0x3e02ee50	0.12786222
235	0x404729b8	3.1119213
236	0x3dee4718	0.11634654
237	0xbca0c570	-0.019625396
238	0x3f76ee4c	0.9645736
239	0xbf1a2b7c	-0.602226
240	0xbe8fbd31	-0.2807403
241	0xbe66c023	-0.22534232
242	0x3ffa5091	1.9555837
243	0x3f240dfa	0.64083827
244	0x3e9aa2f4	0.30202448
245	0x3e5466e4	0.20742375
246	0x3eb23fe4	0.3481437
247	0x3e22e28d	0.15906735
248	0x3deb6e25	0.11495618
249	0xbe39c253	-0.18140535
250	0x3ef73c3b	0.4828814
251	0x3d1f9b34	0.038966373
252	0x3d71a3d9	0.058994148
253	0xbf5d3661	-0.864111
254	0x3f0c7ce5	0.54878074
255	0x3f85b1f0	1.0444927

net.4.bias f4 [4]
0	0x3f32b475	0.69806606
1	0x3f226047	0.6342816
2	0x3f27744f	0.6541185
3	0xbdc09be8	-0.09404737
